prediction/models/lstm/best_lstm_5k.pth (torch, 847568 bytes, 11 tensors)

lstm.weight_ih_l0 f4 [512, 68]
00000000: fbee 4930 85b2 aab0 97ce 0430 b146 bcae
00000010: 046d 4f30 7af7 84b0 d2a6 0d30 f464 cfae
00000020: 5449 6730 196c 8db0 3470 d12f 5b0a f0ae
00000030: 3cae 5e30 b7d5 b1b0 84c5 0c30 9d88 69af
00000040: b373 5130 bebe b3b0 2d40 0930 2203 59af
00000050: dc10 7730 6d84 b8b0 f029 1730 3e3f cdae
00000060: dc87 7830 0353 bcb0 f8c5 1230 1fee 14af
00000070: 21e3 8630 9a08 beb0 5444 0930 8506 6fae
00000080: 22f4 8d30 1b5c 9ab0 019b 952f 40b4 6cae
00000090: 58a4 6330 df76 cab0 a5ca 0230 7f34 2eaf
000000a0: 4d9c 7e30 6b79 bbb0 b171 1530 12b0 ffae
000000b0: 3024 7830 c177 c9b0 618d 0530 2b27 95ae
000000c0: aa1b 6a30 3dde cfb0 0ee2 912f 3856 30af
000000d0: 4b07 8f30 cd39 c8b0 d4d3 1730 0f25 d4ad
000000e0: 41bd 7930 1b45 c5b0 a9ce 1330 373f b42d
000000f0: accc 9630 ec58 d8b0 78f4 1230 e61d a52d
00000100: d54b 8430 856c bbb0 b0aa 0d30 f19c cb2d
00000110: ffaa d132 2d2a 6fb2 80dc 4132 c6f5 cfb0
00000120: a0eb d332 8fcd 6db2 4fb0 cc31 1d07 86b1
00000130: 508e d232 3788 45b2 0dc3 9131 78a1 54b1
00000140: 3cda e432 1e39 3eb2 f9e0 e131 e5d1 e5b0
00000150: ea30 d432 d4da 42b2 a3fc c831 9155 d0b0
00000160: 7ce6 f432 aa23 57b2 90f2 2a32 1807 e0b0
00000170: cc64 eb32 8f05 67b2 d8f8 2032 cb6c b6b0
00000180: f451 f632 6508 81b2 d195 2a32 bb02 92b0
00000190: 1539 f732 33d4 87b2 16b3 3832 f7fb 36b1
000001a0: e01b e632 8c02 93b2 c0d4 ec31 1804 2cb1
000001b0: d656 f332 7bf8 99b2 9fc6 4432 6281 1cb1
000001c0: b413 eb32 344c 83b2 eb1a 4832 cbe9 82b0
000001d0: 536a ee32 f4d9 71b2 8782 3932 8f5d 83b0
000001e0: 12c9 0033 0b7f 8fb2 a5a2 3a32 0c35 2b2e
000001f0: f666 ef32 d39b 81b2 ab5b 2f32 824e cb2e
00000200: c4d9 0a33 d79c 89b2 6932 5e32 663e 93b0
00000210: 5548 fc32 49b0 8bb2 fd75 2e32 634f edaf
00000220: 3893 69b2 26c3 a2b1 dec5 2bb0 8165 262f
00000230: ae4d 77b2 32b3 9eb1 9457 6fb0 3f86 d72f
00000240: a5c5 67b2 fda9 9eb1 10bf e6af 6dd5 e32e
00000250: 8926 68b2 f687 a6b1 efed 49b0 a70f 812f
00000260: 93c6 6ab2 1b8c aeb1 7423 d4af 591f db2d
00000270: 7031 65b2 3b14 b5b1 f304 13b0 9110 9c2f
00000280: 930f 6db2 1699 b5b1 7e02 77b0 2f9d 4f2f
00000290: 5258 70b2 4598 bfb1 2f41 d0af 1308 4a2f
000002a0: 56a7 68b2 6dd9 b4b1 8ffd e7af 31a5 4c2e
000002b0: 1074 6bb2 4ad6 ceb1 194f c4af e2ee db2e
000002c0: 2bfb 6bb2 164c c0b1 bcbf 0fb0 127d af2f
000002d0: 5037 70b2 59eb c3b1 ac8c 3cb0 313a 8d2c
000002e0: 727d 68b2 7ae5 c6b1 3178 f3af 95ed c6ac
000002f0: 2998 67b2 186f e9b1 49b5 0bb0 1d83 472f
00000300: 1288 79b2 2422 dbb1 7a2e 12b0 a421 14ae
00000310: 97fb 67b2 b91d 00b2 494b 42b0 42dd 0eaf
00000320: 16f6 66b2 095c f3b1 5aef 40b0 9c88 bcaf
00000330: cc88 331d eb4f 321c 0cda e71c e81f d49b
00000340: 3517 601d b1f4 e81b b054 db1c 65fb 829b
00000350: 3015 4a1d f4a1 c61c 3014 c31c 027f 5d9b
00000360: b2e8 361d caf8 bd1c d9fd 041d 0dea 589b
00000370: 4331 3b1d 9c9f 311d 39e3 da1c 5528 cb9b
00000380: 6511 3a1d b5d8 271d eb01 fc1c ed2d b79b
00000390: 1391 181d 9e1f ba9a b5e2 971c 9e26 119b
000003a0: 09da 4e1d 2e7a 071d 91f9 f61c 5e55 529a
000003b0: c3ad 2b1d 8b8c aa9a 1f9c ca1c 53cf 869b
000003c0: 7221 5f1d 4f7a e51a efe8 f61c d8ff d29a
000003d0: ea19 2c1d e0c8 c61a c5ad f61c e2a3 7b9b
000003e0: f870 3c1d 31f4 929a de62 e41c 30c3 9f9a
000003f0: a9b3 f01c 206f 679a beb1 e81c 1342 399a
7.3462986e-10 -1.2419866e-09 4.83149e-10 -8.5618075e-11 7.546108e-10 -9.674601e-10 5.1532567e-10 -9.431203e-11
8.4141516e-10 -1.0289823e-09 3.8096604e-10 -1.0915776e-10 8.101073e-10 -1.2939186e-09 5.121239e-10 -2.1239761e-10
7.6198176e-10 -1.3078176e-09 4.993151e-10 -1.9737148e-10 8.9882035e-10 -1.34254e-09 5.4993077e-10 -9.333555e-11
9.041494e-10 -1.3702394e-09 5.339582e-10 -1.3545119e-10 9.814337e-10 -1.3826764e-09 4.993741e-10 -5.43481e-11
1.0328487e-09 -1.1231153e-09 2.721308e-10 -5.382028e-11 8.2815665e-10 -1.473122e-09 4.75817e-10 -1.5843858e-10
9.262678e-10 -1.364055e-09 5.436745e-10 -1.1627334e-10 9.02733e-10 -1.4658711e-09 4.858603e-10 -6.782693e-11
8.5168017e-10 -1.5124396e-09 2.6535968e-10 -1.6037738e-10 1.0406692e-09 -1.4568343e-09 5.5234506e-10 -2.4118067e-11
9.085462e-10 -1.4353277e-09 5.377197e-10 2.0491704e-11 1.0972108e-09 -1.5741342e-09 5.34619e-10 1.8771606e-11
9.625817e-10 -1.3636884e-09 5.153806e-10 2.3148124e-11 2.4408562e-08 -1.3921221e-08 1.12842145e-08 -1.5131085e-09
2.4670783e-08 -1.3841954e-08 5.9572254e-09 -3.900722e-09 2.4511934e-08 -1.1497881e-08 4.24223e-09 -3.0941845e-09
2.6641935e-08 -1.10724425e-08 6.5739383e-09 -1.6721599e-09 2.4702292e-08 -1.1342042e-08 5.8494876e-09 -1.5158311e-09
2.851015e-08 -1.2522756e-08 9.950455e-09 -1.6300161e-09 2.7403438e-08 -1.34472335e-08 9.369806e-09 -1.3273164e-09
2.8675437e-08 -1.5021394e-08 9.929367e-09 -1.0623674e-09 2.8780542e-08 -1.5812565e-08 1.0750929e-08 -2.6627711e-09
2.67882e-08 -1.711421e-08 6.892691e-09 -2.5031621e-09 2.8328412e-08 -1.792454e-08 1.1453863e-08 -2.2774533e-09
2.736656e-08 -1.528506e-08 1.1647653e-08 -9.525193e-10 2.7755197e-08 -1.4077603e-08 1.0798096e-08 -9.558095e-10
2.9985195e-08 -1.6705163e-08 1.0863606e-08 3.8928014e-11 2.7870083e-08 -1.5088437e-08 1.02071835e-08 9.245317e-11
3.2328686e-08 -1.6020222e-08 1.2933563e-08 -1.0713392e-09 2.9369554e-08 -1.6261895e-08 1.015496e-08 -4.3166457e-10
-1.3595859e-08 -4.7370063e-09 -6.2490624e-10 1.5133673e-10 -1.4394955e-08 -4.6187774e-09 -8.707215e-10 3.920366e-10
-1.3490909e-08 -4.6177306e-09 -4.1972514e-10 1.0360677e-10 -1.3512939e-08 -4.846693e-09 -7.34615e-10 2.3476085e-10
-1.3665743e-08 -5.0799946e-09 -3.8587766e-10 2.4911339e-11 -1.3340795e-08 -5.2700933e-09 -5.348532e-10 2.8388006e-10
-1.3798757e-08 -5.285197e-09 -8.986162e-10 1.8882383e-10 -1.398992e-08 -5.5761427e-09 -3.7881295e-10 1.8374662e-10
-1.3542225e-08 -5.263408e-09 -4.219882e-10 4.653095e-11 -1.370519e-08 -6.019751e-09 -3.5708395e-10 1.0001401e-10
-1.3735909e-08 -5.5965854e-09 -5.229557e-10 3.1921182e-10 -1.3982415e-08 -5.702003e-09 -6.859391e-10 4.0139216e-12
-1.35327e-08 -5.788647e-09 -4.4286844e-10 -5.6538754e-12 -1.3480567e-08 -6.7938224e-09 -5.0825527e-10 1.8145525e-10
-1.4524646e-08 -6.37762e-09 -5.318054e-10 -3.3681183e-11 -1.3503175e-08 -7.457339e-09 -7.0683775e-10 -1.2993431e-10
-1.34437155e-08 -7.082694e-09 -7.018933e-10 -3.4294068e-10 2.3761175e-21 5.899855e-22 1.5342662e-21 -3.5093077e-22
2.965815e-21 3.8539309e-22 1.4514096e-21 -2.1669156e-22 2.6745431e-21 1.3144405e-21 1.2909236e-21 -1.832173e-22
2.42078e-21 1.2571281e-21 1.760129e-21 -1.7942727e-22 2.4774712e-21 2.3508271e-21 1.4484766e-21 -3.3609597e-22
2.4625888e-21 2.22143e-21 1.6676457e-21 -3.030449e-22 2.0192034e-21 -7.697888e-23 1.0050944e-21 -1.2006597e-22
2.7376595e-21 1.7930267e-21 1.6343426e-21 -4.349594e-23 2.2721494e-21 -7.053741e-23 1.3407595e-21 -2.230242e-22
2.9531095e-21 9.490978e-23 1.6339126e-21 -8.72673e-23 2.2777408e-21 8.221541e-23 1.6323833e-21 -2.0815187e-22
2.4939996e-21 -6.07787e-23 1.5113331e-21 -6.60762e-23 1.5928309e-21 -4.7859446e-23 1.5398417e-21 -3.8310478e-23

lstm.weight_hh_l0 f4 [512, 128]
00000000: c0d5 03a8 b048 192a 481d 8aa9 0aea 7da0
00000010: 5665 b6aa 080d adb0 d79e e7ac 1893 e429
00000020: c6eb 8eaa ff38 1b28 06ba 7829 7ca9 81ac
00000030: 5299 84ae a23a 8daa b09d 842a 25d7 18aa
00000040: f70b 912d ec20 a72d 043b 62ac 174d a6ac
00000050: 82e5 bf2a 2687 a4ab 996c 44aa fbc5 8725
00000060: b3fe d3ae d9c9 28ab b2a5 aeaa 2e55 3ea8
00000070: cf45 50aa 32c7 27ab 1d82 22aa 602f 2faf
00000080: 2652 f0aa f4b8 26ae 5fca f8aa b66e fca9
00000090: 5e94 e3ab f04d e12f 7264 542a afeb e1a8
000000a0: a9c8 22ad c628 4d25 0afa 692b 7226 a32a
000000b0: 56ac f72f a67d 9baf 203d 06aa 1ad0 86ac
000000c0: 25da ab29 ba14 8a2a 8954 99a9 cbfc f124
000000d0: 3cc8 3f2a ccf3 532a a62f 55aa cb23 8d2d
000000e0: f19c 7aaf 3201 6eaf 5fb5 a92a c5c3 0727
000000f0: 16ec b42b 4cec 532a a3ab 09a8 1495 dda9
00000100: 04e9 bcaa 45b3 c82a 17a8 a2ac d082 422c
00000110: 369e cb28 ac66 b6aa 7dc3 962f df90 e6b0
00000120: f29a 9faf f9c1 3caa 27c0 cd2d d89b d0a9
00000130: 6e90 c62c eef7 bc2a 0800 00a8 d8b4 e2ad
00000140: 785a e1ab c767 f729 50af 8c2a af99 122d
00000150: 592c d026 0599 a4a9 5a81 a6ac d75c 3c24
00000160: 6dd7 7d2c f9aa 9b23 e8e1 602b 2466 562c
00000170: bd60 232f 272c 5bad 5184 8030 7e34 fa28
00000180: 8ec4 2a2d 8169 51a8 7343 c62a eedd 03ac
00000190: 51ea 87b0 75ae cdab 7b86 09af 9c82 4a26
000001a0: 4bf2 53ad f369 68aa 1861 05ad 161c 602b
000001b0: 170e 8e2a 736b e828 23de cbaf 2473 5028
000001c0: 638f 89af d3d5 09a9 debb 862b ccb3 152a
000001d0: 3c2e f5aa 2fd1 6328 76da a9ab 4938 3c26
000001e0: 1218 7c28 223a 59b0 c08a f6ad 092e e0ab
000001f0: da42 7faa 5b15 cc2a af3e 85a9 cc63 24ac
00000200: 16dd 9baa 6555 74ab 71fd 1bac 863b 9ba2
00000210: 1e6b 272e 95e5 b1b2 4d5d d72f 6b70 8c2c
00000220: 36d2 832c f4e9 9e2e a749 d7ab bb91 18ad
00000230: 5f31 e0af f9cf 9a2e d540 2eac b4d4 012e
00000240: c217 a7b1 ad30 80b0 cc6e 51ac 562e f1ae
00000250: 2a3e 91ae 6d71 30ac ad44 832b 5625 d1a8
00000260: 8307 8430 bab0 01af 53b3 75aa bba5 9928
00000270: 6d78 532e 1aeb 5cac 10b7 f4ab ab90 efb0
00000280: 0f4b b9aa d8fe 8630 29b8 902c e1a9 932c
00000290: e786 9eab 096b 3432 85d8 0aac 369d 982c
000002a0: 9fb5 4830 7622 2029 bdd0 87aa f3b4 2eac
000002b0: 1a10 2b32 9eda cb2f 4d01 cc2b 2909 46b0
000002c0: f9f5 96a9 8aae 732c 5e4e d82b 71e2 8c27
000002d0: 6b45 c32b caee 56ac 3efc a32e 3be3 a82e
000002e0: 7576 deb0 e62d 7eb0 0cbf a0ae 50f3 d92b
000002f0: e77c 09af f973 b42c e84f a82c 6dcc ca2c
00000300: d080 0b2c 7ec8 9cad 2d69 9cac 3b63 822e
00000310: 4199 2f2a 1b84 1d2e 68ad 362f be33 7cb2
00000320: e7ea cbb0 8fb8 402c e42f 76b0 ba00 472c
00000330: b3c9 0d2d b46b 65ad 684b 382b 8c16 7930
00000340: 1dea 5bac 29d0 95ac f0db 73ad 95d3 cc2c
00000350: cad4 56a8 7b35 8b2c 88ad 90ac 22e5 772a
00000360: 6f13 722c c9dd e626 449c 042e 17c0 2d2e
00000370: 3786 c52f 01e4 bdad bc58 9132 47cd 2b2c
00000380: f87d 28b0 4a63 dfab 5663 f5ae d250 a6aa
00000390: e740 39b2 addb 8dac e8ff c2b0 2c68 3429
000003a0: 5baa a0af bfb5 3b2c 7575 82ad 27af 942c
000003b0: c416 8bad 6e78 4a2c 5adb 96b2 428a 6c2b
000003c0: 9fae 38b0 bb05 152e 8f3b 1bae 3576 e3ab
000003d0: f4e3 992c 9787 9da9 0ab1 73ac 47e4 15aa
000003e0: 2eac 3da9 a061 fbb1 c00a 2931 b3a6 3fab
000003f0: 5551 212d 489c baac 848f 0aac 9b7d 83ae
-7.3183105e-15 1.3614348e-13 -6.1335106e-14 -2.150737e-19 -3.240001e-13 -1.259111e-09 -6.5830496e-12 1.0150751e-13
-2.5387868e-13 8.6165875e-15 5.522841e-14 -3.685217e-12 -6.0299e-11 -2.5087316e-13 2.3557328e-13 -1.3574955e-13
1.6489905e-11 1.9000322e-11 -3.2149292e-12 -4.7265625e-12 3.408767e-13 -1.1690412e-12 -1.7445974e-13 2.3552924e-16
-9.640413e-11 -5.996571e-13 -3.1023583e-13 -1.0565589e-14 -1.8498331e-13 -5.960676e-13 -1.4433633e-13 -1.5932988e-10
-4.2689566e-13 -3.79083e-11 -4.4194073e-13 -1.12102534e-13 -1.61705e-12 4.098264e-10 1.8864231e-13 -2.508223e-14
-9.253189e-12 1.779473e-16 8.312523e-13 2.8981293e-13 4.505149e-10 -2.8283614e-10 -1.1922798e-13 -3.831613e-12
7.6317675e-14 2.4528106e-13 -6.8092294e-14 1.0494534e-16 1.7033678e-13 1.8825149e-13 -1.8934732e-13 1.604574e-11
-2.2793124e-10 -2.1646399e-10 3.0146282e-13 1.884114e-15 1.2855296e-12 1.8822547e-13 -7.6422455e-15 -9.8402325e-14
-3.3557196e-13 3.565153e-13 -4.6229786e-12 2.7641674e-12 2.260614e-14 -3.2400937e-13 2.7423744e-10 -1.6775877e-09
-2.9032027e-10 -1.6765052e-13 2.3391135e-11 -9.26409e-14 5.6435334e-12 3.3567544e-13 -7.105434e-15 -2.5773536e-11
-1.6012322e-12 1.0987006e-13 2.4990643e-13 8.333264e-12 1.444492e-15 -7.309608e-14 -4.7323647e-12 4.084464e-17
3.6073048e-12 1.6877543e-17 7.9894294e-13 3.0467929e-12 1.4859132e-10 -1.24585125e-11 9.350832e-10 2.777834e-14
9.707025e-12 -1.1624708e-14 3.5218668e-13 -1.8739415e-12 -9.88914e-10 -1.4614548e-12 -1.2507854e-10 7.0259837e-16
-1.2047761e-11 -2.0642498e-13 -7.581734e-12 7.9619763e-13 2.5234044e-13 2.5803773e-14 -3.7083323e-10 1.1571287e-14
-2.5022037e-10 -3.0605574e-14 9.573416e-13 1.3296238e-13 -4.3552824e-13 1.2646391e-14 -1.2068807e-12 6.5301883e-16
1.39940295e-14 -7.902675e-10 -2.802858e-11 -1.5928935e-12 -2.2671743e-13 3.6252498e-13 -5.9172604e-14 -2.33612e-12
-2.768694e-13 -8.680472e-13 -2.2167513e-12 -4.2075857e-18 3.8066543e-11 -2.0709914e-08 3.9174566e-10 3.9915202e-12
3.746582e-12 7.2265666e-11 -1.5297111e-12 -8.672558e-12 -4.0780443e-10 7.0400526e-11 -2.4762876e-12 2.9520122e-11
-4.8630406e-09 -9.32706e-10 -2.976219e-12 -1.0967642e-10 -6.604879e-11 -2.5074068e-12 9.327171e-13 -2.3219853e-14
9.606399e-10 -1.1795268e-10 -2.1822587e-13 1.7058286e-14 4.8082805e-11 -3.1394388e-12 -1.7388053e-12 -1.7430656e-09
-3.2914684e-13 9.822214e-10 4.113172e-12 4.1968516e-12 -1.1264018e-12 1.0501716e-08 -1.9731172e-12 4.3375538e-12
7.3017675e-10 3.5557027e-14 -2.4125659e-13 -2.4827334e-12 9.957171e-09 3.7080822e-10 1.4495433e-12 -7.2045e-10
-6.7040076e-14 3.4629266e-12 1.5369474e-12 3.9103314e-15 1.3874851e-12 -3.0543784e-12 7.457189e-11 7.68012e-11
-1.6186293e-09 -9.246989e-10 -7.3098944e-11 1.548631e-12 -1.2504452e-10 5.1287832e-12 4.7837186e-12 5.763881e-12
1.9824593e-12 -1.7824183e-11 -4.4454635e-12 5.9293424e-11 1.5596293e-13 3.5815e-11 1.661441e-10 -1.4680095e-08
-1.4836957e-09 2.7387292e-12 -8.9562335e-10 2.8280004e-12 8.059708e-12 -1.3041058e-11 6.547458e-13 9.0617713e-10
-3.125173e-12 -4.257945e-12 -1.3861787e-11 5.821519e-12 -1.1925528e-14 3.956555e-12 -4.111992e-12 2.2017503e-13
3.4401056e-12 1.6019571e-15 3.0152117e-11 3.9506256e-11 3.5929457e-10 -2.1588066e-11 1.6920573e-08 2.4414513e-12
-6.1297056e-10 -1.5872661e-12 -1.1158956e-10 -2.9543604e-13 -1.0783174e-08 -4.03185e-12 -1.4188091e-09 4.0058384e-14
-2.9224875e-10 2.6675188e-12 -1.483145e-11 4.225859e-12 -1.581258e-11 2.8772778e-12 -1.7562048e-08 8.4035914e-13
-6.718696e-10 3.3883767e-11 -3.529582e-11 -1.6162129e-12 4.3738294e-12 -6.995722e-14 -3.4630653e-12 -1.3313058e-13
-4.2115772e-14 -7.31616e-09 2.4598847e-09 -6.8088173e-13 9.16985e-12 -5.3037887e-12 -1.9690647e-12 -5.979502e-11

lstm.bias_ih_l0 f4 [512]
00000000: d03f c8af 60f6 36b1 eee6 a5b0 5441 0b9b
00000010: cb40 a7b1 ff02 913a fdcb f637 5cc7 f3af
00000020: 6bd5 ea31 d41c 8e31 b9bd dcaf 61c8 c6b1
00000030: f9d2 9f38 e7ee 58b1 ea48 13b2 e301 03b1
00000040: 2407 6839 212f 5039 1617 2ab1 1881 9eb1
00000050: e4ef 3bb1 c583 2331 2895 acb1 99f4 35a9
00000060: f35b 093a 6521 86b0 2f28 8faf d6e3 16ab
00000070: d0d9 e9b1 ef2b a731 9baa d6b1 1b33 573b
00000080: 849f b1af 9433 e039 119f 08b0 b352 d832
00000090: 8610 c8b0 0f7a 783a 027e 91b1 d3a7 2130
000000a0: 7d90 2d39 0dd1 1fa8 7ff0 d7b0 8b4d fdb1
000000b0: b9ef de3a ec90 f03a 089e b0b1 1303 5239
000000c0: 26a9 c8b0 ccf9 2bb2 b4fb edb0 c71f 5027
000000d0: 2ebb 9eb0 2cb6 8231 4ee5 e130 ae98 3236
000000e0: 8102 633b bf0e 4a3b 4b10 56b1 19a7 872d
000000f0: 4c90 ac35 8205 2eb1 7a7d 8230 f243 7631
00000100: 761a 0bb2 e28d 3633 5335 8f31 e0da b0b1
00000110: db2f 2e2d 326a 2d33 5e17 833b 9059 cc3a
00000120: 0184 173c ee49 4931 b7bd 5539 56c6 f92f
00000130: 9b70 9632 8749 b6b1 9357 472e 09a4 283a
00000140: d7dc 32b0 f1bc 4030 0ebc 5333 4175 0531
00000150: 3125 17aa bf16 e631 e531 e2b0 f8be 032e
00000160: f26a 2eb1 92cd 5f24 5753 1932 2857 26b1
00000170: 48ce 243b e8c9 0c34 7743 003b 6728 4b30
00000180: f28b 5d38 2a93 eeae a936 e4b0 2023 85b1
00000190: 9e3b 9d3a cd22 0931 d58d ad3b 37b3 6727
000001a0: 6b67 b237 b18a 8bb1 fc3f 1334 c412 1332
000001b0: 53ee 8633 d7a0 6231 be4a 8b3a e8d3 b2b0
000001c0: 5982 2f39 99ab a3b1 4d66 ee34 8d5f f931
000001d0: 2dbd 0430 e56e 5bae 19bc ef31 f8d1 27aa
000001e0: 1b0a 87af 7432 d03a 164d 9739 faeb 1fb0
000001f0: 86f3 8433 02a6 9632 deb7 c931 6a34 5eb0
00000200: 8e55 a8af d918 21b1 3b69 d2b0 076c 8f1a
00000210: 99ca 5bb1 42fa deb9 4a06 2c38 eaf5 8eaf
00000220: 9ddc 9fb1 63da 29b1 2f86 a7b0 31e3 dab1
00000230: 91f0 b638 3d4f 7ab1 a0ce 06b2 7feb 55b1
00000240: 7111 9739 3c04 8539 4d32 a5b1 5b16 0732
00000250: 37b5 aab1 b4e8 d431 0b68 89b1 0394 86a9
00000260: fcb6 823a d89e 8631 7c54 91af a26f 3eab
00000270: ff36 d6b1 7a4f 3431 400f e9b1 319e 493b
00000280: ac35 ccaf 344c 063a 3781 b732 c849 1f32
00000290: 7bdd b9b0 7037 843a 951b 5ab1 a018 fc31
000002a0: 13cc 6a39 2b0b b8a8 3cdb a6b0 d5f9 afb1
000002b0: 3a1a 0d3b 20a0 cd3a b92a 63b1 abed 8539
000002c0: 31c0 c9b0 1e20 4db2 ae11 bab0 d4dc 5227
000002d0: 29b3 90b0 6eac 7731 0b94 502f 2fe3 3436
000002e0: 35da 4b3b d191 2f3b a5e3 ec30 fe5b 2a2d
000002f0: e211 3736 1569 23b1 407d f130 8e9a 54af
00000300: 82d7 11b2 65fb 7b33 e672 c831 047a 60b1
00000310: 9503 e92c 0c26 9532 61c9 723b fe5a f53b
00000320: 1330 403c c65b 0832 f020 8e39 86b6 0631
00000330: 044e 0733 4f15 5bb1 4121 422e 4167 4f3a
00000340: d4a9 a331 0b49 1c31 140d 4733 5fc3 b7b1
00000350: 50b0 0faa 7fdf 7031 7bf5 16b2 bbd2 9f2d
00000360: 9442 bcb0 bb20 a123 5756 7a31 0d76 fbaf
00000370: 5750 0e3b 9410 6534 b619 1a3c c2c0 da2f
00000380: 98ad 8b38 bc0e 12ae ffa9 e730 359f 6bb1
00000390: 9ee0 08b9 fc01 46b1 2795 cc3b 0576 4f27
000003a0: c4fd ee37 68dd ee30 815d cf33 4e73 f231
000003b0: 72f6 1234 2c98 7c31 6332 68ba 363e 7fb0
000003c0: 039d 5739 d933 a0b1 a6ad 5935 e265 3731
000003d0: dcad c931 cbd5 29ae 07ad 0232 7580 2daa
000003e0: ac36 86af e9e8 093b 19ba d639 a210 efaf
000003f0: 177d 6433 fc48 0133 c5d5 e6ae 32f5 9faf
-3.642513e-10 -2.6624534e-09 -1.2070964e-09 -1.1518919e-22 -4.867706e-09 0.0011063515 2.9420475e-05 -4.4343096e-10
6.834559e-09 4.1360213e-09 -4.0152573e-10 -5.785339e-09 7.6210075e-05 -3.1567937e-09 -8.573105e-09 -1.9064081e-09
0.00022127904 0.00019853983 -2.4751379e-09 -4.6130815e-09 -2.7348444e-09 2.3794524e-09 -5.022816e-09 -4.0402228e-14
0.0005239837 -9.759274e-10 -2.60401e-10 -5.360689e-13 -6.805955e-09 4.8653344e-09 -6.2476153e-09 0.0032836858
-3.2309455e-10 0.00042763038 -4.970256e-10 2.5183317e-08 -1.4556611e-09 0.00094786374 -4.234381e-09 5.880995e-10
0.00016552392 -8.871604e-15 -1.5711662e-09 -7.3720847e-09 0.0017008699 0.0018353737 -5.1402402e-09 0.00020028306
-1.459999e-09 -1.0010307e-08 -1.7315558e-09 2.8883025e-15 -1.1549213e-09 3.8042085e-09 1.6436077e-09 2.6612938e-06
0.0034638944 0.0030831543 -3.115036e-09 1.542193e-11 1.2856995e-06 -2.5323463e-09 9.494407e-10 3.5836334e-09
-8.096881e-09 4.250422e-08 4.16791e-09 -5.1471574e-09 9.901381e-12 4.0376285e-08 0.0040005883 0.0015590657
0.009247781 2.9291374e-09 0.00020383937 4.5433762e-10 1.7513505e-08 -5.3052562e-09 4.5325143e-11 0.00064331345
-6.5069855e-10 7.0117695e-10 4.92983e-08 1.9420698e-09 -1.3424397e-13 6.696467e-09 -1.6457845e-09 2.9955566e-11
-2.5381124e-09 4.8529542e-17 8.924721e-09 -2.4205722e-09 0.0025147367 1.3111969e-07 0.0019571462 7.3908385e-10
5.282084e-05 -1.08491285e-10 -1.6604719e-09 -3.8748027e-09 0.0011995917 1.9955906e-09 0.0052964487 3.2154842e-15
2.1267411e-05 -4.0612e-09 1.3713719e-07 8.560793e-09 6.283212e-08 3.2978755e-09 0.0010627133 -1.3011432e-09
0.00016737859 -4.7634328e-09 4.4405388e-07 7.2577166e-09 4.8290155e-10 -4.989333e-11 6.9771997e-09 -1.4905427e-13
-2.4563537e-10 0.0015884177 0.00028858398 -5.8179206e-10 6.191026e-08 1.753779e-08 5.870773e-09 -8.0837614e-10
-3.0619812e-10 -2.3442708e-09 -1.5309419e-09 5.931794e-23 -3.1983858e-09 -0.00042529596 4.1013853e-05 -2.6004382e-10
-4.65259e-09 -2.4716875e-09 -1.2188986e-09 -6.3704637e-09 8.723245e-05 -3.642483e-09 -7.846808e-09 -3.1129443e-09
0.0002881396 0.00025370892 -4.8078506e-09 7.863117e-09 -4.968253e-09 6.1964673e-09 -3.999053e-09 -5.9764714e-14
0.0009972746 3.9179717e-09 -2.6435376e-10 -6.765648e-13 -6.234472e-09 2.6238625e-09 -6.782926e-09 0.0030764455
-3.714552e-10 0.00051230495 2.1362764e-08 9.271794e-09 -1.352347e-09 0.0010087322 -3.1738854e-09 7.336965e-09
0.00022392003 -2.0432947e-14 -1.21404e-09 -5.121573e-09 0.0021530525 0.001568798 -3.3057133e-09 0.00025544813
-1.4679299e-09 -1.1939873e-08 -1.3538306e-09 2.9263066e-15 -1.0528299e-09 3.6041246e-09 1.8970085e-10 2.6954328e-06
0.0031105403 0.0026789794 1.723596e-09 9.683808e-12 2.7279534e-06 -2.3779354e-09 1.7570656e-09 -1.9336197e-10
-8.489112e-09 5.8669134e-08 5.8338285e-09 -3.2665648e-09 6.622656e-12 1.7363185e-08 0.00370463 0.0074876538
0.011730212 7.937109e-09 0.0002710889 1.960332e-09 3.150309e-08 -3.1880807e-09 4.414003e-11 0.00079118094
4.7632316e-09 2.2742508e-09 4.6345193e-08 -5.348212e-09 -1.2762122e-13 3.505164e-09 -8.786965e-09 1.816979e-11
-1.3697723e-09 1.7469517e-17 3.6428867e-09 -4.5740514e-10 0.0021715367 2.1333318e-07 0.009405544 3.9790932e-10
6.660371e-05 -3.3209643e-11 1.6855778e-09 -3.42875e-09 -0.00013053647 -2.881392e-09 0.0062433663 2.8791e-15
2.848998e-05 1.7379707e-09 9.656197e-08 7.0562356e-09 1.3686966e-07 3.6757326e-09 -0.0008857606 -9.2856867e-10
0.00020562489 -4.6625073e-09 8.109149e-07 2.6687919e-09 5.8696354e-09 -3.8616037e-11 7.606338e-09 -1.5410054e-13
-2.4413305e-10 0.0021043366 0.00040955914 -4.3485665e-10 5.3199155e-08 3.0101532e-08 -1.0497162e-10 -2.9096153e-10

lstm.bias_hh_l0 f4 [512]
00000000: 77f1 cfaf 0b15 39b1 ce75 9bb0 dc13 6f9d
00000010: 2ff7 a4b1 d021 913a 249c f637 cb08 7a31
00000020: 46b6 dcaf de0f 44b1 e3c5 adb0 b3e5 efb1
00000030: 070c a638 7715 0631 ae22 13b2 152a 36b1
00000040: fe61 6739 6d55 5039 2194 80af 44ad 0d32
00000050: cf51 1ab0 527e d231 e943 63b1 62c9 87a9
00000060: 3046 093a 39a6 22b1 faf0 67af 38a2 4aab
00000070: fd9c 9bb1 cf11 4e31 87fe 16b2 e43c 573b
00000080: 3787 c1af 8a33 e039 0181 7b32 406a b632
00000090: 255a 8a30 187a 783a 3ef2 9db1 5105 5b31
000000a0: 3b4e 2b39 970a 95a8 934c 8db0 d036 0bb2
000000b0: c2f9 de3a 5682 f03a 4e5b 90b1 5d4f 5139
000000c0: a861 a6b0 14ea 4eb2 c593 00b1 413c 7a27
000000d0: d41e 9db0 6b03 6a32 e385 69b1 ea05 2e36
000000e0: 2503 633b 2717 4a3b 70a7 65b1 adae 7b2d
000000f0: 2ea7 d135 f1a6 bcb0 4c1e 33af c313 f0af
00000100: 3359 0bb2 ac1a 4e33 b553 9431 f49b 7ab0
00000110: 0601 4e2d 2161 2a33 431b 833b e257 cc3a
00000120: 2584 173c e64c db31 5fe4 5739 2301 1732
00000130: 03d4 6e32 0549 bdb1 4067 362e 5091 283a
00000140: 8b18 f730 324b 0d32 b0c6 9533 098d d231
00000150: 4693 17aa 650d c030 8d17 9830 a938 b52d
00000160: 0020 96b1 1a12 8224 2382 1932 c5f9 1fb1
00000170: 39d3 243b a6d3 2c34 c349 003b bd2d 2a30
00000180: 7197 6638 22e0 e3b0 49b0 cdb1 9e90 96b1
00000190: 4a32 9d3a b4c5 6131 898d ad3b 94ed 6527
000001a0: f3e6 ac37 fdb4 a0b1 2bdf 9033 7d11 7a32
000001b0: 552e 8333 31c6 c9b0 d736 8b3a 8dd2 b4b0
000001c0: 976e 2f39 c253 99b1 cb86 e234 63eb d131
000001d0: 499c 8cb1 bb79 5bae 3b0e 4b31 7100 e2a9
000001e0: 2ee9 82af 2132 d03a 2db8 9639 618a 31b0
000001f0: 43e9 e732 76f2 e832 445b b931 d08a 84b0
00000200: 379d a5af 34bb 73b0 4335 8eb0 e6a7 e41b
00000210: 88fa 5cb1 c4fa deb9 ee75 2c38 e559 2131
00000220: efe3 72b1 fb29 6bb1 8d50 90b0 bb64 efb1
00000230: 78af b838 957e 9231 ce7f f2b1 d577 13b1
00000240: 5107 9739 9eaf 8439 9c20 97b1 3514 14b1
00000250: 6dab 83b1 544f ce31 5f80 8bb1 49dc 3ea9
00000260: 66ba 823a 6ed8 eeb1 2043 8caf 4c9d 1fab
00000270: 5f47 adb1 8bd1 a330 ad97 c2b1 c2a0 493b
00000280: ae99 cdaf 565d 063a 4310 5f32 64c6 f332
00000290: 7462 64b0 c637 843a f737 81b1 7e76 0332
000002a0: 9baa 6a39 8c09 9ea8 d006 cbb0 02c9 fbb1
000002b0: 191a 0d3b 6896 cd3a 1263 8db1 1ce3 8539
000002c0: 3493 7eb0 e3a7 4ab2 5585 f5b0 4856 5227
000002d0: eae1 8fb0 553b b232 b4d4 4cb1 1835 3636
000002e0: 50e1 4b3b 6594 2f3b a0eb a0b1 fb85 502d
000002f0: 5f9a 3636 6a06 1eb1 3026 83b0 5e67 db31
00000300: 1b5e 1eb2 cbc1 7433 75de b331 e1c8 a1b0
00000310: 16d4 2b2d 4b01 8332 68c9 723b 0c5b f53b
00000320: 3030 403c a3d6 0832 6e21 8e39 cada 8731
00000330: 1d83 f832 23a0 d4b1 1a38 452e 2567 4f3a
00000340: f9d6 3131 18b9 0e32 c68d e033 539f 7032
00000350: 1556 10aa 4533 5131 1457 04b2 44e6 e42d
00000360: 2802 52b0 f4e4 a823 ef83 1c32 495a 69b0
00000370: ef55 0e3b 9b18 2e34 ad19 1a3c b682 da2f
00000380: 9a9c 8c38 34ec d02f 3455 a6b0 86fc 31b1
00000390: d2e2 08b9 89d8 48b1 7896 cc3b e86e 6527
000003a0: 4891 ee37 ba9e eb30 7aaa 9733 a560 6f32
000003b0: af20 f533 9bfa 8231 6230 68ba 008b 6cb0
000003c0: 64a1 5839 9ce1 8bb1 5e4b 2b35 fe66 2732
000003d0: a0c0 7db1 5f3f 3bae 8c4e 0332 1645 22aa
000003e0: d34e 85af eae8 093b b2db d639 731a efaf
000003f0: 83bb 7833 1bdd fc32 b420 bd30 6dae dc30
-3.7824652e-10 -2.6933005e-09 -1.1311216e-09 -3.1641654e-21 -4.8011297e-09 0.0011072699 2.9398194e-05 3.6384786e-09
-4.014728e-10 -2.8530773e-09 -1.264365e-09 -6.9819293e-09 7.917737e-05 1.9511768e-09 -8.564411e-09 -2.6508407e-09
0.00022066382 0.0001986825 -2.3388316e-10 8.246676e-09 -5.614113e-10 6.1261654e-09 -3.307145e-09 -6.030139e-14
0.0005236594 -2.366859e-09 -2.109494e-10 -7.198994e-13 -4.5289412e-09 2.9987068e-09 -8.789022e-09 0.003284269
-3.5202571e-10 0.0004276301 1.4639455e-08 2.1235905e-08 1.0066442e-09 0.00094786426 -4.596841e-09 3.1871716e-09
0.00016336974 -1.6546916e-14 -1.0280864e-09 -8.103328e-09 0.001701169 0.001834939 -4.2013317e-09 0.00019961358
-1.2105845e-09 -1.2044001e-08 -1.8710449e-09 3.4727133e-15 -1.1432015e-09 1.362137e-08 -3.3982068e-09 2.5931463e-06
0.0034639325 0.0030836554 -3.3419063e-09 1.4306484e-11 1.5620369e-06 -1.3726248e-09 -1.6290719e-10 -4.3669787e-10
-8.111146e-09 4.798737e-08 4.3168833e-09 -9.1171093e-10 1.17099715e-11 3.9669548e-08 0.0040010526 0.0015590156
0.009247814 6.382481e-09 0.00020589073 8.789615e-09 1.3901629e-08 -5.5089253e-09 4.1473713e-11 0.00064303447
1.7978591e-09 8.224378e-09 6.974494e-08 6.1278382e-09 -1.346259e-13 1.3973646e-09 1.1066149e-09 2.060248e-11
-4.3692125e-09 5.640918e-17 8.935362e-09 -2.3279523e-09 0.0025150313 1.6095746e-07 0.0019575215 6.191064e-10
5.4977314e-05 -1.6580126e-09 -5.9863265e-09 -4.3820156e-09 0.0011993137 3.285419e-09 0.0052964133 3.1908925e-15
2.0611542e-05 -4.677189e-09 6.7461166e-08 1.4555892e-08 6.1085906e-08 -1.4681004e-09 0.0010621202 -1.3156566e-09
0.00016730498 -4.462408e-09 4.2193855e-07 6.109461e-09 -4.092304e-09 -4.9902953e-11 2.9548477e-09 -1.0036493e-13
-2.3812546e-10 0.001588408 0.0002874745 -6.4588873e-10 2.6998014e-08 2.7118613e-08 5.3945843e-09 -9.643717e-10
-3.0125033e-10 -8.8668917e-10 -1.0346998e-09 3.7827938e-22 -3.2156624e-09 -0.00042529975 4.1117826e-05 2.3479683e-09
-3.53452e-09 -3.4220864e-09 -1.0500273e-09 -6.967267e-09 8.806487e-05 4.26355e-09 -7.0576567e-09 -2.1459432e-09
0.00028806416 0.00025307847 -4.3983857e-09 -2.154832e-09 -3.8320906e-09 6.0044076e-09 -4.0600265e-09 -4.2379542e-14
0.0009973764 -6.951317e-09 -2.5513547e-10 -5.670644e-13 -5.0430766e-09 1.1919367e-09 -5.6633866e-09 0.0030765985
-3.739848e-10 0.00051256025 1.2984006e-08 2.837914e-08 -8.3085827e-10 0.0010087423 -3.7607566e-09 7.652146e-09
0.00022379534 -1.7545664e-14 -1.477213e-09 -7.3279134e-09 0.0021530448 0.0015685083 -4.114903e-09 0.00025536946
-9.261385e-10 -1.17961205e-08 -1.7863991e-09 2.9190128e-15 -1.0468828e-09 2.0748908e-08 -2.9806815e-09 2.7151018e-06
0.0031109639 0.002679133 -4.6834003e-09 1.1853181e-11 2.720997e-06 -2.2995672e-09 -9.542358e-10 6.3854904e-09
-9.2182075e-09 5.698693e-08 5.234876e-09 -1.1771385e-09 9.767317e-12 1.5250995e-08 0.0037046317 0.0074876603
0.011730239 7.965045e-09 0.00027109258 3.9538905e-09 2.8930623e-08 -6.1882175e-09 4.4842442e-11 0.0007911793
2.5879088e-09 8.307573e-09 1.0456601e-07 1.4006065e-08 -1.2819635e-13 3.0442646e-09 -7.7032105e-09 2.6022857e-11
-7.640062e-10 1.8311562e-17 9.110393e-09 -8.489321e-10 0.00217187 1.6213964e-07 0.009405536 3.9746845e-10
6.7048895e-05 3.8002812e-10 -1.2102306e-09 -2.5900433e-09 -0.00013054468 -2.9226916e-09 0.006243523 3.1840256e-15
2.8439463e-05 1.7143613e-09 7.062495e-08 1.3933605e-08 1.1414647e-07 3.8119885e-09 -0.0008857307 -8.605383e-10
0.00020659488 -4.0710812e-09 6.381214e-07 9.744097e-09 -3.692584e-09 -4.2575162e-11 7.643063e-09 -1.441246e-13
-2.4248567e-10 0.0021043369 0.00040980947 -4.349264e-10 5.791254e-08 2.9437208e-08 1.3760855e-09 1.6056682e-09

lstm.weight_ih_l0_reverse f4 [512, 68]
00000000: f658 2334 60f2 e433 5555 8eb2 4e6e 502e
00000010: 750e 2234 263c 0134 9e8a eeb1 3443 9aae
00000020: 2e16 1d34 c257 bf33 4e06 08b2 1a8c a72e
00000030: fb4b 2934 1304 c833 01c8 a4b2 a23d ea2e
00000040: a047 1f34 d1b4 dd33 ff87 4fb2 e6e2 6bae
00000050: e8bf 2a34 22d8 fc33 0c43 12b2 aeba 45ab
00000060: e884 2834 5a67 0e34 85cf 9bb2 8576 9bae
00000070: 1178 2d34 8077 1334 1dbf 77b1 0e18 b7af
00000080: 54ec 2634 3d09 0034 5345 2cb1 3dc1 0dae
00000090: 5b8a 1834 e639 0934 3726 5ab1 291a 8b2e
000000a0: 3647 1e34 6cd0 0934 46ce 6fb1 a4aa 82af
000000b0: 1c7a 2c34 788c dc33 6cce 52b2 2535 89ad
000000c0: d392 1c34 bf2e 0e34 bf13 c2b1 98ea 16ac
000000d0: 7af7 2334 1654 1f34 16b8 4bb2 3dbc 232f
000000e0: 7b8f 2434 80af 0a34 4a40 33b1 b371 bc2d
000000f0: c12d 2634 81c1 1934 45ec 3bb1 33c1 6f2f
00000100: a970 2c34 616b 2134 67fe f9b1 7ec2 55ad
00000110: e07b 8b30 f369 5530 18b1 8bad d049 1f2b
00000120: 0b4b 8a30 68bc 5130 f7a1 84ad aee2 a52a
00000130: ae50 7730 a614 3230 941c 9fad 447e 702b
00000140: 7603 8e30 6181 3a30 aea4 3fae 0728 262c
00000150: 3d4b 7430 ef5f 2630 a15f c3ad 7bbe 352c
00000160: 32e5 8e30 b61d 5e30 d401 e7ad d6c0 922a
00000170: c052 7530 c896 5130 d742 fcad 810b 052b
00000180: daba 8e30 9547 6830 d7d0 b7ae f331 2c2a
00000190: 833d 8530 4905 5c30 5bb3 ceae 079a 4aac
000001a0: 7ca1 8830 c4cd 6d30 4496 91ae 822f 022d
000001b0: 9751 6430 77ac 6930 971e 3bad 574d fcaa
000001c0: 11a9 9230 9677 3030 caf7 abad dc25 1a2a
000001d0: 7d19 8e30 3522 6d30 9737 d3ad ce6d a629
000001e0: 43be 8130 b39d 7930 e760 e4ad 49e2 9f2b
000001f0: 5961 8930 6723 6c30 44e1 64ae 7ed2 022c
00000200: 4972 9330 d237 6330 accd fead fe23 0dad
00000210: 54dc 9030 cea1 7730 26d5 16af 6b66 49ac
00000220: 901a 672e 1dd5 422e d010 aaab 7378 9027
00000230: 24ba 662e ef46 3f2e 16d5 50ac dca8 aea6
00000240: 7990 5f2e 8b16 272e b831 93ab cb85 e4a8
00000250: b494 762e 9996 192e ca16 b0ac 14d2 88a8
00000260: 9a55 732e 2d80 402e dcda 84ab 1da0 66a8
00000270: abfc 782e b6da 372e 9daf 7aab e7f1 f427
00000280: d4ea 552e c593 362e f9b1 baab 526c 5da8
00000290: 3ecf 7b2e 6132 4a2e 73e0 beac 1a25 eb28
000002a0: 9cfc 682e dc8a 4b2e 1eab 7aac ac26 b4a9
000002b0: 5fdf 6a2e 23a7 4d2e 7be3 caac 82cd ae2a
000002c0: 924f 6a2e efb4 2f2e 5615 34ab 3389 35a9
000002d0: d842 772e 0507 4f2e d401 0eac bc84 9e27
000002e0: 1b18 742e 6da8 4f2e 42c3 deab 4c59 0029
000002f0: 8532 632e 065c 522e 868d 82ab a341 df28
00000300: 964a 6f2e c9fd 3a2e adaf b7ab 07ad 0028
00000310: 9a95 7e2e 4f49 2f2e c4c1 2cac 1391 1d29
00000320: f36d 762e 9e92 572e b559 aaab 9ca4 73a9
00000330: 50d9 0c36 2300 c135 1a6f 46b3 3b99 08b0
00000340: 3243 0a36 e90f c035 9bd4 9eb3 5cc1 1c31
00000350: 2526 0d36 9216 c035 ccbc 3eb3 d0e7 d6b0
00000360: baf9 0e36 c4c0 c035 7df9 45b3 cacd 672f
00000370: 4ae8 0e36 feef a235 faab 8db4 c89f fcb0
00000380: 852c 1336 685c b435 4584 18b4 a963 d72f
00000390: fbd2 0d36 9bcd c735 f787 c8b3 83e3 1ab1
000003a0: a4b0 1636 8c76 b235 0d4b 99b4 5d02 d030
000003b0: db12 0936 7dc7 c535 8057 13b3 5b26 d0b0
000003c0: 49ee 0e36 1594 ca35 d0b4 61b3 0f68 4131
000003d0: e3a3 0d36 4872 b735 75f4 13b4 b09e 0030
000003e0: 64b4 1336 bf7f d635 1cfc 7db4 19af fd2f
000003f0: e541 1236 c1e1 b935 1df8 4db3 6015 9830
1.5212922e-07 1.0661165e-07 -1.656978e-08 4.7391695e-11 1.5092685e-07 1.2035943e-07 -6.9424706e-09 -7.015047e-11
1.4629833e-07 8.9100936e-08 -7.917675e-09 7.619168e-11 1.5766993e-07 9.313967e-08 -1.9183064e-08 1.0652036e-10
1.4834086e-07 1.0324005e-07 -1.2079908e-08 -5.363434e-11 1.5902299e-07 1.1773979e-07 -8.513563e-09 -7.024753e-13
1.569457e-07 1.326238e-07 -1.8138744e-08 -7.069637e-11 1.615556e-07 1.3733916e-07 -3.6051866e-09 -3.3304598e-10
1.554593e-07 1.192429e-07 -2.50687e-09 -3.223132e-11 1.4206437e-07 1.2780183e-07 -3.1744898e-09 6.325635e-11
1.4740803e-07 1.2834943e-07 -3.489633e-09 -2.376811e-10 1.6063171e-07 1.02700994e-07 -1.2270544e-08 -1.5598698e-11
1.4582047e-07 1.3241787e-07 -5.648388e-09 -2.1446508e-12 1.527059e-07 1.4838619e-07 -1.18580115e-08 1.489164e-10
1.5325888e-07 1.2916098e-07 -2.6084472e-09 2.1423618e-11 1.54766e-07 1.4319632e-07 -2.7346385e-09 2.1805562e-10
1.6059734e-07 1.5033358e-07 -7.275776e-09 -1.2150834e-11 1.0148788e-09 7.763951e-10 -1.5881116e-11 5.6590583e-13
1.006215e-09 7.63015e-10 -1.507859e-11 2.9467178e-13 8.997273e-10 6.4785366e-10 -1.8088898e-11 8.5440357e-13
1.0332843e-09 6.7850264e-10 -4.3574637e-11 2.3612238e-12 8.8873603e-10 6.052678e-10 -2.2211401e-11 2.5827385e-12
1.0397001e-09 8.080535e-10 -2.6262471e-11 2.6068617e-13 8.9248076e-10 7.624803e-10 -2.8678766e-11 4.7267057e-13
1.0384966e-09 8.450283e-10 -8.358974e-11 1.5293998e-13 9.694506e-10 8.0043044e-10 -9.3996554e-11 -2.8791429e-12
9.941199e-10 8.651251e-10 -6.620529e-11 7.400193e-12 8.3061863e-10 8.5009993e-10 -1.0636512e-11 -4.4817858e-13
1.067095e-09 6.419837e-10 -1.955049e-11 1.3691083e-13 1.0339104e-09 8.626871e-10 -2.401261e-11 7.390929e-14
9.440061e-10 9.0809776e-10 -2.5963632e-11 1.1360436e-12 9.99573e-10 8.590661e-10 -5.2041274e-11 1.8590958e-12
1.072814e-09 8.2661444e-10 -2.8967793e-11 -8.022914e-12 1.054e-09 9.0088015e-10 -1.3718146e-10 -2.8620671e-12
5.254691e-11 4.4299776e-11 -1.2083893e-12 4.009862e-15 5.246127e-11 4.3491374e-11 -2.9676864e-12 -1.2119445e-15
5.0832647e-11 3.7991426e-11 -1.0458778e-12 -2.5371108e-14 5.6066e-11 3.492193e-11 -5.004751e-12 -1.519014e-14
5.5327833e-11 4.376959e-11 -9.43991e-13 -1.2802284e-14 5.6613086e-11 4.1803637e-11 -8.9061554e-13 6.7985876e-15
4.8639162e-11 4.1513255e-11 -1.3265492e-12 -1.2291453e-14 5.725486e-11 4.5974228e-11 -5.4250437e-12 2.6106331e-14
5.2975055e-11 4.6280188e-11 -3.5622126e-12 -8.000314e-14 5.3403833e-11 4.676005e-11 -5.7664407e-12 3.105121e-13
5.3276113e-11 3.9951095e-11 -6.3978456e-13 -4.0309075e-14 5.6220667e-11 4.7072585e-11 -2.0180429e-12 4.399772e-15
5.5500587e-11 4.7215943e-11 -1.5828244e-12 2.8499162e-14 5.1658695e-11 4.7830205e-11 -9.276336e-13 2.4786439e-14
5.4408554e-11 4.251691e-11 -1.3051692e-12 7.142947e-15 5.7885786e-11 3.9855504e-11 -2.4550232e-12 3.4986835e-14
5.603158e-11 4.9015562e-11 -1.2104125e-12 -5.4099615e-14 2.0988118e-06 1.437966e-06 -4.6201514e-08 -4.9694265e-10
2.0602715e-06 1.4309745e-06 -7.396121e-08 2.28109e-09 2.103284e-06 1.4311684e-06 -4.4409532e-08 -1.5636434e-09
2.130501e-06 1.4361217e-06 -4.6094545e-08 2.1082439e-10 2.129486e-06 1.2139787e-06 -2.6388426e-07 -1.8380826e-09
2.193062e-06 1.3437939e-06 -1.4204223e-07 3.9179085e-10 2.1133444e-06 1.4886494e-06 -9.3379576e-08 -2.2539275e-09
2.245456e-06 1.3296535e-06 -2.8553077e-07 1.5134664e-09 2.0425566e-06 1.4735703e-06 -3.4305685e-08 -1.5144893e-09
2.129835e-06 1.509327e-06 -5.2551343e-08 2.8144347e-09 2.1106032e-06 1.3667823e-06 -1.3779375e-07 4.679164e-10
2.2009708e-06 1.5981421e-06 -2.3654178e-07 4.6144846e-10 2.179405e-06 1.3849277e-06 -4.795594e-08 1.1065531e-09

lstm.weight_hh_l0_reverse f4 [512, 128]
00000000: 153a dfae ee95 5d2d 4b40 2b2c 80c2 1eb0
00000010: cae8 6c2c 3e9b cfa7 d4cb afad 109d 392f
00000020: 043b 1c2c 98bf b02e 3fb0 84a6 4ea6 db2c
00000030: 200e ba2f 26f8 6baf 806a 06af b117 c12e
00000040: 8337 1b2d b6a9 38b0 ab7c 21b0 6956 2fad
00000050: b345 1a2d 2348 14af 6912 c62e 726b c7af
00000060: 1e1b 1db0 3ba9 932f 1581 ad2f 0d17 d125
00000070: dd6a da2c e338 e828 f0c4 cbad f1f2 002c
00000080: c3d2 0aac fc17 7d2f 5930 bb2f 7c37 b3af
00000090: c89b b92e f93e 2b2f 6cb7 492f d69d e1af
000000a0: 0dec b331 e414 58b2 3a97 a0af 8cef 8d2e
000000b0: b068 f2af 388d 06af c337 a22e 8d85 ffaf
000000c0: c516 01b0 74ac c2a9 79fe 682e ac5c 2bb0
000000d0: f535 d0ae 5c47 f02d 9b11 802f fa46 8f2a
000000e0: 275b c632 878d 872c b584 d52f 7cf0 10af
000000f0: 5655 e72d d6d4 07ae c50e e132 6cc2 0faf
00000100: c9ea efaf 8be1 082e f987 452f fd70 97af
00000110: 77e4 d4ae 939a 932f e5d8 b62d be2d 662f
00000120: 45f2 e52e b8d3 202f efe3 572c a58c 3d2e
00000130: 2a4a baae 28a2 292d 7c9c bd2f e11b 52ae
00000140: 91b9 89ad a911 222f 86a3 27ae e8bb b22c
00000150: 48ac adae 47e0 ef28 2f2b 38af 075f 03ad
00000160: 1197 01b0 47fc 4230 23cd 952b 9ee5 41af
00000170: 7b53 0aac 8ed9 64af 4eac 12b0 d8af c925
00000180: 3210 0bad 6cf4 3f2d 1e9e 4d2d 6ca7 1fb0
00000190: 0538 942e 57a1 7a2c 7f54 baaf 5965 882f
000001a0: b8ae 2c30 6ab0 582b bc41 0cb0 8c74 df23
000001b0: df54 0cae 03bd ad2f 62b1 ee2e 2524 f42d
000001c0: 1405 802f 1ded 6c2d ed76 c52f 5a7a c02c
000001d0: dfcb 58a9 4eb1 a2af 3ea3 c7ae a640 a8af
000001e0: e28c 02ad d5db a92f d6b9 91ac f53e dca5
000001f0: b09e 33a5 30b4 3cae cebe a92e 16b6 902e
00000200: 2ea6 ddaa feec 2929 3b66 2b28 4d9f 1bac
00000210: 2705 db27 7947 46a4 8f72 cfa9 b66c cb2b
00000220: af03 5528 a54f 362b 0cdc 06a4 1060 a928
00000230: ea05 0e2a d7b9 89aa 873c c9aa 8e2c 752a
00000240: 20e2 1a29 267c 2aac 4071 77a9 5348 1aa8
00000250: 15f4 2129 8b2f 19ab 1317 ef28 2531 c2ab
00000260: 717c 31ac d2de 982b 7454 9b2b 0b74 0222
00000270: 0f60 e628 f022 2125 2f03 d1a9 a431 df27
00000280: 98b5 8ea7 3638 0e2c 1df3 832a 6ef7 ceab
00000290: 496c bc2a 3060 562b e900 902a a2c5 10ac
000002a0: 16e6 782d ee08 adae 2c23 4dac ed21 8d2a
000002b0: ef64 03ac 46e6 13aa f9f4 e02a b660 ffab
000002c0: 12fa 1cac 3492 a5a5 6960 872a cf37 69ac
000002d0: 76cc eeaa 0468 0e2a 2791 00aa 3b8f 3b27
000002e0: f822 0c2f 6b58 8628 5798 e52a 144a fbaa
000002f0: 4efd db29 6d4d 56aa 1531 f62e e077 8da8
00000300: 2560 2dac 533b 2b2a 097d ca2a 0da9 85ab
00000310: c112 0aab 6a78 ac2b d895 db29 443d b92b
00000320: 192c 192b 9fb0 d12a e674 1928 d851 4d2a
00000330: 7f5f 24ab 42a9 1429 c746 2f2c d944 67aa
00000340: 99c0 75a8 010b b02b 1962 58aa a8dc 7428
00000350: 2f88 18ab 6e7f f924 b95d 64ab 4cce 23a9
00000360: 0cc1 f0ab 6197 892c f4e4 8c26 f483 2dab
00000370: 5cea 03a7 3ebb 60ab 62ae 18ac 71a3 8922
00000380: ce08 bea9 d7e8 a029 c809 c128 05b6 d8ab
00000390: 69da b72a b0b0 2a28 f179 2cac f3a8 0d2c
000003a0: 644a 712c 08b4 d627 e1a8 80ab 765c 3a20
000003b0: b19d 37aa e78a 8a2b 2497 222b ad45 f929
000003c0: fcf1 322c d2b7 032a 37ae 10a8 733f f228
000003d0: dd83 7aa5 91bc 4eac 7bea 8caa df6c d5a8
000003e0: 3008 f1a8 fe9b 942b 87a2 10a9 63ce 37a2
000003f0: 4cfa 3ba1 cb8b c2aa ed70 c62a e36f 8a2a
-1.01511834e-10 1.2595687e-11 2.4336251e-12 -5.7756466e-10 3.366684e-12 -5.7622355e-15 -1.9985714e-11 1.6881452e-10
2.2201694e-12 8.037587e-11 -9.207112e-16 6.242818e-12 3.384324e-10 -2.1461286e-10 -1.2225065e-10 8.780832e-11
8.823056e-12 -6.7179984e-10 -5.874862e-10 -9.966785e-12 8.769363e-12 -1.348615e-10 9.007268e-11 -3.6274234e-10
-5.7154803e-10 2.685939e-10 3.1560235e-10 3.627134e-16 6.207797e-12 2.5781845e-14 -2.3165886e-11 1.8324754e-12
-1.9727976e-12 2.3018737e-10 3.4049455e-10 -3.2599334e-10 8.440498e-11 1.5574732e-10 1.8346008e-10 -4.103941e-10
5.2364215e-09 -1.2577605e-08 -2.9211283e-10 6.45449e-11 -4.4093929e-10 -1.22374e-10 7.3768124e-11 -4.6479123e-10
-4.6962284e-10 -8.6452465e-14 5.297671e-11 -6.234113e-10 -9.4683296e-11 2.7316531e-11 2.3295574e-10 2.5451153e-13
2.3091685e-08 3.8526435e-12 3.8838768e-10 -1.3182161e-10 2.6299556e-11 -3.0884482e-11 2.6200164e-08 -1.3074847e-10
-4.3640672e-10 3.1123142e-11 1.7965353e-10 -2.7547023e-10 -9.6812273e-11 2.6848976e-10 2.0787325e-11 2.0934629e-10
1.045675e-10 1.4627133e-10 3.0679866e-12 4.3098542e-11 -8.471475e-11 9.642544e-12 3.4490089e-10 -4.7773233e-11
-1.5657505e-11 1.4740088e-10 -3.8116642e-11 5.079926e-12 -7.8977325e-11 2.6631595e-14 -1.6750044e-10 -7.467588e-12
-4.7144605e-10 7.0935297e-10 1.0644024e-12 -1.7634824e-10 -1.965732e-12 -2.081377e-10 -5.335935e-10 3.4987098e-16
-7.904831e-12 1.09113656e-11 1.168801e-11 -5.8081784e-10 6.740212e-11 3.5616698e-12 -3.389324e-10 2.4810268e-10
6.2821526e-10 7.698344e-13 -5.102512e-10 2.4227068e-17 -3.1907695e-11 3.1602818e-10 1.08544965e-10 2.775564e-11
2.3286673e-10 1.3467697e-11 3.5918593e-10 5.470552e-12 -4.8138465e-14 -2.959361e-10 -9.07847e-11 -3.0604957e-10
-7.420927e-12 3.089712e-10 -4.14178e-12 -3.8206578e-16 -1.557954e-16 -4.290629e-11 7.719124e-11 6.580707e-11
-3.9372796e-13 3.7731096e-14 9.5145746e-15 -2.2115255e-12 6.0790297e-15 -4.2994946e-17 -9.2125194e-14 1.4454191e-12
1.1824674e-14 6.476992e-13 -2.9243005e-17 1.880443e-14 1.2614185e-13 -2.446504e-13 -3.5746772e-13 2.1775829e-13
3.4391e-14 -2.422737e-12 -5.4943246e-14 -8.5644e-15 3.596089e-14 -5.44225e-13 2.6544337e-14 -1.3798169e-12
-2.5222292e-12 1.0862095e-12 1.1036853e-12 1.7679718e-18 2.5576788e-14 1.3976361e-16 -9.282017e-14 6.1948754e-15
-3.96098e-15 2.0210617e-12 2.3438968e-13 -1.4705856e-12 3.3470647e-13 7.616156e-13 2.558017e-13 -2.057334e-12
1.4148257e-11 -7.8687154e-11 -2.9151776e-12 2.5070172e-13 -1.867225e-12 -1.3136115e-13 3.9960377e-13 -1.8145682e-12
-2.230775e-12 -2.8722008e-16 2.4047715e-13 -3.3142271e-12 -4.2419166e-13 1.2648221e-13 -1.1419044e-13 2.6029109e-15
1.2745349e-10 1.4915334e-14 4.0784279e-13 -4.463796e-13 9.769495e-14 -1.903388e-13 1.11955036e-10 -1.5706132e-14
-2.463815e-12 1.5208433e-13 3.596917e-13 -9.497139e-13 -4.9053475e-13 1.2254757e-12 9.7515474e-14 1.3162045e-12
5.4417717e-13 3.7248413e-13 8.5185544e-15 1.8236053e-13 -5.839703e-13 3.300941e-14 2.4908285e-12 -2.0540808e-13
-1.3641995e-14 1.2508606e-12 -1.9218688e-13 1.3592568e-14 -5.419024e-13 1.0820241e-16 -8.113194e-13 -3.6372205e-14
-1.7106607e-12 3.9105806e-12 9.776509e-16 -6.164507e-13 -1.8306948e-15 -7.9840637e-13 -2.16973e-12 3.7306975e-18
-8.4392224e-14 7.1458186e-14 2.1431546e-14 -1.5398244e-12 3.2658883e-13 9.475209e-15 -2.4510361e-12 2.013109e-12
3.4289455e-12 5.959212e-15 -9.14182e-13 1.5785406e-19 -1.6308375e-13 9.844043e-13 5.776371e-13 1.1069908e-13
2.542965e-12 1.1698913e-13 -8.031383e-15 2.6894914e-14 -2.172872e-16 -2.9379036e-12 -2.50317e-13 -2.3694966e-14
-2.6759926e-14 1.0559329e-12 -3.2115393e-14 -2.4910385e-18 -6.368933e-19 -3.4558324e-13 3.5250223e-13 2.4591361e-13

lstm.bias_ih_l0_reverse f4 [512]
00000000: ac19 2c33 62e6 e52f b266 4a2d 5422 2535
00000010: 2d61 222e 6d8a 3525 34a9 9430 898e 1634
00000020: 6063 492d 5f2e 3b33 019f 2aa6 764c ae2e
00000030: 2844 9d34 8b00 0034 ba86 f832 d5d4 2232
00000040: 1ee6 1b2f a54f a535 5b29 6935 47fa 8630
00000050: 1396 722f a032 5933 a638 9833 7f83 9334
00000060: 0348 3f35 0a6e 0834 94ae 1135 252a 9b20
00000070: d9c6 082f 6d73 7c26 d982 c430 ef79 142d
00000080: 4eb2 142d 13bd b034 7dd3 6235 cf91 a634
00000090: 8685 5132 a29d 9333 bbb5 8934 bceb 8334
000000a0: 856e 2d38 41ee 473a 62c8 7435 829d c132
000000b0: f31c 9535 9781 4434 8a26 bf32 d2c1 2035
000000c0: fb19 0e35 0f51 a9a8 716d 9d32 084e 9c35
000000d0: aa53 d332 6c92 1f31 a556 b734 7461 152b
000000e0: 5646 503a 92cd 002e 9c94 b434 f836 e033
000000f0: 98e0 9f30 2225 9d31 ea8f 053a ab7a e432
00000100: dd33 c834 e92f c830 3580 0d34 f07c 3d34
00000110: 1bb6 be32 df9a 9234 95d5 a830 1159 5d34
00000120: b9f3 1733 4554 8734 e1fa 082f 864b 2032
00000130: af80 e132 6fef 1e2f 2d97 7435 8f3d 7831
00000140: fa5d ea30 a9f9 7834 c6ce d731 c94b 272e
00000150: 1fc4 8133 3de3 8427 6fe3 9633 7019 5f2f
00000160: a4f2 2235 35e2 8235 c390 a12c 6234 cd33
00000170: 3ab0 102e 4ecd de33 93a1 f434 f274 ad21
00000180: e7f0 0230 7d40 bf2f ca99 8c30 9e30 4635
00000190: 4377 4b32 9c74 552e 504d 2b35 8cc4 ab34
000001a0: 61d0 6c35 5578 ab2c 14c4 db34 167e 551d
000001b0: 4eb8 3a31 5033 8c34 46ba 2633 aca0 bd30
000001c0: cf78 d234 8578 b830 6270 bd34 86d7 ea2e
000001d0: 0b82 b927 005f 0d35 f417 fc32 06fd 5935
000001e0: 2f38 432f f293 8034 3b29 222f fd5d 4921
000001f0: 1b23 ab1f 9ab1 8232 8d8c 0d32 cfce 8a32
00000200: 6c26 8e33 a12e d92f ad70 402d 117b 2035
00000210: 3d6e 5c2e 8c09 0525 a847 d430 5152 fa33
00000220: c4b5 f52c ef75 5533 ec5b 2ba6 5ffa d62e
00000230: 4dcf 9034 ebdc 1034 aa6d 0633 5657 ed31
00000240: fd22 592f cff7 9d35 37aa 4935 c0b6 7d30
00000250: ebd5 572f e5a1 0833 4a98 5333 93f2 b734
00000260: 9070 0235 d3f6 3e34 b817 2535 fdef 8220
00000270: 0046 2d2f cfe5 7b26 0b90 7130 395c 062d
00000280: 82a8 062d 3544 0b35 4c19 3d35 fe5a 9c34
00000290: 8bbd 8532 c47c 2833 0252 4e34 b11c e734
000002a0: 55a8 1f38 4436 873a 9df9 6035 9632 ba32
000002b0: 23dc 1f35 0bef dc33 68e7 c632 eb9c 2735
000002c0: e98e e334 6a91 b2a8 91cf 8632 4602 6035
000002d0: 166e 0133 c353 3331 bf71 0b35 edc5 2e2b
000002e0: 9ccb aa3a 2799 ba2d 596e dc34 db33 d633
000002f0: 0e45 8230 2929 aa31 91e9 453a 4cd3 ca32
00000300: affc 2635 9900 3731 2ae2 ae33 5306 6534
00000310: 4a2a e032 98a4 8434 1176 9d30 7c9b 4a34
00000320: 9217 c832 cc84 2134 3e03 f52e fd36 2732
00000330: 6c78 d432 8a32 eb2e dad4 0935 ca0c c231
00000340: aaeb 0931 6db4 8234 6930 da31 0085 9c2e
00000350: 2ae3 9633 1ce5 e226 3c98 8c33 74be 172f
00000360: b07a 0835 c750 b035 84a0 882c b9d7 c133
00000370: 57b4 282e 4811 0f34 22ad 4335 000d 8921
00000380: 5380 5730 1041 962f d5a2 5b30 a329 5d35
00000390: 9240 ab32 305e 352e abdd 1d35 274f ce34
000003a0: 300e 6635 6ed4 6e2c 3992 3235 b4c5 871c
000003b0: fb46 3731 4cc7 8834 5dfb a932 bf66 bb30
000003c0: 027f f234 2b0d d830 d7b4 ca34 2e9f e02e
000003d0: 942e 9827 e0d2 2635 1363 ef32 1f8c 3d35
000003e0: 6dca 352f f607 6c34 f026 1c2f 6ecb 4f21
000003f0: cd64 941f dde9 7432 7706 1732 628d 9232
4.007022e-08 4.1818554e-10 1.15051735e-11 6.1517244e-07 3.6920845e-11 1.5746148e-16 1.0816508e-09 1.4021693e-07
1.1447593e-11 4.3581505e-08 -5.919609e-16 7.926186e-11 2.929312e-07 1.1921126e-07 2.8932266e-08 9.4780335e-09
1.4178922e-10 1.2316638e-06 8.6859444e-07 9.820916e-10 2.2063089e-10 5.0570293e-08 7.088356e-08 2.747656e-07
7.1257836e-07 1.2706019e-07 5.4270754e-07 2.628591e-19 1.2439773e-10 8.7586494e-16 1.4298066e-09 8.439901e-12
8.452418e-12 3.2920124e-07 8.4499317e-07 3.1026e-07 1.2195761e-08 6.873894e-08 2.5650465e-07 2.457217e-07
4.1349344e-05 0.000762675 9.118868e-07 2.2539783e-08 1.110979e-06 1.8301067e-07 2.2252852e-08 5.988669e-07
5.293693e-07 -1.8797923e-14 1.8326974e-08 1.1645616e-06 2.4601679e-08 2.3220776e-09 3.4149448e-07 5.3070677e-13
0.0007945051 2.9286414e-11 3.363574e-07 1.04408116e-07 1.1632606e-09 4.573523e-09 0.0005094992 2.6598476e-08
3.7290638e-07 1.4565532e-09 1.317829e-07 1.7647449e-07 2.2201723e-08 2.7307303e-07 1.2284312e-09 2.0614631e-07
3.537909e-08 2.5207024e-07 1.2458258e-10 9.330398e-09 2.6251966e-08 1.445508e-10 9.1117073e-07 3.6123742e-09
1.7052451e-09 2.3187626e-07 6.280831e-09 3.8038715e-11 6.042705e-08 3.688373e-15 7.026289e-08 2.0290769e-10
6.070279e-07 9.75159e-07 4.591967e-12 9.555585e-08 3.289833e-11 1.0375025e-07 4.5566102e-07 1.1753891e-18
4.763607e-10 3.478852e-10 1.023005e-09 7.3831495e-07 1.1843272e-08 4.8534163e-11 6.381497e-07 3.199424e-07
8.822008e-07 4.873472e-12 4.0934594e-07 2.82555e-21 2.7171327e-09 2.6114367e-07 3.88193e-08 1.3797226e-09
3.9203448e-07 1.3422016e-09 3.5285763e-07 1.0679373e-10 5.1488808e-15 5.2664836e-07 2.9347554e-08 8.1206997e-07
1.7755107e-10 2.3949502e-07 1.4748462e-10 6.822584e-19 7.2479394e-20 1.5214756e-08 8.239238e-09 1.615936e-08
6.619379e-08 3.9505202e-10 1.09389555e-11 5.978373e-07 5.012012e-11 1.1539146e-16 1.5445396e-09 1.16565054e-07
6.983499e-12 4.9700187e-08 -5.945212e-16 9.776068e-11 2.697292e-07 1.3491415e-07 3.1299045e-08 6.9075368e-09
1.9748465e-10 1.1769533e-06 7.512603e-07 9.2300567e-10 1.9630135e-10 3.181221e-08 4.9265772e-08 3.4262902e-07
4.8592574e-07 1.7784923e-07 6.1501805e-07 2.2181668e-19 1.5759127e-10 8.7394567e-16 8.7879987e-10 7.637496e-12
7.654434e-12 5.188079e-07 7.04448e-07 2.912347e-07 1.5569432e-08 3.9229022e-08 1.921508e-07 4.304798e-07
3.8065325e-05 0.0010315855 8.380974e-07 2.1676254e-08 5.9552457e-07 1.028803e-07 2.3155465e-08 6.2440694e-07
4.2386026e-07 -1.9825033e-14 1.5694043e-08 8.344981e-07 3.0135276e-08 2.6095541e-09 5.194706e-07 6.2091895e-13
0.0013030651 2.1213765e-11 4.1058482e-07 9.974584e-08 9.478371e-10 4.9523305e-09 0.0007549758 2.3611982e-08
6.220752e-07 2.6630345e-09 8.1436454e-08 2.1329588e-07 2.6096263e-08 2.4706674e-07 1.145681e-09 1.8869281e-07
2.3293783e-08 1.5042605e-07 1.1141886e-10 9.733182e-09 2.473481e-08 1.069554e-10 5.1346217e-07 5.647597e-09
2.0070083e-09 2.4345664e-07 6.3501386e-09 7.117684e-11 7.02624e-08 1.5744e-15 6.546949e-08 1.3801033e-10
5.084248e-07 1.3136531e-06 3.8831733e-12 9.0265026e-08 3.835895e-11 1.33242e-07 7.28951e-07 9.286922e-19
7.8398904e-10 2.733107e-10 7.9903134e-10 8.2389505e-07 1.9936383e-08 4.123829e-11 5.8809627e-07 3.842808e-07
8.570232e-07 3.3939756e-12 6.652295e-07 8.984656e-22 2.6670353e-09 2.5476982e-07 1.9788496e-08 1.3635243e-09
4.5168423e-07 1.5719811e-09 3.775701e-07 1.02146167e-10 4.2238975e-15 6.214668e-07 2.7868316e-08 7.061189e-07
1.653377e-10 2.1982109e-07 1.4201951e-10 7.0403565e-19 6.28472e-20 1.4255844e-08 8.790827e-09 1.706093e-08
