prediction/models/lstm/best_lstm_10k.pth (torch, 847579 bytes, 11 tensors)

lstm.weight_ih_l0 f4 [512, 68]
00000000: 705d 49a6 35c4 c0a6 847b a7a5 6720 48a2
00000010: 0193 52a6 b93b 27a7 598d 3326 cda0 9aa3
00000020: f8eb 59a6 34a8 14a7 6500 4725 b018 46a5
00000030: 88cc faa5 b748 cda6 ad2a 99a5 0d1c 8ba4
00000040: d2a8 4da6 d07f 25a7 06b7 1326 96fb 3ba3
00000050: 29e3 a1a5 f26b 23a7 4d8a 3026 1476 1523
00000060: 79ef 42a6 385b 22a7 d6f1 4126 31bc 66a2
00000070: e734 7ca5 42b7 15a7 68a5 a1a5 4cb0 e323
00000080: b2dc 61a6 e57d 22a7 84ec 93a5 1c4c 2c23
00000090: 5e2a e2a5 6199 14a7 30bd 1f26 36a4 e5a2
000000a0: a979 7ea6 e8cb e4a6 08d6 5626 8764 e8a2
000000b0: 1159 b7a5 e5b3 19a7 1079 f8a4 7927 55a2
000000c0: d8de 1ba6 841c cba6 945d ad25 31fd 3423
000000d0: 36dd c3a5 7b40 0fa7 5019 17a4 14b7 5924
000000e0: df17 28a6 896f 0ca7 bbb0 15a5 7322 1424
000000f0: d86c 85a5 6bfe f8a6 3fb3 3026 19ac bd24
00000100: 21e4 eca5 b9a4 eea6 6a9f 64a5 d7de 3ca5
00000110: e4b4 5aa1 88ff 03a1 c80a 3f1e 8e77 ed1c
00000120: 4834 59a1 86b3 dba0 df02 af9b 830c f09c
00000130: 531c 59a1 128e ffa0 ea9e ca9d a0d7 479d
00000140: 11b9 4da1 c32a 02a1 1f31 801f 8ddf 091e
00000150: 24eb 51a1 b97c f9a0 ed1e 821f 7efb 169b
00000160: 5ba5 46a1 09af 02a1 19a2 8d1f 5919 019d
00000170: 5496 52a1 92e2 cda0 6651 4c1f 86b9 251c
00000180: 95ff 45a1 6d4b c9a0 a066 571f e844 2b1b
00000190: 454c 57a1 09fb 04a1 ecf9 561f 7a00 ec1d
000001a0: 720d 4da1 535b d4a0 b07c 8c1f a853 9e9d
000001b0: 0c5c 5fa1 653f 0ca1 27e3 551f 1cad 5f1e
000001c0: 37d6 45a1 0b11 eba0 c9af ca1c 9d63 471d
000001d0: 925a 50a1 fbc0 02a1 1271 311f e878 4f1d
000001e0: 8ade 4aa1 a9e9 00a1 9b01 829d 51f5 021e
000001f0: 36f3 41a1 5f21 e7a0 8998 bd1d 81ac 861e
00000200: 4410 45a1 9ece d9a0 d4d0 a01d 0b34 7f1e
00000210: 9830 42a1 9d07 00a1 4fab 231f 8bb1 9e1e
00000220: 5ec2 a7a5 7552 34a6 1b25 bd25 4b3a a3a3
00000230: 5329 9aa5 b999 3da6 c9ea 2ea5 64b4 03a4
00000240: 25aa a6a5 4515 3ea6 48bc 10a5 a37b bda1
00000250: 90cb 60a5 c509 3ea6 52b6 b325 48d6 5823
00000260: 2516 93a5 20eb 32a6 2a2f 0c25 6f14 b9a1
00000270: ae39 0ea5 40dd 34a6 2d3b 1c25 fc6c 8623
00000280: 806c 91a5 64d7 0ba6 4755 28a5 2d59 8da1
00000290: 02c5 0ca5 3d53 e8a5 c645 04a5 4d90 70a2
000002a0: f520 9fa5 c4d9 32a6 7c73 ada4 849c d221
000002b0: 4af9 49a5 8ec2 e0a5 aadc 7c25 8382 b6a3
000002c0: 99b3 b9a5 4653 47a6 ffe3 8325 1193 0d22
000002d0: a056 2aa5 1b68 27a6 0641 c9a4 f080 3b23
000002e0: 452c 7ca5 1253 28a6 fad3 cd25 eb5e 1da0
000002f0: 2783 33a5 b8f5 ffa5 2ea8 6f25 754c 9b23
00000300: b7f2 81a5 2d30 0ca6 aa82 07a5 0fa9 3b23
00000310: ed52 00a5 b76b f8a5 2fea d025 f378 cda0
00000320: ebe7 34a5 4da1 e2a5 0833 d225 4553 1b23
00000330: 3d7b 59a4 53bd c8a5 e883 df23 d527 3420
00000340: a916 26a4 eff4 80a5 603f 25a4 f344 c220
00000350: dc10 56a4 0ced a0a5 b80a ac24 2a52 a1a3
00000360: fb02 3823 ab02 b6a5 4c60 7f24 7616 1721
00000370: 1462 5aa4 d168 c8a5 04ec 2324 6f7b cea3
00000380: fb47 7724 c40c c0a5 c0bc aca3 e442 d9a3
00000390: 2001 5da4 759d a6a5 d60c 62a3 0355 48a3
000003a0: d2e1 af24 dc90 85a5 5703 1da4 a5e1 9622
000003b0: a227 8da4 1a64 b9a5 03b6 dd24 3fc6 b421
000003c0: 2302 3124 2c16 95a5 ed07 1ca4 69db 71a2
000003d0: cbe3 cca4 c6fc d1a5 82a9 fda3 a739 35a2
000003e0: d3f4 3324 9fe6 a1a5 e6cd 9024 d84c 81a1
000003f0: 7e0c 07a4 039a 4da5 4b4f bc24 54d0 4521
-6.9862515e-16 -1.3375858e-15 -2.905358e-16 -2.7122208e-18 -7.3057613e-16 -2.3208281e-15 6.229466e-16 -1.6764815e-17
-7.5606796e-16 -2.063031e-15 1.7260632e-16 -1.7182127e-16 -4.3506683e-16 -1.4244442e-15 -2.6570187e-16 -6.032916e-17
-7.1352457e-16 -2.2967637e-15 5.1248913e-16 -1.0190566e-17 -2.8082978e-16 -2.2679311e-15 6.12497e-16 8.10231e-18
-6.7631817e-16 -2.2531466e-15 6.7288075e-16 -3.127044e-18 -2.187544e-16 -2.0777248e-15 -2.8041132e-16 2.4686054e-17
-7.8361654e-16 -2.2550264e-15 -2.5660704e-16 9.3402555e-18 -3.923346e-16 -2.0622273e-15 5.5420603e-16 -6.224444e-18
-8.8288833e-16 -1.5875947e-15 7.453623e-16 -6.2990163e-18 -3.1805793e-16 -2.1330536e-15 -1.07757943e-16 -2.888778e-18
-5.4078437e-16 -1.4093684e-15 3.0074127e-16 9.811435e-18 -3.3977006e-16 -1.9880191e-15 -3.2764346e-17 4.7209447e-17
-5.831906e-16 -1.9489366e-15 -1.2983569e-16 3.2121564e-17 -2.3145578e-16 -1.7277417e-15 6.130519e-16 8.225723e-17
-4.109406e-16 -1.6559216e-15 -1.9829859e-16 -1.6381902e-16 -7.410068e-19 -4.472272e-19 1.0113685e-20 1.5714249e-21
-7.3591653e-19 -3.7218842e-19 -2.8953177e-22 -1.5885102e-21 -7.3559947e-19 -4.3292695e-19 -5.363327e-21 -2.6448906e-21
-6.9701635e-19 -4.410231e-19 5.429137e-20 7.298949e-21 -7.112316e-19 -4.2264775e-19 5.5108304e-20 -1.2488971e-22
-6.7303856e-19 -4.427737e-19 5.998399e-20 -1.7086112e-21 -7.1349725e-19 -3.4878282e-19 4.326601e-20 5.4833704e-22
-6.7084456e-19 -3.4100637e-19 4.561291e-20 1.4167053e-22 -7.2945775e-19 -4.505558e-19 4.5522993e-20 6.2469173e-21
-6.9474496e-19 -3.597463e-19 5.9498584e-20 -4.190875e-21 -7.567716e-19 -4.7517747e-19 4.52924e-20 1.184132e-20
-6.7029707e-19 -3.9821827e-19 1.3412678e-21 2.638893e-21 -7.059301e-19 -4.430112e-19 3.7574737e-20 2.7458729e-21
-6.873479e-19 -4.3677334e-19 -3.4412373e-21 6.932873e-21 -6.571283e-19 -3.9155005e-19 5.01856e-21 1.4259148e-20
-6.6767724e-19 -3.6897958e-19 4.256757e-21 1.351035e-20 -6.579407e-19 -4.3378163e-19 3.4658296e-20 1.680233e-20
-2.910159e-16 -6.2561795e-16 3.2811417e-16 -1.7697183e-17 -2.6742744e-16 -6.578088e-16 -1.5171643e-16 -2.8558894e-17
-2.8911704e-16 -6.594832e-16 -1.2553801e-16 -1.2839865e-18 -1.9497873e-16 -6.593273e-16 3.1175095e-16 1.1754759e-17
-2.551544e-16 -6.207481e-16 1.2159044e-16 -1.2541496e-18 -1.2336079e-16 -6.2749895e-16 1.3550893e-16 1.4574466e-17
-2.5227013e-16 -4.851722e-16 -1.460057e-16 -9.578136e-19 -1.2209813e-16 -4.030199e-16 -1.1472815e-16 -3.2602457e-18
-2.7604436e-16 -6.2051283e-16 -7.522243e-17 1.4271583e-18 -1.7518433e-16 -3.898964e-16 2.193228e-16 -1.9787753e-17
-3.2214084e-16 -6.915485e-16 2.2879374e-16 1.918692e-18 -1.4774499e-16 -5.8080853e-16 -8.728001e-17 1.0164594e-17
-2.1872515e-16 -5.839929e-16 3.5705472e-16 -1.3329823e-19 -1.5570211e-16 -4.4401954e-16 2.0786927e-16 1.6837514e-17
-2.2542403e-16 -4.863755e-16 -1.1753654e-16 1.017309e-17 -1.1130327e-16 -4.3094133e-16 3.6240937e-16 -3.4808388e-19
-1.5691088e-16 -3.9314052e-16 3.6463773e-16 8.4202e-18 -4.715876e-17 -3.482276e-16 2.4233573e-17 1.5259772e-19
-3.6014706e-17 -2.2370434e-16 -3.5832352e-17 3.2910505e-19 -4.6418133e-17 -2.7916205e-16 7.461127e-17 -1.7490453e-17
9.975291e-18 -3.1573775e-16 5.5375877e-17 5.1190517e-19 -4.735429e-17 -3.4765496e-16 3.5544904e-17 -2.2386841e-17
5.3620557e-17 -3.331534e-16 -1.8728216e-17 -2.3555516e-17 -4.792269e-17 -2.8903107e-16 -1.2254203e-17 -1.0860024e-17
7.6276707e-17 -2.3169983e-16 -3.4046777e-17 4.089649e-18 -6.121614e-17 -3.2160216e-16 9.615181e-17 1.224975e-18
3.8382567e-17 -2.5862404e-16 -3.383382e-17 -3.2777745e-18 -8.8856794e-17 -3.6427007e-16 -2.7502104e-17 -2.4560595e-18
3.9021812e-17 -2.8085323e-16 6.279885e-17 -8.76172e-19 -2.928404e-17 -1.7833097e-16 8.166633e-17 6.7021916e-19

lstm.weight_hh_l0 f4 [512, 128]
00000000: 17e9 761c c2a3 c798 fa41 f29b da77 e79b
00000010: c014 f09c 3087 e624 d843 a19b a30b 369c
00000020: 4d46 169b b85e e898 afc1 861b a3d0 801f
00000030: 7077 ce16 d028 ac9c 04d6 8c9b 5675 941c
00000040: 43f3 e91a 07f9 9625 3786 571b ab4f e99c
00000050: ee12 dba5 3dec c79b d87d 771b b2bb 6e1c
00000060: 134c a99a f980 179c d789 04a6 aa69 f7a2
00000070: 784d d526 760d 0a99 aa19 b215 22d4 191d
00000080: 948f 469a c60d db19 083c 159c 2e50 541c
00000090: 757b eb26 ec9e b09e d49e 1a9b b38e 889b
000000a0: 4c6d 5c24 c0c1 369c c67f 8426 cc5e ed26
000000b0: bc51 ba1a 2d8c 5126 164f d19b be3e d71a
000000c0: 4fdb 881d 47e1 4b98 ac88 13a6 b310 7b25
000000d0: 6a3d b59c 5add 729a c86d 9e19 3841 e0a6
000000e0: b62d 481d 8454 46a6 b696 9726 dabd 9f1b
000000f0: 2368 b71b f1ff 029c 2834 1a1c f290 7c9b
00000100: 0058 8d9b 56ea 191d 4dc8 311b 0948 8d9b
00000110: 41cc 639c ea57 871c 4720 279c 53f1 a99b
00000120: 5ac4 f29c 29a5 b897 ad20 3d9c 26b2 b49a
00000130: 9a97 161a 1e7c cd9b f8da dba6 41bf 559b
00000140: 159f 389d cb54 c79c a40e 0c9c 0a63 9ba5
00000150: 0cb0 a999 0a61 8f1a 57b2 d69b a39f a41b
00000160: 0717 e09c f4a9 081c 369b 211c 01d0 7719
00000170: e017 4c9a 88f6 139b f8b5 8c26 22fd 4718
00000180: 38e8 3399 4bf8 b81c a86d 969b 14d1 c626
00000190: c9aa cb9c 3bb0 7326 5447 809a 1e85 8d9c
000001a0: f71a f61c 3ea0 f29a fb33 f11b 5ed3 4819
000001b0: 1207 6e1c 5628 e125 8f92 e19b 3e85 a91b
000001c0: bb0c 031d c055 839d e05d 5b19 6f4c 149c
000001d0: 6997 731c dd24 1b1c 95e5 329c fd17 069d
000001e0: dd6b 219b 8bd1 8599 8173 d99b 0511 e69a
000001f0: 8b41 2f9a 1b60 2595 b072 029c ae40 5397
00000200: a3e0 0816 2cb5 2a13 08b0 e095 5996 1416
00000210: 725c d891 ca2c c71f a362 a295 beaa 4395
00000220: fa31 ef13 f6c2 a992 dfa0 7215 e6bf b218
00000230: 72dd 5491 3f47 6595 42a3 4995 aad6 5716
00000240: 84d6 b713 4f0b 1220 b579 ab94 61d5 e015
00000250: d498 0d9f d682 6114 e808 4715 863f a396
00000260: 3f87 8d94 bc62 cb95 d73c 4920 f3ac 081f
00000270: 2609 4f20 e05d 5291 d351 e20f 9b9e 8d15
00000280: 82df 0194 0eef 8213 f46d 2396 9792 1a95
00000290: 4f6e 8920 f82c a298 170f be14 a870 2495
000002a0: 18d8 081e b4b2 ce95 3934 b720 02a7 b420
000002b0: 9f07 c914 8cb2 751f cf45 9295 1e2e 0a15
000002c0: ad29 6696 c9a3 d310 16ec f69f d2de 7b1f
000002d0: cdae a315 8f34 2b94 c4c1 c093 3696 a9a0
000002e0: b09f 6596 c04e 73a0 962f 8120 e19d 1996
000002f0: ae53 b795 63c9 b015 3de1 e215 5574 a295
00000300: 4d4c 5c95 0d1d 2a96 7ecc 0915 9958 de15
00000310: 9406 d114 d244 6b16 7178 1516 9342 4614
00000320: ed5c ad14 350f cb91 a2ef 0296 c9f0 9994
00000330: fee1 3a14 4243 a595 25f1 a4a0 edc1 8695
00000340: a825 0d16 38c7 1696 5066 d195 4eac ef9e
00000350: 6769 9f93 5199 c714 13b3 a295 0b46 a215
00000360: 05f9 db15 b1a6 dd15 7f2d f415 9254 1a14
00000370: 7be5 1094 9374 0112 7d79 4020 21cc 0691
00000380: bfdc 0393 2bf1 6d95 8b59 3e95 a69e 6d20
00000390: 2c59 9a15 53c6 a520 1be1 5994 6b6d f495
000003a0: eb7b c795 7ef1 5a14 68c4 cc14 7433 5392
000003b0: 0873 5596 0513 6a1d 5c68 8a95 ab3f b895
000003c0: d2f6 a716 233c d616 95f2 1a13 baf2 9895
000003d0: 50d6 2016 bf67 2895 7fc2 f595 99a3 0016
000003e0: b615 2e95 0d71 6093 f903 5c95 46e3 c395
000003f0: 9466 4093 bb5d d88e 8c07 0c96 2006 5110
8.1695834e-22 -5.1605647e-24 -4.0078178e-22 -3.8293197e-22 -1.5887232e-21 9.9975616e-17 -2.6679059e-22 -6.023379e-22
-1.2430425e-22 -6.0066236e-24 2.2293606e-22 5.455527e-20 3.335647e-25 -1.1392555e-21 -2.3299362e-22 9.824149e-22
9.675955e-23 2.61896e-16 1.782775e-22 -1.543924e-21 -3.8003271e-16 -3.3074454e-22 2.0472023e-22 7.8990185e-22
-7.0019666e-23 -5.01284e-22 -4.598351e-16 -6.706136e-18 1.4800842e-15 -7.137151e-24 7.193412e-26 2.0359051e-21
-4.1061422e-23 2.2649632e-23 -4.9377553e-22 7.0248546e-22 1.6339864e-15 -1.8700453e-20 -1.2789902e-22 -2.259153e-22
4.7797474e-17 -6.0469165e-22 9.193973e-16 1.6470873e-15 7.7059846e-23 7.2701415e-16 -3.4627258e-22 8.902328e-23
3.622566e-21 -2.6350871e-24 -5.1186095e-16 2.1776438e-16 -1.199345e-21 -5.0223233e-23 1.6381157e-23 -1.55608e-15
2.6493412e-21 -6.880959e-16 1.051858e-15 2.6427032e-22 3.0342107e-22 -4.334419e-22 5.1021736e-22 -2.0891786e-22
-2.3383362e-22 2.037053e-21 1.4705818e-22 -2.3373045e-22 -7.537199e-22 8.956276e-22 -5.529738e-22 -2.8114657e-22
-1.6064972e-21 -1.1932414e-24 -6.2577087e-22 -7.473407e-23 3.1141736e-23 -3.3994614e-22 -1.5255529e-15 -1.7680745e-22
-2.443444e-21 -1.3190634e-21 -4.6341037e-22 -2.6955325e-16 -1.7545295e-23 5.930019e-23 -3.551858e-22 2.7234687e-22
-1.4829029e-21 4.5218285e-22 5.3471037e-22 1.2811607e-23 -4.2205497e-23 -1.2239214e-22 9.763774e-16 2.5847947e-24
-9.300979e-24 1.2240281e-21 -2.4886282e-22 1.3795681e-15 -1.347756e-21 8.45464e-16 -5.3054796e-23 -9.365007e-22
1.6285885e-21 -1.0034774e-22 3.9903697e-22 1.0382443e-23 7.875673e-22 3.905861e-16 -3.731784e-22 2.804481e-22
1.7344287e-21 -3.4764075e-21 1.13409925e-23 -4.906788e-22 8.059765e-22 5.1332843e-22 -5.9191987e-22 -1.7747154e-21
-1.335246e-22 -1.3836511e-23 -3.597428e-22 -9.515327e-23 -3.6242097e-23 -3.33973e-26 -4.316162e-22 -6.8259414e-25
1.1056875e-25 2.1546341e-27 -9.075061e-26 1.2002786e-25 -3.4135765e-28 8.4353876e-20 -6.55869e-26 -3.9514628e-26
6.0381363e-27 -1.0713461e-27 4.8998416e-26 4.620569e-24 -1.6792089e-28 -4.6302385e-26 -4.0720414e-26 1.7435298e-25
4.6407223e-27 1.2370423e-19 -1.7314592e-26 9.080953e-26 -2.9984328e-20 1.13854e-26 4.0194756e-26 -2.637416e-25
-1.4290707e-26 -8.214682e-26 1.7045492e-19 2.894218e-20 1.7536609e-19 -1.6595006e-28 2.2316838e-29 5.719968e-26
-6.556915e-27 3.305234e-27 -1.320173e-25 -3.121569e-26 2.32817e-19 -4.1921425e-24 1.9191049e-26 -3.3208406e-26
7.244467e-21 -8.348468e-26 3.1035964e-19 3.0603703e-19 2.029882e-26 5.202846e-20 -5.907907e-26 2.7905258e-26
-1.8592403e-25 8.3477176e-29 -1.04575624e-19 5.333563e-20 6.611096e-26 -8.643659e-27 -4.865868e-27 -2.8729115e-19
-1.8548861e-25 -2.0608957e-19 2.188494e-19 -1.2409059e-25 -7.4045135e-26 7.1403566e-26 9.1636036e-26 -6.561482e-26
-4.4488837e-26 -1.3741657e-25 2.7828246e-26 8.980487e-26 2.1106202e-26 1.9004865e-25 1.2074129e-25 1.0009575e-26
1.7505189e-26 -3.2037125e-28 -1.0576931e-25 -1.5544025e-26 9.435169e-27 -6.6749083e-26 -2.7942257e-19 -5.442813e-26
1.1401772e-25 -1.2179766e-25 -8.457585e-26 -2.5376373e-20 -4.0241178e-27 2.0154338e-26 -6.571381e-26 6.554179e-26
8.884628e-26 8.952418e-26 9.8622595e-26 7.791692e-27 -7.315399e-27 4.084891e-28 1.630323e-19 -1.0633638e-28
-1.664336e-27 -4.8052017e-26 -3.844083e-26 2.0127173e-19 6.234079e-26 2.8083327e-19 -1.10000945e-26 -9.8723446e-26
-8.057097e-26 1.1053813e-26 2.0676205e-26 -6.664328e-28 -1.72423e-25 3.0979475e-21 -5.5902406e-26 -7.441746e-26
2.713607e-25 3.4611516e-25 1.9557135e-27 -6.1775266e-26 1.2992322e-25 -3.400917e-26 -9.926157e-26 1.039138e-25
-3.5156147e-26 -2.8328513e-27 -4.443178e-26 -7.911845e-26 -2.4284382e-27 -5.333837e-30 -1.1311491e-25 4.12227e-29

lstm.bias_ih_l0 f4 [512]
00000000: c494 07a7 e169 86a0 9667 19a6 aebf 02a6
00000010: aef6 7ca6 d5f2 8d3a 204e d2a5 7f02 dda6
00000020: ea14 b5a2 f6c6 27a0 ced4 90a5 90fe a42c
00000030: 150d 829c 23b3 0027 4838 00a5 1a4e efa6
00000040: 0b6e 9ca4 aa85 8a3a 39b1 0da5 0a0e 68a6
00000050: 5648 f63a cf26 5ba6 e369 55a5 904b 8ea6
00000060: e1f5 1da4 2908 6ea6 d7f2 6e3a a38f 3f38
00000070: 1824 2e3b bc89 ed9e 909e 009b 6578 9ba6
00000080: 6e58 04a3 7cd4 e9a1 250b b1a6 a5ce 5da5
00000090: 2f2e 7e3b 6f37 20ac 2d1c 12a5 33e8 15a5
000000a0: 0074 4636 93a8 4da6 44a3 753b 7db6 c13b
000000b0: 588d a3a4 698b fc3a 9b7b d6a5 8993 96a4
000000c0: a36e a6a7 254a b79f b3a6 82b9 d559 2d39
000000d0: e6c8 0ca6 25d6 9ea3 9633 f1a0 8252 583b
000000e0: 06c8 aba7 e480 353b 1a98 443a 28d4 89a5
000000f0: 986a 47a7 8b6b b8a5 afc7 84a6 5957 04a6
00000100: fdc1 95a5 34ff 46a7 5e30 91a3 6fbe 22a6
00000110: 4da3 91a5 ce33 3aa7 503b 42a6 1c0c 23a6
00000120: f36c 43a6 823d 2d9f 6f81 82a6 3af8 caa4
00000130: d259 40a4 204a 27a6 441d 4f3b 8e8b a0a4
00000140: 6425 7ca6 390a b6a5 9cea 8ea6 b277 533b
00000150: 80e1 1ea3 0a6d e8a1 f3e1 13a6 8b34 1aa6
00000160: 4c7a 39a6 5c66 31a6 940e 0aa7 7380 5a23
00000170: 9698 5121 1d61 71a2 258d ce3a 1fc1 fe9d
00000180: cae4 78a0 c53a d3a5 6aea 45a5 ed78 013b
00000190: 2a01 19a6 179d 9e3b 8408 d0a3 5e41 99a5
000001a0: c4f5 7fa6 64e7 aaa3 84e3 0fa6 5b08 05a0
000001b0: 227e 2ea7 afa7 f93a 0a3e 02a6 a2ef 14a6
000001c0: db03 f4a7 4c8d e4a7 5508 3ea1 e734 09a6
000001d0: 2b22 d6a6 7877 42a5 3e08 6aa6 772f 88a6
000001e0: c45a 47a5 4d90 a5a2 184a 5fa4 aa59 57a6
000001f0: 33e2 3b24 e372 0999 8ef8 8da6 75c3 281d
00000200: 1128 8ba6 4d76 79a0 52e6 a6a5 a490 46a5
00000210: a453 0aa6 3a0c 703a 3573 73a5 9901 81a6
00000220: a4f4 53a2 c403 2ca0 3ae0 81a5 5fbe 212d
00000230: 0ce9 629c 071e 8d27 354c 9ba4 82cf aba6
00000240: a217 01a4 d8fe 163a f0e8 f3a4 ae57 23a6
00000250: 4244 eb3a c6bf 2ea6 0258 2ca5 a50c a1a6
00000260: 368d 93a3 5042 30a6 04f8 af39 bc63 1e38
00000270: efa7 583b b2e9 889e 845f 749a e280 56a6
00000280: 38f2 43a2 f8e7 20a2 f9ba 45a6 4d9b d6a4
00000290: 77eb a53b f385 b52b 0813 d1a4 a5d9 04a5
000002a0: d49c 5e36 23c0 06a6 0d4b 9e3b 6171 0f3c
000002b0: 97fd 21a4 d4b5 a63b b964 d1a5 d035 2ba4
000002c0: bcd2 08a7 ec70 7a9f 595f 87b8 14ec 2439
000002d0: fc26 b0a5 131c 8fa3 813d cca0 a2dc 883b
000002e0: 5ac2 4ca7 fd50 623b 2d93 873a a10e 8aa5
000002f0: ba8b c7a6 5cce 7fa5 e4b0 0ba6 9895 8fa5
00000300: 5dc6 5ba5 ffe3 0da7 02c6 9ca3 fd61 cfa5
00000310: d4fa 19a5 7ce3 aaa6 97d6 2aa6 ddf3 d7a5
00000320: 2ca0 b9a5 75f7 539e 9798 41a6 dab7 a5a4
00000330: beb9 0da4 bafb a9a5 8c90 823b b2ff 29a4
00000340: d7aa 61a6 f806 f7a5 7d56 02a6 7892 303c
00000350: 0c79 eda2 66df 7723 6677 bea5 4c14 04a6
00000360: e7fa ffa5 8fcc 0fa6 0a85 9ba6 5a5d bf23
00000370: ef6d 1422 d18e 65a2 7bc2 023b 4c6d b39d
00000380: fbb1 2ca0 1616 cea5 0f70 dda4 8a19 223b
00000390: fb82 d7a5 ed3d d53b cd4c 98a3 e73b 3ea5
000003a0: c6ba e9a5 1cb9 6ca3 1688 aca5 f447 a49f
000003b0: 4e24 11a7 9ade f93a 009a 7ca5 3fd0 b6a5
000003c0: 1a56 8da7 a415 88a7 fdf9 24a1 a6bf b8a5
000003d0: 9805 81a6 8d48 d6a4 0c2c 14a6 e5ed 40a6
000003e0: bd7f 50a5 849d 38a2 a8ac 7fa4 adb8 31a6
000003f0: dd98 4b24 b0fa 7a98 647a 17a6 fffe 1f1d
-1.881566e-15 -2.2770548e-19 -5.3222923e-16 -4.5362585e-16 -8.7764377e-16 0.0010829816 -3.6482133e-16 -1.5335632e-15
-4.908229e-18 -1.4211281e-19 -2.512422e-16 4.6894225e-12 -8.60606e-22 1.7860679e-15 -1.1121299e-16 -1.6605126e-15
-6.7840636e-17 0.00105684 -1.2289846e-16 -8.0510196e-16 0.0018789868 -7.6033484e-16 -1.8510681e-16 -9.873711e-16
-3.4252216e-17 -8.2583897e-16 0.00091151654 4.567172e-05 0.0026571807 -2.5150317e-20 -1.0639146e-22 -1.0787919e-15
-7.17446e-18 -1.5844938e-18 -1.2284863e-15 -1.9238708e-16 0.0038784852 -2.276814e-12 -1.2673028e-16 -1.3002362e-16
2.957182e-06 -7.1352123e-16 0.0037481347 0.005911647 -7.092943e-17 0.0019267622 -3.720684e-16 -6.5302065e-17
-4.619421e-15 -7.7626177e-20 -0.00024919733 0.0001653203 -4.8844525e-16 -1.7221088e-17 -4.0861125e-19 0.0033008163
-4.76789e-15 0.0027695233 0.00074994715 -2.3909474e-16 -2.7674582e-15 -3.1991786e-16 -9.213464e-16 -4.591508e-16
-2.5978831e-16 -2.7616366e-15 -1.5741416e-17 -5.6463126e-16 -2.5264147e-16 -2.5840769e-15 -6.7387654e-16 -5.6568397e-16
-6.780187e-16 -3.6685053e-20 -9.055645e-16 -8.802405e-17 -4.1709444e-17 -5.804022e-16 0.0031603137 -6.9625354e-17
-8.7480737e-16 -3.1578894e-16 -9.91682e-16 0.003226739 -8.612949e-18 -1.5749794e-18 -5.130709e-16 -5.350069e-16
-6.435051e-16 -6.1547934e-16 -1.915925e-15 1.1845004e-17 7.10139e-19 -3.2713002e-18 0.0015758617 -6.7432923e-21
-2.1082117e-19 -3.664249e-16 -1.7166449e-16 0.0019755915 -5.3084116e-16 0.004840504 -2.2555012e-17 -2.6585564e-16
-8.880397e-16 -1.8529435e-17 -4.992143e-16 -1.1268303e-19 -2.4215728e-15 0.0019047166 -4.518689e-16 -5.167258e-16
-6.7727785e-15 -6.3435907e-15 -6.438553e-19 -4.760312e-16 -1.4858494e-15 -1.6867295e-16 -8.119623e-16 -9.449761e-16
-1.7291251e-16 -4.4876124e-18 -4.8418177e-17 -7.4714627e-16 4.074076e-17 -7.105935e-24 -9.851211e-16 2.2335664e-21
-9.655923e-16 -2.1130263e-19 -2.895248e-16 -1.7222769e-16 -4.799172e-16 0.00091570953 -2.1115924e-16 -8.951606e-16
-2.8725344e-18 -1.4570213e-19 -2.2529875e-16 9.194061e-12 -7.5078333e-22 3.9167917e-15 -6.7349634e-17 -1.1921754e-15
-2.7992434e-17 0.00057600206 -1.0577906e-16 -5.6670813e-16 0.001794942 -6.062828e-16 -1.494844e-16 -1.1175046e-15
-1.5997577e-17 -6.1152137e-16 0.00033563387 3.776302e-05 0.003305908 -1.4496214e-20 -5.0535174e-23 -7.4420834e-16
-2.6555657e-18 -2.1806847e-18 -6.86015e-16 -9.3070796e-17 0.00506347 1.2898002e-12 -9.067154e-17 -1.1522916e-16
3.3171864e-06 -4.6750983e-16 0.004830724 0.008755059 -3.512611e-17 0.0050875936 -3.6323973e-16 -3.7125295e-17
-1.898803e-15 -5.3032966e-20 -6.4550615e-05 0.00015728205 -3.055755e-16 -1.5515981e-17 -3.4599644e-19 0.004176692
-2.8416045e-15 0.0034533136 0.0010343544 -2.3949097e-16 -1.3846272e-15 -2.2187642e-16 -4.8465044e-16 -2.4907914e-16
-1.906243e-16 -1.9691278e-15 -1.6997413e-17 -3.5975175e-16 -1.3355618e-16 -1.1857779e-15 -5.927142e-16 -3.7461803e-16
-3.220092e-16 -1.122142e-20 -6.7167124e-16 -7.18688e-17 -3.073183e-17 -2.9487403e-16 0.0039845165 -3.6862616e-17
-7.829409e-16 -4.2852392e-16 -4.5220024e-16 0.010777108 -6.4367142e-18 1.3437203e-17 -3.3040654e-16 -4.5824207e-16
-4.4405467e-16 -4.989032e-16 -1.0791346e-15 2.0747797e-17 2.0115939e-18 -3.1110894e-18 0.0019952345 -4.7493916e-21
-1.4627855e-19 -3.575027e-16 -9.6033307e-17 0.002473446 -3.738531e-16 0.0065076263 -1.65124e-17 -1.6500169e-16
-4.054562e-16 -1.2832784e-17 -2.992946e-16 -6.957574e-20 -2.0142473e-15 0.0019063533 -2.1909693e-16 -3.171308e-16
-3.9228713e-15 -3.7771046e-15 -5.589622e-19 -3.2048778e-16 -8.952689e-16 -9.293061e-17 -5.140751e-16 -6.693579e-16
-1.8084404e-16 -2.5020038e-18 -5.5440556e-17 -6.1659493e-16 4.414809e-17 -3.2438308e-24 -5.255452e-16 2.1175305e-21

lstm.bias_hh_l0 f4 [512]
00000000: 64bf 10a7 cf79 bba0 e517 1ea6 66a2 0ba6
00000010: 955c 80a6 c4f3 8d3a 4dad b2a5 ea6d e0a6
00000020: 6899 bea2 60b8 90a0 030c 9da5 803c b12c
00000030: 804d 949c 1456 7d26 5318 16a5 99c3 1aa7
00000040: 2745 87a4 cd85 8a3a af1e f5a4 6bf1 7ea6
00000050: 4848 f63a 0764 52a6 d2d4 8ba5 4ec7 eaa6
00000060: efbd 07a4 e4ee 73a6 30f4 6e3a 8797 3f38
00000070: 1924 2e3b e1f8 e79e 5447 c99a c106 9aa6
00000080: 6159 e6a2 f43e 65a2 0b61 aca6 23ac 48a5
00000090: fd2d 7e3b b416 23ac caf2 0ea5 06d0 eca4
000000a0: 1c91 4e36 72df 74a6 4fa3 753b 73b6 c13b
000000b0: 7dc8 41a4 7d8b fc3a 4d7d 8aa5 e0a5 80a4
000000c0: 2e2a 4ea7 fcdc 959f b0a6 82b9 5262 2d39
000000d0: 52f1 c7a5 00f7 d3a3 14ef e7a0 b452 583b
000000e0: e042 a8a7 e080 353b 9f97 443a a37d e7a5
000000f0: bab6 12a7 8bf9 a7a5 1a35 bfa6 475e d8a5
00000100: df5c a5a5 6617 04a7 a072 9ea3 9eaa 15a6
00000110: a77c bda5 694e 83a7 b66c 17a6 f02e 38a6
00000120: 4ab9 f0a5 2cfc 1a9f 35fa 1aa6 01c0 c8a4
00000130: f37d 50a4 a8c6 27a6 551d 4f3b 3261 d4a4
00000140: ba86 a7a6 5021 9da5 bfbf 77a6 b977 533b
00000150: 9bb1 21a3 32ce baa2 0dc9 09a6 41bf 28a6
00000160: baa7 02a6 faf5 29a6 e021 c2a6 632b 8da1
00000170: fe79 c3a1 492b 87a2 748d ce3a 6e2e f09d
00000180: 7f97 bda0 c75a faa5 12ac 50a5 2d78 013b
00000190: 737a 2ba6 fe9c 9e3b 0219 d0a3 7e26 51a5
000001a0: 7f91 0da6 cc2c ada3 30d0 0ea6 0b81 11a0
000001b0: 984c 19a7 7fa7 f93a faaf e0a5 37b2 11a6
000001c0: 3eec efa7 5250 d0a7 4860 62a1 73b4 f1a5
000001d0: 7999 f0a6 25d4 7fa5 04cb 78a6 0f9e 83a6
000001e0: 149d 7ba5 5857 8ca2 4558 82a4 94d3 87a6
000001f0: 04bf 0524 a6ff 0b99 669f 88a6 e579 231d
00000200: d5b8 8aa6 0a58 77a0 341f 9da5 c0fc a3a5
00000210: 2bc6 28a6 920b 703a f0f4 7ea5 c99d 8ba6
00000220: c64f 5ca2 7405 2ca0 3fd9 4fa5 2437 212d
00000230: 011b 639c 7a3d 8d27 ff8c b6a4 87ec b3a6
00000240: 8953 4ca4 2bff 163a e3d3 f2a4 e7c9 2fa6
00000250: 5244 eb3a a5f2 2ca6 f83f 10a5 6789 68a6
00000260: a77f c0a3 cbf7 32a6 def7 af39 0565 1e38
00000270: eaa7 583b 2749 669e 208d 7a9a 8230 48a6
00000280: 583d aba2 8408 cca1 77a6 4ca6 d319 0ea5
00000290: 90eb a53b ea12 cc2b fd12 d1a4 6e1c c0a4
000002a0: bf9a 5f36 08ed b3a5 144b 9e3b 6471 0f3c
000002b0: ce87 21a4 e1b5 a63b 38d6 d2a5 1d84 3ba4
000002c0: 77a8 35a7 1730 7c9f 2265 87b8 3cda 2439
000002d0: ae0b b1a5 bf07 cea3 9696 00a1 9fdc 883b
000002e0: d4c5 1ba7 fc50 623b d993 873a 9279 91a5
000002f0: b496 88a6 ecc7 38a5 6375 67a6 3c5b 87a5
00000300: 39b3 6fa5 f33a 9ea6 9b79 6fa3 b383 5aa5
00000310: 880f 62a5 352d afa6 7579 fda5 3287 9da5
00000320: 55d2 aca5 4c30 9f9e 5be9 3fa6 7949 a9a4
00000330: 13de fea3 2e78 a4a5 8990 823b a9b6 8fa4
00000340: 41d2 2aa6 7c0f fea5 6c51 52a6 7c92 303c
00000350: 8a48 eda2 6535 7723 b042 bea5 dcd9 07a6
00000360: 660e eda5 840e eaa5 1a31 a9a6 1fbb 7723
00000370: 0635 0922 45d3 61a2 9ac2 023b 98ef b09d
00000380: 63cd 62a0 0f61 9ba5 cbca f8a4 8819 223b
00000390: a391 cea5 fb3d d53b 8c18 9aa3 7460 3aa5
000003a0: 5934 2da6 e85e 48a3 5994 aaa5 6aa1 d89f
000003b0: 2587 12a7 99de f93a d5cd bda5 e938 e2a5
000003c0: 7743 37a7 51e6 a3a7 cf9c 32a1 db3c 99a5
000003d0: 2bca 8fa6 8769 f6a4 dbf1 13a6 49d8 40a6
000003e0: 837c 0ca5 2a46 94a2 fea7 60a4 ee4c 23a6
000003f0: c52b 9d22 c9fd 8998 404a 15a6 1e46 2e1d
-2.0087768e-15 -3.1759638e-19 -5.4849645e-16 -4.8445404e-16 -8.906879e-16 0.0010830094 -3.099551e-16 -1.5572915e-15
-5.166203e-18 -2.4516558e-19 -2.7243298e-16 5.0373594e-12 -9.813852e-22 8.7893665e-16 -1.3018667e-16 -2.1477827e-15
-5.8664066e-17 0.001056844 -1.0630379e-16 -8.8451135e-16 0.0018789852 -7.299395e-16 -2.425687e-16 -1.6291033e-15
-2.943434e-17 -8.463132e-16 0.0009115366 4.567907e-05 0.002657181 -2.456101e-20 -8.324689e-23 -1.0687727e-15
-6.243626e-18 -3.1068614e-18 -1.1961201e-15 -1.7405557e-16 0.0038784735 -2.3176296e-12 -1.2398797e-16 -1.0270109e-16
3.0780857e-06 -8.495733e-16 0.0037481373 0.005911642 -4.2020024e-17 0.0019267645 -2.402409e-16 -5.5792154e-17
-2.8611109e-15 -6.346954e-20 -0.00024919724 0.00016535193 -3.4684522e-16 -2.2981274e-17 -3.929113e-19 0.003300828
-4.6701873e-15 0.0027695224 0.00074994 -4.0157247e-16 -2.0360626e-15 -2.913898e-16 -1.3267681e-15 -3.7533912e-16
-2.868587e-16 -1.8331364e-15 -1.717894e-17 -5.192599e-16 -3.2870741e-16 -3.6444817e-15 -5.253598e-16 -6.3901436e-16
-4.175892e-16 -3.281936e-20 -5.3768577e-16 -8.706144e-17 -4.5209494e-17 -5.8208994e-16 0.0031603177 -9.2105e-17
-1.162447e-15 -2.7257732e-16 -8.5955204e-16 0.0032267405 -8.765437e-18 -5.063372e-18 -4.78039e-16 -5.8545906e-16
-4.533012e-16 -5.8967014e-16 -1.3470636e-15 -9.566016e-19 -1.3246005e-18 -3.6637653e-18 0.0015758709 -6.357548e-21
-3.2118097e-19 -4.34296e-16 -1.8099424e-16 0.0019755468 -5.949349e-16 0.0048404923 -2.2561996e-17 -1.8140902e-16
-4.9116386e-16 -1.877567e-17 -4.9548293e-16 -1.2324674e-19 -2.1274537e-15 0.001904711 -3.8977052e-16 -5.0548507e-16
-6.659196e-15 -5.781868e-15 -7.6699206e-19 -4.1929113e-16 -1.6694944e-15 -2.2189602e-16 -8.631742e-16 -9.132793e-16
-2.1824e-16 -3.8039555e-18 -5.652805e-17 -9.424855e-16 2.9001574e-17 -7.237759e-24 -9.480101e-16 2.1635888e-21
-9.625772e-16 -2.0950843e-19 -2.7256303e-16 -2.8447263e-16 -5.8555276e-16 0.00091569975 -2.2113976e-16 -9.68783e-16
-2.9857791e-18 -1.4570771e-19 -1.8027994e-16 9.164034e-12 -7.51429e-22 3.9202015e-15 -7.9168775e-17 -1.2484731e-15
-4.4306206e-17 0.0005760069 -1.0530972e-16 -6.098895e-16 0.0017949438 -6.000333e-16 -1.2511682e-16 -8.0677384e-16
-2.0870745e-17 -6.209198e-16 0.00033563277 3.7764217e-05 0.003305907 -1.2191226e-20 -5.1812788e-23 -6.945468e-16
-4.6414593e-18 -1.3825832e-18 -7.100232e-16 -1.2325286e-16 0.0050634816 1.4500322e-12 -9.067147e-17 -8.331489e-17
3.3319664e-06 -3.121217e-16 0.0048307274 0.008755062 -3.502634e-17 0.0050875996 -3.6574353e-16 -4.0661066e-17
-2.521012e-15 -5.3402855e-20 -6.456139e-05 0.00015721557 -3.071252e-16 -2.2337845e-17 -4.3567386e-19 0.0041766907
-2.1617814e-15 0.0034533134 0.0010343745 -2.523587e-16 -9.477744e-16 -1.6027192e-16 -8.0303313e-16 -2.348059e-16
-2.0790669e-16 -1.0979431e-15 -1.2981967e-17 -1.8953107e-16 -1.9607637e-16 -1.2155318e-15 -4.3970806e-16 -2.732677e-16
-2.997977e-16 -1.6854755e-20 -6.658269e-16 -7.3416534e-17 -2.7632787e-17 -2.8530902e-16 0.003984515 -6.23258e-17
-5.9265545e-16 -4.407247e-16 -7.2968733e-16 0.010777112 -6.4315782e-18 1.34012036e-17 -3.3004935e-16 -4.713279e-16
-4.1122703e-16 -4.0602366e-16 -1.174004e-15 1.3429521e-17 1.8595033e-18 -3.0605031e-18 0.0019952417 -4.6834546e-21
-1.9210901e-19 -2.6953983e-16 -1.078964e-16 0.0024734456 -3.583399e-16 0.006507633 -1.670711e-17 -1.6165608e-16
-6.0092377e-16 -1.0862119e-17 -2.9590823e-16 -9.1746595e-20 -2.0334832e-15 0.0019063532 -3.292575e-16 -3.9243314e-16
-2.5432924e-15 -4.5491298e-15 -6.051628e-19 -2.6582506e-16 -9.977416e-16 -1.06864264e-16 -5.1328645e-16 -6.69065e-16
-1.218525e-16 -4.018977e-18 -4.8714552e-17 -5.6656244e-16 4.260128e-18 -3.5669927e-24 -5.1795387e-16 2.3064958e-21

lstm.weight_ih_l0_reverse f4 [512, 68]
00000000: 9d8e bd22 dedb d320 5569 031f c07c 061f
00000010: 33db bc22 ac94 0e21 f100 3220 03f2 571d
00000020: 273d be22 518b cd20 3fad 489f ee67 069d
00000030: a38d c422 b55d 9521 6a61 ae20 020e e61e
00000040: 4c86 c822 9567 5a21 a639 ac9f 67d7 b71d
00000050: 03b9 c522 8ef8 1f21 fd46 a320 efed 931f
00000060: 075c ce22 9569 e820 feb3 1420 dd45 981e
00000070: 0ee2 c122 1005 5321 e7b6 2520 34b2 369f
00000080: e23b cf22 fb35 9a21 b549 721f 8648 231e
00000090: 9e73 bc22 d24c 8421 b9d7 a520 4669 229f
000000a0: 3ee5 c822 47c2 6721 63f5 ef9d 91ab 211e
000000b0: e395 cf22 dffd 5021 6f14 1420 b2ef d01e
000000c0: a9fe d322 0331 4e21 2307 959f 8f66 949e
000000d0: 41f7 cb22 fa09 ac21 4e58 b71f f999 fa9e
000000e0: 926b cf22 9221 6f21 1b16 4220 3545 329f
000000f0: 2139 d722 dd29 9b21 5ff4 f59f 5a45 b91e
00000100: e5d5 d622 2b78 8a21 20a1 659f 82ca f79e
00000110: e913 da38 57e5 8438 369e f236 dc86 9935
00000120: ad42 d638 b6c3 8638 b409 c836 e5c1 a834
00000130: 6a26 e338 2d86 8638 34c6 ff36 7c54 9fb5
00000140: 54f2 e938 8db4 8738 9111 bd36 989d f4b5
00000150: 619f 0039 e4e6 8438 abd3 a236 feb5 dfb5
00000160: f266 ee38 7846 8538 cd5f 9636 7cd5 0135
00000170: df50 0d39 7a84 7a38 c743 6636 84db 98b4
00000180: 87e1 dd38 3659 7c38 b731 cd36 7c43 78b5
00000190: 4f0d 1139 fec5 5738 4cab 7136 b71f 68b4
000001a0: 5abe c738 4e9c 6e38 bd48 0637 5a81 c2b5
000001b0: 0aa5 0739 ba6c 3938 abe4 8d36 9120 da34
000001c0: 9739 0139 d544 6738 a7a6 8c36 5a3c 42b6
000001d0: 004c 0f39 7432 5f38 0949 2536 8d9e 18b5
000001e0: 4082 0039 f381 5f38 6883 bf36 7c23 83b5
000001f0: f59f 0a39 0d7c 5938 9a07 db36 6814 bab6
00000200: 2ab1 0c39 3e0b 6538 52af 6136 260f 5db4
00000210: 5fe0 1239 56b4 5a38 e3eb da36 bf2c 29b6
00000220: 77f5 af23 3aed 2222 e43d 39a1 96e9 5b1f
00000230: 6f58 ae23 7134 af21 8c3c 66a0 70c9 e21e
00000240: f107 b423 2fb3 8721 e051 9a21 e55e 5f9c
00000250: e973 b323 4df7 8221 0503 a9a0 d23e 4820
00000260: 8a1c bb23 d28d 4721 bd3d 3021 6786 4120
00000270: 93c9 b523 af4a be21 e088 b9a0 8f8f a320
00000280: 8086 bf23 a742 9821 5e83 a421 09a9 fd1f
00000290: a8b6 b223 f3c3 9422 4899 9c21 2dc9 979f
000002a0: 0e73 bf23 0ef8 5221 ee3a d421 c664 4a20
000002b0: 181d b223 4f94 0822 60a8 b321 3c35 29a0
000002c0: 7140 b923 fa46 3221 523c 9821 5a3d a41e
000002d0: aac1 c323 7e14 a922 deb9 9e21 e141 ba9f
000002e0: 2df2 c423 7c1a e721 5187 f020 b3eb 6320
000002f0: a12d bd23 4f63 3122 f212 a8a0 05a0 f99f
00000300: b64e c423 f429 1b22 f467 3ca0 c837 39a0
00000310: bc5b cc23 328b 4a22 6582 b6a0 a930 e41d
00000320: 108b cb23 a824 8322 0576 2ca0 85ff e69f
00000330: d63f c70f a7ba b58c d783 058e 0b6c 098c
00000340: 0e88 b90f 8d88 bf8d 19e2 e88d 0e90 188c
00000350: 95dd ca0f 714a 388d e872 248e 223f 930c
00000360: 8f18 dc0f 86f2 3f0b 31fd 0c8e 749c 1d0d
00000370: c365 d10f 278e aa8c 021a 118e f1aa 078c
00000380: a6fa ed0f f3fe 2b0b 11e8 058e 5016 960c
00000390: a007 eb0f a8c1 8d8b 2f2b 428e dd51 a18b
000003a0: 22b2 e30f 3e8a ab0c d124 030c ba35 7d8b
000003b0: b409 f10f 8f80 cb8c 0ee8 168e 0311 c00c
000003c0: e39e dd0f 337f e90d cbdf e00d 7e6e f78c
000003d0: 9b53 de0f 2d0d 098e dd82 1d8e bb04 c50c
000003e0: 817e fa0f 8931 760d 9523 108d 1737 f70b
000003f0: 59b8 ef0f d8f0 230d 988f a40d 6c40 e90a
5.137955e-18 3.5890286e-19 2.7827458e-20 2.8478795e-20 5.118959e-18 4.8308237e-19 1.5077498e-19 2.858013e-21
5.156435e-18 3.4820543e-19 -4.2494953e-20 -1.7788483e-21 5.327587e-18 1.0121437e-18 2.954121e-19 2.435799e-20
5.43523e-18 7.3998363e-19 -7.2940205e-20 4.8662417e-21 5.3592846e-18 5.4200255e-19 2.766025e-19 6.265055e-20
5.593385e-18 3.9372197e-19 1.2595642e-19 1.612252e-20 5.25521e-18 7.149628e-19 1.4036561e-19 -3.8687405e-20
5.6170866e-18 1.0449734e-18 5.1306462e-20 8.644146e-21 5.1079917e-18 8.965002e-19 2.809484e-19 -3.4391915e-20
5.445283e-18 7.852297e-19 -6.3516497e-21 8.558748e-21 5.626616e-18 7.0809137e-19 1.2542849e-19 2.2121992e-20
5.7461297e-18 6.986038e-19 -6.311576e-20 -1.5712527e-20 5.528505e-18 1.1657814e-18 7.76496e-20 -2.6533461e-20
5.6221357e-18 8.102078e-19 1.6439753e-19 -3.7750213e-20 5.8336354e-18 1.051429e-18 -1.04165814e-19 1.961632e-20
5.8231286e-18 9.383052e-19 -4.8625916e-20 -2.6235898e-20 0.000103987586 6.336968e-05 7.23058e-06 1.1438638e-06
0.000102167345 6.426072e-05 5.961594e-06 3.1433515e-07 0.00010831359 6.41461e-05 7.622666e-06 -1.1871011e-06
0.00011155443 6.470932e-05 5.634684e-06 -1.8225282e-06 0.00012266405 6.337257e-05 4.8526176e-06 -1.6667761e-06
0.000113678994 6.35506e-05 4.481501e-06 4.8366906e-07 0.00013476935 5.9728023e-05 3.4312122e-06 -2.8471925e-07
0.00010580109 6.0164566e-05 6.1152637e-06 -9.24854e-07 0.00013833235 5.144439e-05 3.6011506e-06 -2.1618222e-07
9.524515e-05 5.6889192e-05 8.003958e-06 -1.4491773e-06 0.00012936085 4.4208697e-05 4.228748e-06 4.062936e-07
0.00012323853 5.5138797e-05 4.191726e-06 -2.8943382e-06 0.00013665855 5.321433e-05 2.4629428e-06 -5.6855134e-07
0.00012255553 5.3288368e-05 5.7075413e-06 -9.770588e-07 0.00013220294 5.1852363e-05 6.5275935e-06 -5.5456076e-06
0.00013417439 5.4608325e-05 3.3629663e-06 -2.058774e-07 0.0001400723 5.21432e-05 6.524367e-06 -2.5209008e-06
1.9077496e-17 2.208068e-18 -6.276235e-19 4.6568272e-20 1.8902571e-17 1.1872342e-18 -1.9501791e-19 2.4011993e-20
1.9519002e-17 9.195385e-19 1.0457118e-18 -7.390716e-22 1.9456309e-17 8.874603e-19 -2.8631712e-19 1.6961444e-19
2.0286667e-17 6.761152e-19 5.971283e-19 1.6392206e-19 1.970943e-17 1.2894669e-18 -3.1430795e-19 2.7708273e-19
2.0765224e-17 1.0317563e-18 1.1147845e-18 1.0742931e-19 1.9376157e-17 4.032295e-18 1.0611544e-18 -6.4283805e-20
2.0756989e-17 7.1479065e-19 1.4381277e-18 1.7143409e-19 1.931112e-17 1.850995e-18 1.217408e-18 -1.433247e-19
2.0085032e-17 6.040268e-19 1.0315887e-18 1.738955e-20 2.1223962e-17 4.582924e-18 1.0755695e-18 -7.888305e-20
2.1352928e-17 1.5660179e-18 4.0747126e-19 1.9305634e-19 2.0510746e-17 2.4040547e-18 -2.8472844e-19 -1.0572033e-19
2.1283698e-17 2.1028627e-18 -1.5958615e-19 -1.5688566e-19 2.2156575e-17 2.7449794e-18 -3.0918287e-19 6.040141e-21
2.20682e-17 3.5546432e-18 -1.4608016e-19 -9.783151e-20 1.9647504e-29 -2.7999803e-31 -1.6456994e-30 -1.0586609e-31
1.8294815e-29 -1.1804157e-30 -1.4352535e-30 -1.1753004e-31 2.0004088e-29 -5.6788983e-31 -2.0269886e-30 2.2686933e-31
2.1703135e-29 3.6967716e-32 -1.737824e-30 4.8567684e-31 2.0648188e-29 -2.6278202e-31 -1.7885152e-30 -1.0451463e-31
2.346655e-29 3.3125205e-32 -1.6505252e-30 2.3124588e-31 2.3175726e-29 -5.4602606e-32 -2.3933138e-30 -6.213812e-32
2.2452542e-29 2.6429923e-31 1.0102952e-31 -4.8766447e-32 2.3768172e-29 -3.1354476e-31 -1.8600658e-30 2.9592523e-31
2.1853483e-29 1.4390356e-30 1.3858942e-30 -3.8122876e-31 2.1923094e-29 -1.6892898e-30 -1.9414752e-30 3.0355503e-31
2.4700631e-29 7.586423e-31 -4.4416256e-31 9.522383e-32 2.3638228e-29 5.051816e-31 1.0141849e-30 2.2461317e-32

lstm.weight_hh_l0_reverse f4 [512, 128]
00000000: 3da6 c193 4ecf 5b9f 953b fd16 019d 320d
00000010: d9f7 0914 ffec 6392 3e9a 7814 d5f3 1096
00000020: 3115 4994 ec01 5292 15ce 9b9c 98a6 0e14
00000030: 6cfb 6293 373a 1c0c a3c3 c30f ed03 8895
00000040: 7226 2591 02f0 3792 0b84 9696 6fb9 b917
00000050: e990 9116 a703 1193 ed98 8895 cb1b 1a93
00000060: 8efe 9c93 6482 1016 934a 2093 28bc 5a13
00000070: a05b 5f14 9989 7e9a 1123 b20f 8094 ba14
00000080: be73 7a12 2ca5 e914 d2bc 5017 bdaf 1095
00000090: 7feb b696 0814 8d91 93d6 6d93 5082 6314
000000a0: 419b 5093 0a9c 0d13 2893 8a12 ab10 ce93
000000b0: 753b a713 8270 ef1f 65ce a512 b601 e112
000000c0: b09f 3190 4b55 5d1e f1e6 6516 fc4c c51d
000000d0: b893 cb96 e9a7 bf92 dff3 000c f584 8815
000000e0: 3759 f992 6a0c 8696 15da 0d14 b463 7793
000000f0: f439 7512 ec6f 9a12 bfd8 fe93 3070 dc95
00000100: dda6 d693 5515 3316 6214 b994 9abe 2a15
00000110: fd72 f790 dce1 1994 954b 1793 f18e 441b
00000120: 5fee b210 2983 2716 0e64 f815 78f4 9b14
00000130: f965 7e94 5bbb 7090 18e6 f611 fe30 8294
00000140: 10da eb13 8581 5c93 ae6f 8b08 338c baa1
00000150: 5bf1 5c96 7756 9d94 a52c 6114 bd1d 8094
00000160: d502 b193 8b66 0891 f292 d314 982c 4a93
00000170: 2486 6813 af7c 7917 1080 b793 5d39 5896
00000180: 75e3 160d f987 2f1f 9273 b713 f2e9 c692
00000190: 283d 3410 e89c 9495 7ed2 2893 390d 0195
000001a0: 07ae 2d13 9bfd 9913 a578 a41e 1401 7c11
000001b0: 2f8b 5b14 0dff f090 c135 979d fb1a 3d13
000001c0: 9b16 019f f028 7815 1db7 7a91 d752 0411
000001d0: 8560 1c92 8eda 3394 c9da 8f93 28ad c595
000001e0: 9834 3b9c 9f65 d412 abe4 dd93 c5c2 4221
000001f0: d63a 419a 7d52 5d93 6566 ae9c 8633 f395
00000200: 2bb0 822b 259b c335 b7f7 982a cc50 5f21
00000210: 6979 d9aa 98ca 462a 6ae3 46aa dfd9 062b
00000220: 2ce2 1a2b 4b10 e4a9 afe3 aab1 042f 1baa
00000230: 9837 1daa 8a61 2028 f2c3 26aa cb6f 052a
00000240: 52c4 d927 9fd1 1daa 2876 ffaa 6e90 a72d
00000250: 2cd8 22ab 0b9c a129 8764 85aa c4c0 1f2a
00000260: c61b 91ab 15ef 89aa b2de 952a 91a1 b52b
00000270: 6b18 4cab 416b 62af 0479 9caa c189 6c2c
00000280: aae7 b1a9 2868 35ab 18fe 1bac 9082 14aa
00000290: da67 452c a78a ab27 4fc0 43aa 235f 082a
000002a0: 286f a8a9 52bb aaa8 39b3 c0a9 1cb8 eaab
000002b0: 36c3 54aa be9a 5734 ec97 5028 24d5 7ea7
000002c0: 0889 83a6 31b2 0ab5 0291 97ab 216d 3134
000002d0: fe73 d02c 5301 362a 3b5e 1ca4 4ad3 cbaa
000002e0: 2b84 04ab c196 d4aa 0c7d 5a2b 4a48 d7a7
000002f0: e0c7 a929 f4bf 03aa d6b6 99ab f3e7 15aa
00000300: 1728 f7a9 5e0d 7aab 4e1a 8e29 7721 0fab
00000310: a4b7 2929 7a91 4b2b bd5b 9a29 c2dd 5bb1
00000320: 3de1 69a8 4bd7 4dab c958 cdab bf39 85aa
00000330: 9bf2 aa2b d3b3 86a7 e695 7f28 0b04 6dad
00000340: 2b90 842b a33b 4ba8 5015 d29c 06e5 22b7
00000350: 6932 b5aa e118 4b2a a0cc 3f29 0780 29ac
00000360: 6fcc e4a7 54bb 1d26 4e6d 04ab b2c4 a3aa
00000370: cbc8 6f2b f82a 93ac 2986 4c2b 8ac3 2fab
00000380: 1e04 fca2 11b1 4736 2a89 0129 4cc2 9b28
00000390: 9b86 a327 f8fc f72c 1d86 05ab dbfa 0427
000003a0: 93d9 7028 bd7c 342b 4bac ddb4 a84c cf29
000003b0: 4908 0e29 646a 1a29 7d4b 0bb4 0201 86aa
000003c0: 3bb2 acb5 2098 9f2a f4f5 9fa9 0a75 a828
000003d0: 2721 a9a7 29ea 26ac b416 26ab ab15 e92a
000003e0: cdac a6af ffa5 95a9 f28a beab 9289 9037
000003f0: 46e8 37ae 3367 842a 0fe2 1932 c3ec 282b
-4.8883973e-27 -4.6546532e-20 4.0911956e-25 5.503947e-31 6.965612e-27 -7.192069e-28 1.2551219e-26 -1.1709167e-25
-1.0152086e-26 -6.6266685e-28 -1.0310311e-21 7.202023e-27 -2.864917e-27 1.2035321e-31 1.9303841e-29 -5.4936156e-26
-1.3028052e-28 -5.804045e-28 -2.4317138e-25 1.2002155e-24 2.3517465e-25 -1.8303374e-27 -5.5171237e-26 -1.9451236e-27
-3.9630947e-27 1.1673371e-25 -2.0231607e-27 2.7608237e-27 1.1276693e-26 -5.263712e-23 1.7565662e-29 1.8839773e-26
7.9028754e-28 2.3592136e-26 6.744675e-25 -2.92192e-26 -2.9552305e-25 -2.2258223e-28 -3.0019399e-27 1.1486271e-26
-2.6329837e-27 1.7873635e-27 8.745301e-28 -5.2018147e-27 4.2215356e-27 1.01406566e-19 1.0463844e-27 1.4199918e-27
-3.5030114e-29 1.1717281e-20 1.8571345e-25 5.2225066e-21 -3.2889642e-25 -1.2095188e-27 9.934149e-32 5.513973e-26
-1.5736102e-27 -2.1656702e-25 7.16169e-27 -3.122494e-27 7.73798e-28 9.746357e-28 -6.4332343e-27 -8.903429e-26
-5.4185735e-27 1.4466236e-25 -1.8688266e-26 3.4481585e-26 -9.760149e-29 -7.769069e-27 -1.9096144e-27 1.6258927e-22
7.057589e-29 1.353154e-25 1.0032426e-25 1.5747426e-26 -1.28438334e-26 -4.7475988e-29 3.8953763e-28 -1.314597e-26
5.9537366e-27 -2.7831762e-27 8.392014e-34 -1.2640961e-18 -1.7847617e-25 -1.5887053e-26 1.1368402e-26 -1.2936427e-26
-4.4683874e-27 -1.0760107e-28 2.1363515e-26 -2.551797e-27 2.9348653e-27 8.061361e-25 -4.6321974e-27 -1.7466442e-25
4.649611e-31 3.7170165e-20 4.6309656e-27 -1.2553229e-27 3.5545854e-29 -6.002428e-26 -2.1308362e-27 -2.6061773e-26
2.1921472e-27 3.8872704e-27 1.7414073e-20 1.9879627e-28 1.10841236e-26 -9.5056277e-29 -4.0024947e-21 2.3868456e-27
-2.733551e-20 5.0115495e-26 -1.9777949e-28 1.0438491e-28 -4.934389e-28 -9.080293e-27 -3.6314014e-27 -7.984086e-26
-6.1941086e-22 1.34041325e-27 -5.6013727e-27 6.598753e-19 -3.9958992e-23 -2.7934791e-27 -1.1540822e-21 -9.822821e-26
9.285952e-13 1.4573785e-06 2.717251e-13 7.5662273e-19 -3.8631189e-13 1.7656222e-13 -1.7664833e-13 4.790872e-13
5.5025667e-13 -1.01280604e-13 -4.973536e-09 -1.3783077e-13 -1.3963689e-13 8.902935e-15 -1.4811744e-13 1.1851559e-13
6.044245e-15 -1.4017128e-13 -4.5379087e-13 1.9049842e-11 -5.785396e-13 7.1769054e-14 -2.36953e-13 1.4188916e-13
-1.0310578e-12 -2.4501985e-13 2.6622243e-13 1.2905667e-12 -7.2509246e-13 -2.0592685e-10 -2.7795138e-13 3.3614086e-12
-7.900566e-14 -6.4448663e-13 -2.2167875e-12 -1.3190339e-13 2.8053033e-12 4.761236e-15 -1.73862e-13 1.2112234e-13
-7.479981e-14 -1.8955029e-14 -8.557603e-14 -1.6677801e-12 -1.889711e-13 2.007973e-07 1.1579262e-14 -3.5365125e-15
-9.127093e-16 -5.166831e-07 -1.0769443e-12 1.652411e-07 5.9245933e-12 1.6165307e-13 -3.3906924e-17 -3.6206655e-13
-4.707924e-13 -3.7763372e-13 7.7622696e-13 -5.9752864e-15 7.5397804e-14 -1.1701734e-13 -1.0922051e-12 -1.3314332e-13
-1.0975958e-13 -8.883639e-13 6.31063e-14 -5.085025e-13 3.768482e-14 7.2321977e-13 6.854888e-14 -3.199475e-09
-1.2982939e-14 -7.312941e-13 -1.4590769e-12 -2.3665615e-13 1.2146563e-12 -3.7387437e-15 1.4187848e-14 -1.3472788e-11
9.419179e-13 -1.1281695e-14 -1.3902143e-21 -9.709276e-06 -3.2187038e-13 1.8038654e-13 4.2588003e-14 -2.4087414e-12
-6.350436e-15 5.4724194e-16 -4.704751e-13 -2.90911e-13 8.5188513e-13 -4.1827618e-12 7.2661544e-13 -6.2443854e-13
-6.8309096e-18 2.9756377e-06 2.8762725e-14 1.729272e-14 4.5387528e-15 7.0482474e-12 -4.743721e-13 1.8454669e-15
1.3369855e-14 6.4121955e-13 -4.1289817e-07 9.2059444e-14 3.153752e-14 3.428715e-14 -1.2972846e-07 -2.380388e-13
-1.286687e-06 2.8349632e-13 -7.1036845e-14 1.8702504e-14 -4.6942867e-15 -2.3720004e-12 -5.9006554e-13 4.140415e-13
-3.0318006e-10 -6.645725e-14 -1.3538877e-12 1.7230199e-05 -4.1815683e-11 2.351952e-13 8.957172e-09 6.001416e-13

lstm.bias_ih_l0_reverse f4 [512]
00000000: fd51 ab20 d782 e137 6b6d 6920 c51a 0a0f
00000010: 5ba8 2721 50a0 64a0 1355 841e 5aa6 0622
00000020: 1601 4f21 a194 751d 366b 3030 cf46 cc9f
00000030: 9aa7 b021 f238 2b1a cf30 841c 4e97 5e20
00000040: 5070 071d 2ca4 f29c 9368 7221 9ce4 032a
00000050: 0713 019e cace 869e 5608 5020 6396 9e9f
00000060: 2d64 ff20 45a4 6e20 8e1c 7d20 ab6d 1b20
00000070: 397c de21 a2d2 052a cb17 ca1e 7d96 8822
00000080: d173 d79d 49be d621 feb9 ae21 186e 5d1f
00000090: 5e5c dc21 9adf a91c 2b03 3c20 3183 701f
000000a0: 8020 3b1e 36e5 561c 828a 061e 4716 7f21
000000b0: 9ebc 809e 3f4e 3235 b393 c61c 971a ae1d
000000c0: 9bdb ca19 345a 1638 dbe7 2920 402e 5a37
000000d0: c8af 5822 b9cf 531f 0bef 0912 6a3b 5f20
000000e0: 7b15 2d1f 9f2d 8c20 e046 8521 c79b 2d1b
000000f0: f75e 9c1e 64e8 4c1f f11d db20 f7c6 ab1f
00000100: 7eb0 e01f b958 0420 71ef e420 9e4f a31f
00000110: 0a61 241b deef 37a2 2911 5f1e bc79 962e
00000120: e726 601c 6585 2e21 11e2 ef1f 5197 611e
00000130: 37ba 5b22 7b37 ce19 5e2a ea1c ad18 9826
00000140: 8607 691e 1c6b 041c 2a97 f584 2918 163b
00000150: c0b4 db21 6ee1 601d 49a5 361d 54b2 5021
00000160: 642c d21b 0702 8316 c549 ac9e 92bf 821f
00000170: 115a 7f20 088a 9822 a69e 9b21 7488 8920
00000180: dfd9 3410 a92e ac39 a6b6 a01d 9178 af1a
00000190: ae42 1718 b288 b525 95ec 9620 3ef8 0e1f
000001a0: e67e 9b1c b92d 1820 4a2d bb38 6514 121c
000001b0: 62b5 231d 1ff7 6d9e 236d 2338 6d6c 1320
000001c0: 3f38 9738 c498 891f ad32 bc9c 806e 4c1c
000001d0: ffba 2a1b 707c 37a0 e712 5820 0771 c41e
000001e0: bf0d 9530 385c da1e 3a67 e520 dcba 183b
000001f0: 5969 d229 8c2a 7a1f 8882 0a31 0e53 0220
00000200: 4a28 8320 4e72 ef37 3e62 3a21 0f47 7d0e
00000210: f4ee 8021 5d63 1820 622e 991e fa8e 3622
00000220: 8987 c721 bb38 071e f4d1 3430 297a 5a1f
00000230: 340b 2621 c74a 531a 3bf2 361c c477 ae20
00000240: 6dc0 3b1d 0ead 429d f843 be21 93f5 8028
00000250: d4dc de20 02eb 281f a29e ae20 3a4a 4420
00000260: abac bb21 a7ac 9b20 64b9 e320 c01c e61f
00000270: 8203 0a22 628a 012a a809 f21e a155 ca21
00000280: 7d43 089e 650c 4822 2abf d822 6129 661f
00000290: 9a12 5922 1fc2 8d1c acb8 bd1f 9323 d51f
000002a0: a7d2 8f1e 29bc 721c d82e 091e 1246 6b21
000002b0: d427 9c1f 21e7 2335 aa88 cc1d dc0d a49c
000002c0: c7f6 e819 b4aa 1d38 eec0 ef20 c672 8537
000002d0: 1fd4 ca21 923d fc1f dfc8 2312 ea8a e41f
000002e0: 4fef 1220 d504 b020 5b7c c421 ebe0 161b
000002f0: a5ed b01e 8878 671f a226 e720 de51 639e
00000300: af28 611f b781 0620 d2c2 e020 d225 1620
00000310: 6711 d41a 7efe 3121 b063 e21e 3b9b 932e
00000320: 4170 d21c 9ac1 6b21 4c53 911f 4c1c cd1d
00000330: be09 f222 bdd5 f319 e81b 5e1d a49b 8126
00000340: 41f9 0520 3eb8 881c 7f2f 0e04 66fa 313b
00000350: b53a dd21 a387 011e 6c6c e91d 6158 1a22
00000360: fd54 001c b851 6016 5f7d 6e1f 963c 971f
00000370: 6573 4321 2caa dd22 5354 de21 f5f1 2121
00000380: 81ec f40f eb5e 023a 2a40 991d 09aa 7b1b
00000390: 6246 0718 1f36 a825 3e7f d220 fe7e df1e
000003a0: 26ad cc1c 7a38 a920 374b cd38 f687 031c
000003b0: 8487 a51c 6e13 891e abe0 3338 637e bb20
000003c0: 3bd9 8038 bf17 5e20 6f2b 031e a930 4a1c
000003d0: 8ae9 0f1c eeb5 e720 7c64 e120 b883 361f
000003e0: a96e b130 ac90 7a1e a2c9 0121 2c41 8d3b
000003f0: d650 ea29 4757 8820 c693 e030 71d8 4b21
2.9022782e-19 2.6883017e-05 1.9772071e-19 6.809081e-30 5.680462e-19 -1.9365394e-19 1.401123e-20 1.8248452e-18
7.0135765e-19 3.250232e-21 6.4180783e-10 -8.6514504e-20 1.1970588e-18 3.540797e-23 8.747644e-22 1.8854194e-19
1.7925165e-21 -1.6056654e-21 8.213119e-19 1.1714452e-13 -6.833138e-21 -1.4273328e-20 1.7621043e-19 -6.71644e-20
4.326497e-19 2.0213736e-19 2.1439382e-19 1.3165297e-19 1.5076187e-18 1.1885851e-13 2.1397422e-20 3.702221e-18
-5.7029778e-21 1.4551572e-18 1.183993e-18 4.6889638e-20 1.4932229e-18 1.1241282e-21 1.5925268e-19 5.0930496e-20
9.9064184e-21 7.110291e-22 7.122544e-21 8.6426844e-19 -1.3630537e-20 6.642403e-07 1.314072e-21 4.608491e-21
2.0975008e-23 3.5846795e-05 1.4391571e-19 1.3004581e-05 2.9366516e-18 4.4852812e-20 4.352422e-28 1.8908493e-19
3.6651943e-20 2.3747112e-19 9.031191e-19 1.4360559e-22 1.6556419e-20 4.339091e-20 3.7119857e-19 7.2750477e-20
9.515967e-20 1.1210191e-19 3.8783151e-19 6.91649e-20 1.3597117e-22 -2.492811e-18 1.180907e-20 6.8428346e-11
7.4165663e-22 5.913004e-19 1.0159443e-19 1.1942692e-20 2.9778616e-18 2.1322309e-23 1.5495773e-21 1.0553807e-15
1.2336473e-20 4.381357e-22 -5.7738045e-36 0.0022902584 1.4887861e-18 2.9762698e-21 2.417295e-21 7.0709157e-19
3.4770272e-22 2.116547e-25 -1.8241719e-20 5.537407e-20 2.162914e-19 4.134583e-18 1.0545202e-18 2.3299e-19
3.5666583e-29 0.0003284116 4.25405e-21 7.257309e-23 1.9549957e-24 3.1491123e-16 2.5567545e-19 3.027501e-20
1.0289842e-21 1.2890029e-19 8.9252906e-05 4.8333707e-22 2.1666643e-21 -1.2597779e-20 3.896387e-05 1.248726e-19
7.210718e-05 5.8274486e-20 -1.2453896e-21 6.7640756e-22 1.4122492e-22 -1.5541876e-19 1.8302166e-19 2.0799054e-20
1.0845084e-09 2.3119789e-20 3.8862419e-19 0.0023304736 9.344148e-14 5.2974753e-20 2.0155841e-09 1.1038909e-19
2.2218924e-19 2.8544247e-05 6.3149274e-19 3.1218871e-30 8.736868e-19 1.2907777e-19 1.6218689e-20 2.474129e-18
1.352064e-18 7.158572e-21 6.578198e-10 4.6264344e-20 5.6257815e-19 4.3694182e-23 6.0531824e-22 2.9556e-19
2.4848726e-21 -2.5765153e-21 1.2892892e-18 1.4317356e-14 3.7754395e-19 3.5769778e-20 2.958172e-19 1.6626405e-19
1.2717318e-18 2.6372273e-19 3.8577977e-19 9.745635e-20 1.8704344e-18 1.1505513e-13 2.562674e-20 1.3710718e-18
-7.213736e-21 2.7111616e-18 5.874932e-18 4.8738622e-20 2.9418832e-18 9.380776e-22 8.035013e-20 9.026786e-20
1.5227838e-20 8.0314275e-22 7.262407e-21 7.9713834e-19 6.613446e-20 6.105857e-07 5.4139658e-21 -1.0856192e-21
2.408791e-23 3.7590697e-05 4.0615845e-19 1.5908281e-05 1.37442e-18 1.0682801e-19 5.1681324e-28 9.679157e-20
1.2445862e-19 2.9818757e-19 1.3314393e-18 1.2480384e-22 1.8733012e-20 4.9015854e-20 3.9158487e-19 -1.203421e-20
4.7679256e-20 1.139316e-19 3.8075997e-19 1.2718008e-19 8.770926e-23 6.030675e-19 2.396991e-20 6.7123605e-11
1.3925651e-21 7.9877327e-19 6.154769e-20 5.4292306e-21 6.5604546e-18 2.521194e-23 2.9395883e-21 8.99336e-16
1.134801e-19 9.047351e-22 1.6713829e-36 0.0027157306 1.4991082e-18 6.857252e-21 6.1786692e-21 2.091768e-18
4.246149e-22 1.8120362e-25 5.0502165e-20 6.405122e-20 6.6221293e-19 6.0082347e-18 1.5065626e-18 5.486915e-19
2.4151356e-29 0.00049732503 4.0565107e-21 2.0817175e-22 1.7483875e-24 2.9180028e-16 3.5659586e-19 2.3663566e-20
1.3544345e-21 2.8667087e-19 9.7891716e-05 4.351999e-22 1.0953814e-21 1.4513475e-20 4.2886164e-05 3.1762668e-19
6.143978e-05 1.8811988e-19 6.944064e-21 6.6899085e-22 4.7616573e-22 3.9253313e-19 3.8182978e-19 3.8648954e-20
1.2909896e-09 1.3264807e-20 4.397376e-19 0.0043107476 1.040571e-13 2.3097051e-19 1.6340145e-09 6.9065533e-19
