classification/models/pose_classifier_64_big.pth (torch, 29257 bytes, 5 tensors)

model.0.weight f4 [64, 34]
0	0xbe2711ce	-0.16315386
1	0xb8ed45d9	-0.00011314051
2	0xbdd28bc1	-0.10280562
3	0x3dfe2601	0.124095924
4	0xbe0de2f6	-0.1385611
5	0x3dfab123	0.122408174
6	0x3e187391	0.14887835
7	0xbd171a40	-0.03689027
8	0x3dd558cd	0.10417328
9	0x3e0b5fb9	0.13610734
10	0xbe23b42d	-0.159867
11	0x3dfcb08b	0.123383604
12	0xbc073322	-0.008251937
13	0xbca0faf6	-0.019650918
14	0xbc7426b1	-0.014901803
15	0xbce49398	-0.02790241
16	0xbdea821e	-0.11450599
17	0xbcceeccb	-0.025259396
18	0xbe25b3f1	-0.16181923
19	0x3d67bb43	0.05657507
20	0xbd432fd6	-0.04765304
21	0xbd93bc94	-0.07213703
22	0x3ddb774d	0.10716114
23	0x3dfdade9	0.12386686
24	0x3dcaa9ac	0.098956436
25	0xbd8bc298	-0.06824225
26	0x3d9adf92	0.07562174
27	0xbda1652d	-0.07880626
28	0x3d551613	0.052023005
29	0xbe293ed2	-0.1652787
30	0x3d414527	0.04718509
31	0x3d729d60	0.059232116
32	0xbdb1329d	-0.08652232
33	0xbe227e69	-0.15868534
34	0xbb128858	-0.00223591
35	0x3d5bfdf4	0.053708985
36	0xbe3101c6	-0.17285833
37	0xbccd38db	-0.025051525
38	0xbe372271	-0.17884232
39	0x3cf39c10	0.029737502
40	0xbd08a76a	-0.033362783
41	0x3d2adbfb	0.041713696
42	0xbd38e417	-0.0451394
43	0xbdbff0e6	-0.093721196
44	0xbd54734c	-0.05186777
45	0x3cc00598	0.023440167
46	0x3d8e4a08	0.06947714
47	0x3da7b1c6	0.081882045
48	0x3d547617	0.05187043
49	0xbddce43e	-0.10785721
50	0xbdc33236	-0.09531061
51	0x3c708824	0.014680896
52	0xbe144157	-0.1447805
53	0x3de4420c	0.1114541
54	0xbc88ecd9	-0.0167145
55	0x3d80a390	0.06281197
56	0x3d5f79b3	0.05455942
57	0x3d0a6bbf	0.03379416
58	0x3ba716b3	0.0050991415
59	0xbe39b5a3	-0.18135695
60	0x3df416f0	0.119184375
61	0xbd18113a	-0.037125804
62	0xbe0bbae1	-0.13645507
63	0x3e139e90	0.14415956
64	0xbb2e8177	-0.002662746
65	0xbdfc80b7	-0.12329238
66	0xbcc51a94	-0.024060525
67	0x3d280522	0.04102052
68	0x3e20f453	0.15718202
69	0xbe25ddbf	-0.1619787
70	0x3da2989e	0.07939266
71	0xbcbe5a90	-0.023236543
72	0x3c8c5180	0.017128706
73	0x3d7c8728	0.061652333
74	0x3d78efe4	0.060775653
75	0xbe2ede50	-0.17076993
76	0x3dd72f7e	0.10507105
77	0x3bb02760	0.0053757876
78	0xbd3e40d8	-0.04644856
79	0xbdedfcc9	-0.116204806
80	0xbe0e4023	-0.13891654
81	0x3d9db442	0.07700397
82	0xbe1324a2	-0.14369443
83	0xbd549ada	-0.05190549
84	0x3d7d9e1c	0.061918363
85	0xbdff60ec	-0.12469658
86	0xbc732a30	-0.014841601
87	0x3d9205e6	0.07130031
88	0xbd70ad4a	-0.05875901
89	0xbe2ad8fa	-0.16684332
90	0xbdc0611c	-0.09393522
91	0xbd71a02c	-0.058990642
92	0x3b0b35c0	0.0021241754
93	0x3dac623a	0.08417173
94	0x3e274b6b	0.16337363
95	0xbbc3bd60	-0.005973503
96	0xbe1c2672	-0.1524904
97	0x3cdb57b0	0.026775211
98	0xbc833948	-0.016018525
99	0xbdf3973c	-0.1189408
100	0x3d3c0dfc	0.045911774
101	0xbdc88af0	-0.09792125
102	0xbdde3c23	-0.10851314
103	0x3d0a4cb3	0.033764552
104	0x3d72c899	0.059273336
105	0x3e2c2318	0.16810262
106	0x3b1dfd47	0.0024107264
107	0x3ddce07b	0.10785004
108	0x3d9cfa7a	0.07664962
109	0xbdf9d315	-0.12198464
110	0x3de5b503	0.11216166
111	0xbd2be399	-0.0419651
112	0xbdf37e70	-0.118893504
113	0xbd84774b	-0.06468066
114	0x3c8e3833	0.017360782
115	0x3e1b3c28	0.15159667
116	0xbadf71cf	-0.0017047467
117	0x3af7a67a	0.0018894218
118	0xbd828847	-0.06373649
119	0x3ce0fae1	0.027463378
120	0x3c90111e	0.017586287
121	0x3d1d8d0f	0.038464602
122	0xbd13f4af	-0.03612202
123	0xbe270854	-0.1631177
124	0x3df18cea	0.11794455
125	0xbc8bf6c8	-0.017085448
126	0xbe4267f5	-0.18984969
127	0xbd71a2d6	-0.058993183
128	0x3d4502d9	0.04809842
129	0xbdaee03b	-0.08538862
130	0xbe203a4a	-0.15647236
131	0xbd662704	-0.056189552
132	0x3dde96f3	0.10868635
133	0x3ddbd051	0.107330926
134	0x3dfebdae	0.12438522
135	0xbe395180	-0.18097496
136	0xbe2e9b34	-0.17051393
137	0xbc3f171c	-0.011663225
138	0x3c1b6d6f	0.00948654
139	0xbd2bb7e1	-0.041923407
140	0xbc0fb751	-0.008771733
141	0x3de6632e	0.11249386
142	0xbc99e2f4	-0.018784977
143	0xbe1ca454	-0.15297061
144	0x3defc7d5	0.11708037
145	0xbe24f4f9	-0.16109075
146	0xbd9fd770	-0.07804763
147	0xbd0d7c0e	-0.034542136
148	0x3d33eaaa	0.043924965
149	0xbd8e568e	-0.06950103
150	0x3d8963af	0.06708466
151	0xbe41dcf6	-0.18931946
152	0x3dfe4b50	0.124167085
153	0xbd84b455	-0.06479708
154	0x3da9e108	0.082948744
155	0x3d9f444d	0.07776699
156	0xbddd0175	-0.107912935
157	0xbdd4ffc7	-0.10400348
158	0xbe08cb8e	-0.133589
159	0xbdac0da1	-0.08401037
160	0x3d6ef13c	0.058335528
161	0xbdb2afe0	-0.08724952
162	0x3dc9eb87	0.098593764
163	0x3ba6af47	0.0050868127
164	0xbda92134	-0.08258286
165	0x3d870614	0.06592956
166	0x3df9ccda	0.121972755
167	0x3dcc5a4e	0.09978162
168	0x3d202f74	0.039107755
169	0x3c92807b	0.01788353
170	0xbb47ecdc	-0.003050617
171	0xbdb086b9	-0.08619446
172	0xbe33a1aa	-0.17542139
173	0x3dd042f0	0.10169017
174	0x3d8d1d8a	0.068904
175	0xbe2108b1	-0.15725972
176	0xbe1eda42	-0.15512946
177	0xbd629df3	-0.055326413
178	0x3cf3a8dd	0.029743606
179	0xbddeb98a	-0.108752325
180	0x3d9dddcc	0.0770832
181	0x3c62e1d2	0.013847785
182	0x3dec8f8b	0.11550816
183	0x3e2100ed	0.1572301
184	0x3dc77a7e	0.097401604
185	0x3ce13429	0.027490692
186	0x3e0820af	0.13293718
187	0x3de170a2	0.11007811
188	0xbe0445df	-0.12917279
189	0xbe1486c6	-0.14504537
190	0x3e1ee288	0.15516102
191	0x3dbc0b71	0.0918187
192	0xbd65bd8a	-0.05608896
193	0x3cb7a0b6	0.0224155
194	0xbd2dd734	-0.04244156
195	0xbdc6c9d2	-0.09706463
196	0xbdea7227	-0.11447554
197	0xbd9f58ce	-0.0778061
198	0x3e2247a1	0.15847637
199	0xbe241fe6	-0.16027793
200	0xbd6866fd	-0.056738842
201	0x3e098e81	0.13433267
202	0xbe159415	-0.1460727
203	0x3de69e22	0.1126063
204	0x3e1d4261	0.15357353
205	0x3e0d6be8	0.13810694
206	0xbd798c77	-0.060924973
207	0x3dac4680	0.08411884
208	0xba77d3ef	-0.0009453883
209	0x3dd3b542	0.103373066
210	0x3c64b637	0.013959459
211	0xbc8f797c	-0.017513983
212	0xbdb0b720	-0.08628678
213	0xbde1b148	-0.11020142
214	0xbd021e4f	-0.031767186
215	0xbdae34b6	-0.085061476
216	0xbe1cddc0	-0.15318966
217	0xbdb723fe	-0.08942412
218	0xbd4333c6	-0.047656797
219	0xbc01ba38	-0.007917933
220	0x3d34d8c2	0.04415203
221	0xbdb0de2d	-0.08636127
222	0xbdebe646	-0.115185305
223	0xbc5b2113	-0.013374585
224	0xbd438f10	-0.047743857
225	0xbdbfb1a7	-0.09360056
226	0x3a42c125	0.00074292935
227	0xbd112560	-0.035436034
228	0xbb5baf99	-0.0033521412
229	0xbe21097e	-0.15726277
230	0x3dc5caa1	0.09657789
231	0x3d901ccb	0.07036742
232	0xbd998e94	-0.07497898
233	0x3e149c16	0.14512667
234	0xbc58ff7c	-0.013244506
235	0xbd6599fe	-0.05605506
236	0x3d8ece86	0.06972985
237	0x3e14ef51	0.14544417
238	0x3cb0a5bf	0.021563409
239	0xbca3ec47	-0.020010127
240	0xbe0c6f21	-0.13714267
241	0x3d9f9f9c	0.07794115
242	0x3dd908ac	0.10597357
243	0x3dab3fed	0.08361802
244	0xbda8824a	-0.08227976
245	0x3d704fe8	0.058669955
246	0xbe0bc298	-0.1364845
247	0xbca1291c	-0.019672923
248	0x3e067159	0.13129176
249	0xbe2e93f9	-0.17048635
250	0x3dd598e4	0.10429552
251	0x3d74903a	0.059707858
252	0xbcf75c47	-0.030195368
253	0xbe1078bd	-0.14108558
254	0xbe45adec	-0.19304627
255	0x3cfe344c	0.031030796

model.0.bias f4 [64]
0	0xbe4082b4	-0.1879986
1	0xbbe30dca	-0.006929134
2	0x3d1bebc4	0.03806664
3	0xbc9b4b3b	-0.018956771
4	0x3ceae0c4	0.02867163
5	0xbda8680c	-0.0822297
6	0x3e05d908	0.13071072
7	0xbd21f191	-0.039537016
8	0x3d41427f	0.047182556
9	0x3dbcce44	0.092190295
10	0x3ccc9f15	0.0249782
11	0xbcd12af8	-0.025533184
12	0xbd6afc36	-0.057369433
13	0xbd2b6597	-0.04184493
14	0xbdcf95aa	-0.10135968
15	0xbdc587a1	-0.0964501
16	0xbd863dc7	-0.06554752
17	0xbd8f70d9	-0.07003946
18	0xbd7de34d	-0.06198435
19	0xbe142200	-0.14466095
20	0xbe28e00b	-0.16491716
21	0x3d9e5f9e	0.07733081
22	0x3c484460	0.012223333
23	0xbcd78b80	-0.026311636
24	0x3e13a3b3	0.14417915
25	0x3cbe8446	0.023256432
26	0x3daa278d	0.08308325
27	0xbdcfa588	-0.101389945
28	0xbe54c345	-0.20777614
29	0x3d144f48	0.03620842
30	0x3e0e3dc7	0.13890754
31	0x3dd77f32	0.105223075
32	0x3d687f4c	0.056762025
33	0xbd9121e7	-0.070865445
34	0xbe034c00	-0.1282196
35	0x3b19598f	0.0023399328
36	0x3c66a275	0.014076819
37	0xbca9b3e8	-0.020715669
38	0x3e22b414	0.15889007
39	0xbdea7037	-0.114471845
40	0xbd7d8a94	-0.061899737
41	0x3d7f4cdc	0.06232916
42	0xbdf4c237	-0.11951106
43	0x3e07825d	0.13233323
44	0xbe053e19	-0.1301197
45	0xbe13a12d	-0.14416952
46	0x3dab732e	0.08371578
47	0x3e1d7f1b	0.15380518
48	0xbe3e5dab	-0.18590419
49	0x3cd27e38	0.025694951
50	0x3e016321	0.12635471
51	0xbceb368d	-0.028712535
52	0x3d55e377	0.05221888
53	0xbdf2bbde	-0.11852239
54	0xbdf93f3a	-0.12170263
55	0xbcfc2720	-0.030780375
56	0xbcc57c96	-0.024107259
57	0xbda02580	-0.078196526
58	0xbe13589f	-0.14389275
59	0xbe269aaf	-0.16269945
60	0xbc5e74c0	-0.01357764
61	0xbd636a58	-0.05552134
62	0xbcb3ac90	-0.02193287
63	0x3e0ade14	0.13561279

model.2.weight f4 [64, 64]
0	0x3e11df36	0.14245304
1	0x3d6f4142	0.058411844
2	0x3def0060	0.116699934
3	0x3d91419d	0.07092593
4	0xbdad089a	-0.08448906
5	0x3dde51f2	0.108554736
6	0xbdfccf81	-0.12344266
7	0x3db1ed59	0.086878486
8	0x3ba1cce3	0.0049377545
9	0x3cb66d21	0.022268834
10	0xbd53bbee	-0.051692896
11	0xbd95f054	-0.073212296
12	0x3cfdc3f0	0.03097722
13	0xbda2c341	-0.07947398
14	0xbdf6ebbe	-0.12056683
15	0xbdaa318b	-0.08310231
16	0xbc6fa170	-0.014625892
17	0xbd962555	-0.07331339
18	0xbdcf0e09	-0.10110099
19	0xbd33f488	-0.043934375
20	0x3d4440c0	0.047913313
21	0x3d374bb8	0.044749945
22	0x3dd968c6	0.10615687
23	0x3d95cc7e	0.073143944
24	0x3db2ff1c	0.087400645
25	0xbd12bc50	-0.03582412
26	0x3ba8dad6	0.0051530404
27	0x3d8f1608	0.06986624
28	0xbd859479	-0.065224595
29	0xbdd00f17	-0.10159128
30	0x3db7acc8	0.08968502
31	0xbdce31f1	-0.10068119
32	0xbca8cd20	-0.020605624
33	0x3d6cce68	0.05781403
34	0xbd9f27b2	-0.07771243
35	0xbd8dd71b	-0.06925794
36	0x3cebce8b	0.02878501
37	0x3ded5aba	0.1158957
38	0xbd929d6f	-0.07158934
39	0x3d904cf9	0.07045931
40	0x3dfcb364	0.123389035
41	0xbcfb7d38	-0.030699357
42	0x3de72f75	0.112883486
43	0xbd0a1474	-0.033710912
44	0x3d9a1036	0.07522623
45	0x3cfb92e8	0.030709699
46	0x3c6333f0	0.013867363
47	0xbdca1b26	-0.098684594
48	0x3d480fe1	0.04884327
49	0x3d617098	0.05503902
50	0x3dc58b79	0.09645743
51	0xbc2175d6	-0.009854754
52	0x3d0e4ff0	0.034744203
53	0x3d144947	0.036202695
54	0xbd7fbe50	-0.062437356
55	0xbd13f6c3	-0.036124002
56	0x3d5652f3	0.0523252
57	0x3dd00471	0.10157097
58	0xbdf7f64a	-0.12107523
59	0x3d0114dc	0.031514034
60	0xbdc92718	-0.0982191
61	0xbc938078	-0.018005595
62	0xbb7ba654	-0.00383987
63	0x3b34cbcd	0.0027587295
64	0x3d8abaa8	0.06773883
65	0xbd9fc2fc	-0.07800862
66	0xbdb863bc	-0.09003398
67	0x3d43ba51	0.047785107
68	0xbdb85224	-0.09000042
69	0x3d91b0f1	0.07113827
70	0x3c3b1c40	0.01142031
71	0x3c4d7096	0.01253905
72	0x3de6c4e9	0.112680264
73	0x3d67e5c3	0.056615602
74	0xbcc356ef	-0.023845164
75	0x3df69f6c	0.12042126
76	0xbdbe4960	-0.09291339
77	0xbe347d76	-0.17625985
78	0x3d6a9fc0	0.057281256
79	0xbcaa9f9a	-0.020828057
80	0xbde81efc	-0.11334035
81	0x3da19df4	0.07891455
82	0xbcce7685	-0.025202999
83	0x3ba00180	0.0048829913
84	0xbd3c8f58	-0.04603514
85	0x3d13fc40	0.036129236
86	0x3d3e6168	0.046479613
87	0xbe0bf4e5	-0.13667639
88	0xbcfa30b0	-0.030540794
89	0x3d81d7c9	0.06339986
90	0x3d27545a	0.04085193
91	0x3d5c3f2c	0.053771183
92	0xbd297c76	-0.04137846
93	0xbd91cde6	-0.0711935
94	0xbdc4fe46	-0.09618811
95	0xba58f93f	-0.00082768867
96	0x3d80ffb2	0.0629877
97	0x3d3d1c70	0.0461697
98	0x3c664205	0.014053826
99	0xbd1f1ae4	-0.038844004
100	0xbdaee4a0	-0.085397005
101	0xba1c8a00	-0.00059714913
102	0x3db037cc	0.086043924
103	0xbd414710	-0.04718691
104	0xbdadaa26	-0.08479719
105	0xbde09b5a	-0.10967131
106	0xbdca145b	-0.09867164
107	0xbdef3d14	-0.116815716
108	0xbd32b444	-0.043628946
109	0x3ca39f10	0.019973308
110	0x3d0432ac	0.032274887
111	0x3b846240	0.0040400326
112	0xbb92ad8e	-0.0044762557
113	0x3d9b4e72	0.07583322
114	0xbe095dc0	-0.13414669
115	0x3da27c7f	0.07933902
116	0xbd2021f6	-0.039094888
117	0x3d0b81e0	0.034059405
118	0xbdb274ce	-0.08713685
119	0xbc93c938	-0.018040285
120	0x3d84255c	0.06452438
121	0xbd88de78	-0.066830575
122	0xbd63ae90	-0.055586398
123	0x3dc23410	0.094825864
124	0xbccd6230	-0.025071234
125	0x3cb42ec0	0.021994948
126	0xbd31ff18	-0.043456167
127	0xbd3529c3	-0.04422928
128	0x3d7feb1a	0.06248007
129	0xbe61c09d	-0.22046132
130	0x3d9779d2	0.07396282
131	0xbd555f18	-0.05209264
132	0x3d0f60d8	0.035004467
133	0x3dab27b6	0.08357184
134	0xbd8bb176	-0.06820957
135	0xbe531022	-0.20611623
136	0x3dbd2d96	0.092372105
137	0x3d136911	0.03598887
138	0x3dc6bcc2	0.097039714
139	0xbd73d0fc	-0.059525475
140	0x3d6099c4	0.054834142
141	0xbdaa8060	-0.08325267
142	0x3d8f96c2	0.07011177
143	0xbe1c7478	-0.15278804
144	0x3d790090	0.060791552
145	0xbcd47b44	-0.025937684
146	0xbe1732cc	-0.14765471
147	0xbd57023c	-0.052492365
148	0x3dd5661a	0.10419865
149	0x3dfe5040	0.1241765
150	0x3d844d10	0.06460011
151	0xbd291f98	-0.041289896
152	0xbd42abf4	-0.04752727
153	0xbdfa7da4	-0.12230995
154	0xbdf32bdb	-0.11873599
155	0xbce60e90	-0.028083116
156	0x3d6e2c93	0.058147978
157	0xbdfce2c8	-0.123479426
158	0xbceda018	-0.029007003
159	0xbdb1fc55	-0.08690707
160	0x3dce1b06	0.10063748
161	0x3ddc2974	0.10750094
162	0x3cf29580	0.029612303
163	0xbdbf8b06	-0.093526885
164	0xbd13a690	-0.03604752
165	0x3da168e4	0.078813344
166	0x3de38328	0.111090004
167	0x3c0a5920	0.008444101
168	0x3d911f14	0.07086006
169	0x3c3e4cf0	0.011615023
170	0xbd9c348e	-0.076272115
171	0xbdb3014c	-0.08740482
172	0x3d422230	0.047395885
173	0xbd82b8de	-0.06382917
174	0x3de010b0	0.10940683
175	0xbdb01438	-0.085976064
176	0x3db1c1d4	0.08679548
177	0xbd86e9e8	-0.06587583
178	0x3dde3c02	0.10851289
179	0x3d667cb8	0.056271285
180	0xbdb5b194	-0.08871761
181	0xbda8053a	-0.08204122
182	0x3ca93128	0.020653322
183	0xbda40f36	-0.08010714
184	0x3d919820	0.07109094
185	0x3e13130a	0.14362732
186	0x3dca0bc4	0.09865525
187	0xbdf2220a	-0.11822899
188	0x3dc246a8	0.09486133
189	0x3db13112	0.086519375
190	0x3d9897d8	0.07450837
191	0x3df6fd10	0.120599866
192	0xbe06b6fc	-0.1315574
193	0xbd84cd7f	-0.06484508
194	0xbda8ef64	-0.08248785
195	0x3c15d9c7	0.00914616
196	0x3db2cc82	0.08730413
197	0x3ccdd340	0.025125146
198	0x3dbe9d58	0.09307355
199	0xbdf7be93	-0.12096896
200	0x3d7d2ff0	0.061813295
201	0xbd424ecc	-0.047438428
202	0xbdb36476	-0.08759396
203	0x3d2c253c	0.042027697
204	0xbda534d0	-0.08066714
205	0xbd8ead1c	-0.06966612
206	0xbcadd6f0	-0.021220654
207	0xbe109516	-0.14119372
208	0xbd1be0a0	-0.038056016
209	0x3c670a7a	0.014101619
210	0xbdbdb4be	-0.092629895
211	0xbd8f229c	-0.06989023
212	0x3de18730	0.11012113
213	0xbb822ca0	-0.003972605
214	0x3d51b960	0.051202178
215	0xbdb53120	-0.088472605
216	0xbd50ee60	-0.051008582
217	0xbd52451c	-0.05133544
218	0x3c812a38	0.015767202
219	0x3def1fe8	0.116760075
220	0xbc7af910	-0.01531817
221	0xbd2d1eb8	-0.042265624
222	0xbc813430	-0.015771955
223	0xbd809607	-0.062786154
224	0xbd954028	-0.072876275
225	0x3d3d4e7c	0.046217427
226	0xbe01283b	-0.12613003
227	0xbdb72128	-0.08941871
228	0xbc90ad9d	-0.01766091
229	0xbde7b8aa	-0.11314519
230	0x3dd00792	0.10157694
231	0xbd4964d8	-0.049168438
232	0xbc4ef050	-0.012630537
233	0xbddf9f38	-0.109190404
234	0xbdcb1a28	-0.09917098
235	0x3ded6ce6	0.11593036
236	0xbdbdcc06	-0.0926743
237	0x3dc125b0	0.094310164
238	0x3dc3dbc4	0.09563401
239	0x3d2acae0	0.041697383
240	0x3c92db08	0.017926708
241	0x3cb31c30	0.021864027
242	0xbdfd809a	-0.123780444
243	0xbcd4f77c	-0.025996916
244	0xbdcd5248	-0.100254595
245	0x3d0d2164	0.034455672
246	0xbdecc5de	-0.11561178
247	0xbddb5163	-0.10708883
248	0x3d74548c	0.059650943
249	0xbd242b2e	-0.04008024
250	0x3d37f664	0.04491271
251	0x3d845492	0.06461443
252	0xbdbb7bc0	-0.09154463
253	0x3db3c374	0.08777514
254	0x3dff7b1c	0.12474653
255	0xbdb49d02	-0.08819009

model.2.bias f4 [64]
0	0x3ca46b6b	0.020070752
1	0xbc44b123	-0.012005123
2	0x3d59e29f	0.05319464
3	0xbe1b105b	-0.15142958
4	0xbdb60da7	-0.08889323
5	0x3d8bd590	0.06827843
6	0x3d83b087	0.06430154
7	0x3e1319d5	0.14365323
8	0x3d8bf37a	0.06833549
9	0x3ddcf32e	0.1078857
10	0xbe31e7c2	-0.17373565
11	0xbc13baef	-0.009016736
12	0x3dcf99c3	0.101367496
13	0xbba2fdfa	-0.004974124
14	0xbe06989c	-0.13144153
15	0xbdf4c7c0	-0.11952162
16	0xbcda8584	-0.026674993
17	0xbe33de05	-0.17565162
18	0xbd01ba67	-0.031671908
19	0xbd2e394d	-0.042535115
20	0xbdbd8ae8	-0.0925501
21	0x3d1ad61f	0.037801858
22	0xbc7c55e3	-0.015401336
23	0xbd3cb76e	-0.04607337
24	0xbc932602	-0.01796246
25	0x3c8a9a2e	0.016919222
26	0xbe007cbc	-0.12547582
27	0x3d687491	0.05675179
28	0x3e2cc8db	0.16873495
29	0xbd6b8a8d	-0.05750518
30	0xbe29b335	-0.16572268
31	0xbc83f51f	-0.016108094
32	0xbe167bd4	-0.14695674
33	0x3ade24b0	0.001694819
34	0xbb74a463	-0.0037329427
35	0xbe3b1012	-0.18267849
36	0xbd9ebcf3	-0.07750883
37	0x3d6658f9	0.056237195
38	0xbe4b84af	-0.19874834
39	0xbdb29d93	-0.08721461
40	0xbe2e0808	-0.16995251
41	0x3d29cac1	0.041453127
42	0xbdbd2763	-0.09236028
43	0x3daf4bb5	0.08559362
44	0xbce60718	-0.028079554
45	0xbdfa3c3a	-0.122185186
46	0xbd93039d	-0.071784236
47	0xbe25d934	-0.16196138
48	0x3d8887dc	0.06666538
49	0x3d010b8b	0.03150515
50	0x3e0d339e	0.13789222
51	0x3b0e8511	0.0021746794
52	0xbdf89f89	-0.12139804
53	0xbdcbd047	-0.09951835
54	0xbe5285dc	-0.20558876
55	0xbd8ca46a	-0.06867297
56	0xbe04e181	-0.12976648
57	0x3dfdefe0	0.12399268
58	0xbe147b57	-0.14500175
59	0xbcc82fe3	-0.024436897
60	0xbdf0ff3c	-0.11767432
61	0xbc91a5a9	-0.017779188
62	0x3d8918e9	0.06694204
63	0xbe2d5208	-0.16925824

model.4.weight f4 [1, 64]
0	0x3dac7a96	0.08421819
1	0xbd308f6b	-0.043105524
2	0x3d4bd3cf	0.049762543
3	0xbae22d0d	-0.0017255858
4	0x3c6fa972	0.014627801
5	0x3ce54d59	0.027990984
6	0xbdb05377	-0.0860967
7	0x3bbcf948	0.0057670213
8	0xbcc15bbc	-0.023603313
9	0x3cda4fba	0.026649345
10	0xbd915c56	-0.0709769
11	0xbc54fbac	-0.012999456
12	0xbd674a90	-0.056467593
13	0x3c548bd6	0.012972793
14	0xbc5af7ee	-0.013364775
15	0x3da70698	0.081555545
16	0xbd95e3b5	-0.07318822
17	0xbdbddbc7	-0.09270435
18	0x3ca6b314	0.020349063
19	0xbc11632c	-0.008873742
20	0xbd066ed3	-0.032820534
21	0x3ccdf494	0.025141038
22	0xbd3bcb16	-0.045847975
23	0xbd57312f	-0.05253714
24	0xbdd0c3ce	-0.10193597
25	0x3d5fb01f	0.05461132
26	0xbd5b815e	-0.05359017
27	0xbd22251a	-0.039586164
28	0x3ceb4b19	0.028722333
29	0xbd5fea49	-0.05466679
30	0xbc66569a	-0.014058733
31	0xbcda7b43	-0.026670104
32	0xbd0ce595	-0.034398634
33	0xbbf451d4	-0.0074560437
34	0x3d8c0a24	0.06837872
35	0xb85541fd	-5.0844614e-05
36	0xbc33227d	-0.010933516
37	0x3d01b9ad	0.031671215
38	0xbc78e624	-0.015191589
39	0x3d231e6f	0.039823946
40	0xbd0c4387	-0.034244087
41	0x3d977cb3	0.07396831
42	0xbb48e468	-0.003065372
43	0x398c4041	0.00026750754
44	0x3d0a712e	0.033799343
45	0xbc2c0450	-0.010499075
46	0xbd7d8312	-0.061892577
47	0xbda07999	-0.07835693
48	0x3d0b44eb	0.034001272
49	0x3af4e8a0	0.001868505
50	0x3d8567ca	0.06513937
51	0x3d745bba	0.05965779
52	0x38e1ecb0	0.000107729225
53	0xbaac9275	-0.0013166206
54	0xbcb97050	-0.022636563
55	0xbcf2fcfd	-0.02966165
56	0x3d719dfc	0.058988556
57	0x3c4f965c	0.012670126
58	0xbd1bf6b0	-0.038077056
59	0x3d86c854	0.06581178
60	0x3d190263	0.03735579
61	0xbdc183ee	-0.09448992
62	0x3d64c8af	0.05585545
63	0xbb3f6310	-0.0029203333
