classification/models/pose_classifier_deep_big.pth (torch, 130053 bytes, 9 tensors)

model.0.weight f4 [128, 34]
00000000: 2014 e7bd 40ce b43b 782b e03d 2303 1cbe
00000010: 9904 c1bd f448 98bd 75a5 c3bd dd30 9fbd
00000020: 8ff7 71bd b42e 7b3d 1b2a 8c3b 187c 15be
00000030: fb48 16be 1fdc 1c3e c02a a33d 9fe1 033d
00000040: 0e14 dd3d a52d 213e 182d ea3d ac2d f03d
00000050: 8d0b de3d 2258 9abc a0d7 edbd eb86 0fbe
00000060: e5d4 aabd 4e08 8abd 6fea e2bd ce3b 6cbd
00000070: 9f2c 78bd 587b f83c 1222 c63d 5425 583c
00000080: 8431 bebd 576d 1b3d b976 c4bc 9f50 93bd
00000090: f89e a3bb 879a bd3d 3049 af3c b415 953d
000000a0: 2533 21be dc3c 113d f4cd 66bc ff4e 0ebd
000000b0: d288 a73c 2f28 a53b 2c9e 0a3d 54d0 0a3e
000000c0: 7202 763d 3386 443d 38ae 33bd 4f29 d63d
000000d0: 2bbc 4d3d 8984 a13d 386b b33d bfe0 b9bd
000000e0: 0226 48be 2c0c 413d 116c 903d 4869 bdba
000000f0: ed92 1ebe e159 b43d c000 ecbd 33a6 ffbd
00000100: c32c 4fbd 5f1a 49be 60ae 29be 76e5 e7bd
00000110: 17a8 3d3e 3852 e73c 5fb3 423e bd24 a8bd
00000120: a1e0 e03d 34e7 4fbe 6b17 e9bd fdbb ccbd
00000130: 30dd 4dbe 8867 d5bd 3ce2 71be 6d8d 27be
00000140: 19c2 2bbe 2f6d 9d3d 2099 5abe 28a1 ebbd
00000150: f9fb 82be 3c95 2d3d 80a2 0b3d 61c7 183d
00000160: 5eef 893c df5f 563e afa8 5d3d 634b 8d3d
00000170: 9ba8 14be c961 f23d fdee 29be 511d 90bd
00000180: cd2a d5bd ba73 353e c79a e0bd 1940 3a3e
00000190: d9a0 6abe 7a1b 113e f1c4 b4bd 9473 21be
000001a0: e619 a13d 1027 f5bc 8004 133d 1ce2 04be
000001b0: 0ce0 cebd b8b7 8a3d f5e5 d6bd 227a 8d3d
000001c0: 4946 e0bd 85fc 2bbe 7076 20be 48d8 883d
000001d0: 5d55 023e eefd d13d 2774 213e 86cf 79bd
000001e0: 901b 503d fc18 3a3d d0dd 0bbe 4463 04bd
000001f0: a8c6 01bd 0c4b ecbd 3883 c33c 85c0 e0bd
00000200: dc67 25bd 55cd 073e e0e2 60bd c086 06bb
00000210: 5f42 d4bd a26c ad3d 58cc 813d 7cc8 6a3d
00000220: d8b5 d5bd 6070 383d 1150 d83d 44fa 0abe
00000230: 45d5 0abe f124 9dbd a483 ba3d da5d d63a
00000240: 9357 27bd e950 28be 04cf 1fbd 21b9 d63d
00000250: 29bf b53d 2100 45bc 32fe 393d c0d3 863c
00000260: 880e a23d aa54 49be 2eb2 89bd 1e61 cb3d
00000270: 1445 67bd 174a 833d 33c4 0dbc 84ca 29be
00000280: 0192 1fbe a84f f3bc 8741 fa3d cf0e 203d
00000290: 4b54 da39 6b56 403d 8c4b 143e aa0a 483d
000002a0: 6253 f3bd 15f0 083e ae73 e6bb 11c6 b9bd
000002b0: 3366 1d3d 3e0b 4cbe 5905 28be 2b6e 55be
000002c0: 543d 1b3e fa6d 6cbd c016 26bd 1f9d 0fbe
000002d0: 0622 3fbd 44e6 d3bd 5fa7 923c 0301 ea3d
000002e0: c0e5 163d 6059 923d de16 e73d 2ba0 7dbc
000002f0: 526f 08be 9c23 23be 5f66 9a3c 0eba d33b
00000300: cf9c 263e 16ad 29be d801 adbd e5c4 88bd
00000310: a7e8 1c3e 1d11 20bb 61a1 b03d 7411 47bd
00000320: 0942 0b3e 138f f03d ded9 a5bd 7981 5abe
00000330: 2ddc 8abd bd7b f43d a1e7 df3d 7e4e 4bbd
00000340: f7e0 9cba af0f 503d 9b44 ea3d 1077 c4bd
00000350: 0651 0dbe f7d6 f53d 39e0 f0bd d8a0 f33d
00000360: b99a 943c 2eb2 57be ecde 33be bd65 6d3d
00000370: fbc6 d53d 15c5 96bc b5ce 80bc 7eb2 47be
00000380: 69b8 1e3e a02a 023e 3b3b 873c 5a94 033e
00000390: f422 bdbd 997e abbb 348f 333d fe63 3a3d
000003a0: a939 8dbd 5de6 093c 4a17 183c e88d 32be
000003b0: e1a8 9abc aabf dabc 0ed1 e23d 979c 183d
000003c0: 8065 06be 3ea2 213d 8ba2 92bd 1c1c fb3d
000003d0: e5d1 99bd cb1b 38be 978a f9bb 6293 a63b
000003e0: 3f0d 88bb e086 ff3d b692 7d3c efc4 c2bd
000003f0: c852 343d 98b6 4abe 3c07 763c 8187 07bd
-0.112831354 0.005517751 0.10945791 -0.15235572 -0.09424705 -0.0743579 -0.09553043 -0.07772992
-0.05907398 0.061323836 0.0042774803 -0.1459812 -0.14676277 0.15318345 0.07967138 0.03219759
0.10794841 0.15740068 0.11434382 0.11727461 0.10842047 -0.018840853 -0.11613393 -0.14016311
-0.08341388 -0.06739865 -0.11079871 -0.05767422 -0.06058943 0.030332252 0.09674467 0.0131924935
-0.09286788 0.03794607 -0.023982393 -0.07193112 -0.004993316 0.092579894 0.021397203 0.0727953
-0.15742166 0.03545843 -0.014087189 -0.034743305 0.020450983 0.0050401906 0.03384225 0.13556033
0.060060926 0.047979545 -0.04386732 0.10457098 0.05022828 0.07886607 0.08760685 -0.0907607
-0.19545749 0.04713075 0.07051862 -0.0014450932 -0.15485735 0.088062055 -0.115235806 -0.12482872
-0.050579797 -0.19638966 -0.16570425 -0.11323063 0.18521152 0.028237447 0.19013737 -0.08210132
0.109803446 -0.2030304 -0.1138142 -0.099967934 -0.20103908 -0.10420138 -0.23621458 -0.16362543
-0.16773261 0.07686841 -0.21347475 -0.115053475 -0.25582865 0.04237865 0.03409052 0.037299518
0.016837772 0.2093501 0.054115947 0.068991445 -0.14517443 0.11835057 -0.16595073 -0.07036842
-0.10408554 0.17719927 -0.109670214 0.18188514 -0.22912921 0.14170638 -0.08826626 -0.15766746
0.07866268 -0.029925853 0.035892963 -0.12976879 -0.10101327 0.06773323 -0.104930796 0.069080606
-0.10950906 -0.16795547 -0.1567018 0.066818774 0.12727876 0.10253511 0.15766965 -0.060988925
0.050807536 0.045433983 -0.13658834 -0.03232123 -0.031683594 -0.115377516 0.02386628 -0.1097422
-0.04038225 0.13261922 -0.054903865 -0.0020527095 -0.10364222 0.08467986 0.063378036 0.057320103
-0.104350746 0.045029044 0.105621465 -0.13572031 -0.13557918 -0.07673062 0.0910714 0.0016354874
-0.040855 -0.16437115 -0.039015785 0.10484529 0.088743515 -0.0120239565 0.045408435 0.016458392
0.07912928 -0.19661203 -0.06723438 0.09930633 -0.056462362 0.06410616 -0.008652735 -0.1658116
-0.1558304 -0.029701069 0.122195296 0.039076623 0.00041643003 0.046957415 0.14481944 0.048838295
-0.118811384 0.13372834 -0.007032833 -0.09070981 0.038427543 -0.19926164 -0.1640829 -0.20842807
0.15160114 -0.05772207 -0.04054904 -0.1402478 -0.046663307 -0.10346654 0.017902074 0.11425974
0.0368402 0.07145953 0.112836584 -0.015480082 -0.13323715 -0.15931553 0.018847642 0.0064613884
0.16270755 -0.16569933 -0.08447617 -0.0667818 0.15323125 -0.0024424263 0.086245306 -0.04860063
0.13599409 0.11746039 -0.080981955 -0.21338452 -0.067802764 0.11937664 0.109328516 -0.049635403
-0.00119689 0.050796207 0.11438867 -0.09593022 -0.13800439 0.12003892 -0.11761517 0.11895913
0.018140184 -0.21064064 -0.17565507 0.057958353 0.10438343 -0.018404523 -0.015723566 -0.19501683
0.15500034 0.12711573 0.016507735 0.1284956 -0.092351824 -0.0052335975 0.04383774 0.045505516
-0.068957634 0.008416739 0.009282896 -0.17436945 -0.018879356 -0.02670272 0.1107503 0.03725871
-0.13124657 0.039461367 -0.07159909 0.12261221 -0.07510737 -0.17979352 -0.007615398 0.0050834874
-0.0041519697 0.12476897 0.015476873 -0.09510218 0.04402426 -0.19796216 0.015016373 -0.03308821

model.0.bias f4 [128]
00000000: 6cb5 2fbe 2ce0 803d 758c a53c 22ef b5bd
00000010: 8e46 c73c 32ef 8abd afa3 843c b121 bcbc
00000020: cf23 52bd bd24 d8bc 4105 7ebe 8533 003e
00000030: a688 243e cae9 0a3e b16f 6bbd 1112 b23d
00000040: 1ac6 2cbe 65a5 733d fc74 0fbd efa9 793d
00000050: f004 003c 45db c73d c8cc 593d 58fc fa3d
00000060: 74e7 3abc 2a49 3b3d 324f a33d ce11 923c
00000070: 816b 29be f5ff cf3d 13c0 18be 70ce f83c
00000080: f6ef 633d 1270 fcbd a4a3 2fbe 877e 19be
00000090: 21fb 2ebe 87b2 89ba ae1f b5bd b702 1d3d
000000a0: 07f9 7e3d b084 e2bd ded5 02bc 77b3 8ebd
000000b0: 5db4 7bbd e0c9 46bc 5f03 243d ff43 39be
000000c0: 3750 173e 5f9d 58bd 5201 01be d54c 1ebe
000000d0: 35c1 223e e4bf 3fbd 28ec fcbd 634c 1dbe
000000e0: ad57 293e ff7c 113e d481 d4bc 01b8 06be
000000f0: a2b3 10be 8e6c 22bc 9802 6ebd b3e9 8ebd
00000100: 18b9 ef3c a04b a5bd ead8 853d fb01 63be
00000110: 40d3 ec3c e971 043e b9aa 723d f57a a9bd
00000120: fe7b 113d 2535 093e ed9f a5bd fa7a e5bd
00000130: 77e2 6abd 6c1c 2dbe 785a 8ebc 14cc 9f3d
00000140: 0b41 813d a609 23be f465 c5bd d9a9 873b
00000150: 6ac7 c9bd c802 4f3d 53f5 b1bd c64d 0b3e
00000160: 1be8 3dbe b65c 23be 229a d73d fbbd 6a3e
00000170: ea42 c83d c359 9fba ba8c 633d 95da b5bd
00000180: 560c 42be 8cfa 243d 6078 d23d 6469 d13d
00000190: 011b 84bd e331 5cbd 174a 4fbe 0349 dfbd
000001a0: 3b22 e2bd 4749 16be f63c 35be 70e5 56bd
000001b0: b9be 04be 310f e4bc 8abf 0c3e 71a6 f13d
000001c0: 378f f63d 2026 a03d cbdb 15be 7119 11bc
000001d0: b316 88bd b0de a63d 61e6 463d dc20 183d
000001e0: c4fe cbbd 4892 59bd 0990 bdbd 7279 7abd
000001f0: 65a0 ccbd 3880 e83c 2f2f 16bd 8bb4 1cbe
-0.1715905 0.062927574 0.020208577 -0.088835016 0.024325635 -0.06783904 0.016191332 -0.022965284
-0.05130368 -0.026384706 -0.24806692 0.12519653 0.16067752 0.13565746 -0.057479564 0.08694852
-0.16872445 0.059483904 -0.035023674 0.060953077 0.007813677 0.09758619 0.05317381 0.12255162
-0.011407722 0.04572407 0.0797409 0.017830756 -0.16544916 0.10156242 -0.1491702 0.030371875
0.055648766 -0.12326063 -0.17152268 -0.14989673 -0.17087986 -0.0010505476 -0.08843933 0.038332667
0.06224921 -0.110604644 -0.00798556 -0.06967824 -0.061451305 -0.012133092 0.040042277 -0.18092345
0.14776693 -0.052884456 -0.1259816 -0.15458997 0.15894015 -0.04681386 -0.12349731 -0.1536117
0.16537352 0.14207838 -0.025940813 -0.1315613 -0.14131024 -0.009913577 -0.058107942 -0.06978168
0.029263064 -0.08071065 0.06535514 -0.22168724 0.028909326 0.12934078 0.059244845 -0.08275405
0.03551864 0.1339918 -0.08087144 -0.112050965 -0.05734488 -0.16905373 -0.017377123 0.07802597
0.06311234 -0.1592165 -0.09638587 0.0041401205 -0.09852488 0.05053976 -0.0868937 0.13603887
-0.18545572 -0.15953335 0.105274454 0.22924034 0.09778388 -0.0012157488 0.05555413 -0.08879582
-0.18950018 0.040278003 0.10276866 0.1022518 -0.06450463 -0.053758513 -0.20243107 -0.10902598
-0.11041685 -0.1467639 -0.17699036 -0.052464902 -0.1296338 -0.027839275 0.13744941 0.11799324
0.12039035 0.07819772 -0.14634626 -0.008856163 -0.066449545 0.08147943 0.04855955 0.037140712
-0.09960702 -0.05311802 -0.09255988 -0.061150976 -0.0999153 0.028381452 -0.03666609 -0.15303247

model.2.weight f4 [128, 128]
00000000: 34e3 03bb 5b9e 803d 1e34 3c3d ccd3 ca3c
00000010: 6701 b3bc 4d08 89bd 883d 1ebd 0539 de3c
00000020: 1c56 313d 033a a43c 1a92 aebd 1011 4a3d
00000030: 9664 343c ec7a 40bd 49dd f83c f6d0 fcbc
00000040: 9a4d 14bd f84e b1bc 08c1 c03c f182 a43c
00000050: 29b1 bebd 72d4 2bbc ec00 adbd b790 e73c
00000060: ed32 e2bc ffdf 3dbc 2bda b23c 6605 873d
00000070: b654 a13d 2759 c93c 392a 853d f061 943c
00000080: ceed 6a3d 7049 aebb d520 98bc 9033 cbbc
00000090: a474 45bd 2821 53bc 6b11 083c 708a 9f3d
000000a0: a23a 8d3b 317d eb3c aca0 5f3c 3b98 b0bd
000000b0: ffee cdbd 2a7d 183d 2cfb 38bd 8f84 9bbd
000000c0: eccb d9bc 01db 433d eeda 4f3d f8fb 833d
000000d0: a126 8c3d 73f1 b13d 9838 43bd cb0b 9cbd
000000e0: b020 51bc 09c5 8b3d fd21 6e3d 15e2 1a3c
000000f0: f828 653c c3a5 9c3b 4565 90bd d009 92bc
00000100: 193e 4bbd c4cf b0bd 418a 5abd 4ab4 c1bd
00000110: 902d 0ebd 885c 0abc 38dc 843d 541f 95bd
00000120: 19b3 f63c 2371 bebd 419d f3bb ba18 0bbd
00000130: 0044 393c dbfd 833d 9681 433d adeb 31bd
00000140: f6bc 4bbc bf8a 8ebd 21a9 a4bc 4097 9abb
00000150: 03d4 af3d e128 823d e339 993d fa33 6dbb
00000160: 8ae1 853d ab0e 893d 43c9 dfbc be93 5ebd
00000170: 2a10 78bc c936 0b3d 9d3b 2ebb f4fc c6bd
00000180: 562f 7c3c 9870 cabc 35ca 263d da17 643c
00000190: 5cc5 8cbd ed2b 9e3d 62a6 9f3d bfc0 833d
000001a0: dcd7 2e3d 972c 883c e71a ba3c c3bb b2bc
000001b0: 94d0 61bd 0ad7 c1bc 0c43 36bd fe0a 03bd
000001c0: 8b73 e1bc 3222 d03b fc98 98bd 242a 33bd
000001d0: 134f 9abd 1d29 8a3c da46 373d d035 633c
000001e0: c5b7 773c 1e6c 6b3d b444 9cbd b4aa 28bd
000001f0: ba1f 38bd 9174 ab3d 748b 9d3c d94d 9b3d
00000200: 52e7 203c b03d 37bd 3f7c 653c 4756 853d
00000210: 4f98 24bd 40df fdbc ceec 18bd 5998 a2bb
00000220: 0e8f 3e3c c33f a1bb 7498 8abd 36f0 b7bd
00000230: 4f92 afbd 1eca 3ebd 1f8e 3c3d 35f9 423d
00000240: 60ff 433d 79b2 a7bd 121b 73bc cced 853d
00000250: d727 3b3d 3379 80bd 85fc a33c cf64 273d
00000260: 2e02 193d 2272 07bc a369 e2bd 720c b8bc
00000270: 43c9 1bbc 46ab 58bd 7da5 92bd 01fa 9f3d
00000280: 5d01 3bbd 6d85 953d 255a ea3c a6f5 913d
00000290: 07cd d3bd 26d9 a4bb b39d 5fbc 205c 783d
000002a0: 6da5 923d 7012 eebd 3e2f edbc e418 7e3c
000002b0: d76d a63c 4248 5f3d 18a6 ca3c 36d4 01bd
000002c0: e03a 74bc f158 583c 3217 4bbd 634d 91bb
000002d0: 2cd3 c03c 4882 c73c bb19 34bd 4385 f53c
000002e0: b4d2 b43c 6504 c2bd 541e cb3c 5cc9 2abd
000002f0: 859b ab3d 7a22 20bd 34f5 06bc a7ee 19bd
00000300: 0029 ca39 2eb8 453d 1a01 57bd 3c1f f43c
00000310: 0400 5bbd a97a 8dbd 4ad7 83bd 5bd4 c43c
00000320: 4cae 6e3d f66e 54bd 28d9 873d 582b 283c
00000330: 8ac4 acbd 40a4 6e3c 9fad 71bd 1637 013d
00000340: 4635 adbd b002 a4bb 0f87 7b3d dc45 87bd
00000350: 73bb 30bb d7d3 16bd cfad 50bd 0684 7dbd
00000360: 8b3f b3bd 0bb6 423d 8ee1 68bd 0175 4e3d
00000370: caa6 2f3d 93e5 623d 10c0 5fbd 75e7 a7ba
00000380: 3b79 b3bd 3167 71bd e112 87bd 8ae8 00be
00000390: d297 7d3d 88ee 21bc bf8c a43c 1a28 adbc
000003a0: 3d4b 54bd d8b9 8e3c b4e8 2b3d 3f62 f6bd
000003b0: 0010 743b 9bfd 5dbd 011d 83bd 57d3 63bc
000003c0: e77f 37bd df72 5bbd 5390 abbd 2962 a939
000003d0: 536a dc3c 8858 94bd 2bcf 0abd a0ee 87bd
000003e0: 2019 8bbd adff ae3d 6079 da3b 7c69 093d
000003f0: 8fdd eb3c 88eb 07bc fd58 de3b 4883 d2bd
-0.0020124437 0.06280204 0.04594814 0.024759196 -0.021851255 -0.066910364 -0.0386329 0.027126798
0.04329501 0.020047193 -0.085239604 0.04933268 0.01101031 -0.046992227 0.030378954 -0.03086136
-0.03620682 -0.0216441 0.023529544 0.020081969 -0.09311134 -0.010487663 -0.084474415 0.028267248
-0.027612174 -0.011589049 0.021832546 0.065928265 0.078774855 0.024578644 0.06502194 0.018113106
0.057355694 -0.005318813 -0.018570343 -0.02480486 -0.04820694 -0.012886323 0.008304934 0.07790077
0.004309968 0.02874622 0.013649147 -0.08622786 -0.100553505 0.03722874 -0.04516141 -0.07593643
-0.026586495 0.04781628 0.050745897 0.064445436 0.068433054 0.08688631 -0.047661394 -0.07619437
-0.012764141 0.06824691 0.058137883 0.009453316 0.0139868185 0.0047805025 -0.07050566 -0.017826945
-0.049619768 -0.08633378 -0.053354505 -0.094582155 -0.03471142 -0.008444913 0.06487316 -0.07281366
0.030114697 -0.09298923 -0.0074345176 -0.033959128 0.011307716 0.064449035 0.047731005 -0.04343765
-0.0124351885 -0.069600575 -0.020100178 -0.0047177374 0.0858536 0.06355453 0.07481744 -0.003619431
0.06537159 0.06692251 -0.027317649 -0.054340117 -0.015140573 0.033987794 -0.0026585825 -0.09716216
0.015392145 -0.024711892 0.040720183 0.013921702 -0.06873581 0.07723222 0.07795407 0.06433248
0.04268633 0.016622825 0.022717906 -0.021818047 -0.055130556 -0.023662109 -0.044497535 -0.031992905
-0.027520915 0.0063517326 -0.074510545 -0.04374136 -0.075346135 0.016865307 0.044745304 0.01386781
0.015119498 0.057476155 -0.076302916 -0.04117842 -0.04495213 0.08371843 0.019231535 0.07583208
0.009820776 -0.044736564 0.014006673 0.06510597 -0.040184315 -0.030990243 -0.03733521 -0.004962009
0.011630787 -0.004920931 -0.067673594 -0.089813635 -0.08572828 -0.046579473 0.046033975 0.047600944
0.047850966 -0.08188338 -0.014837997 0.06539497 0.04569229 -0.06273117 0.020017872 0.040867623
0.037355594 -0.0082669575 -0.11055305 -0.022466872 -0.009508434 -0.052897714 -0.07160471 0.07811356
-0.045655597 0.073008396 0.028607437 0.07126932 -0.1034184 -0.005030769 -0.013648438 0.060634732
0.07160459 -0.116246104 -0.02895319 0.015508864 0.020316048 0.05451227 0.024737403 -0.03169652
-0.014906615 0.013204799 -0.049582668 -0.004434274 0.023538195 0.024354115 -0.04396985 0.02997077
0.022073127 -0.094734944 0.024794735 -0.041695938 0.08379272 -0.03909538 -0.008237172 -0.037581112
0.0003855899 0.04827135 -0.052491285 0.02980005 -0.05346681 -0.06908161 -0.064375475 0.02402704
0.05827169 -0.051863633 0.06633216 0.01026424 -0.08435924 0.014565527 -0.05900347 0.031546675
-0.08457427 -0.005005203 0.0614081 -0.066051215 -0.0026967197 -0.03682312 -0.050947007 -0.061893485
-0.08752354 0.04753689 -0.05685573 0.050404552 0.04288367 0.05539472 -0.054626524 -0.0012810068
-0.08763357 -0.0589363 -0.06595398 -0.12588707 0.061912365 -0.00988353 0.020086644 -0.021137286
-0.051829565 0.017422602 0.04196997 -0.12030458 0.0037240982 -0.054196935 -0.064020164 -0.013905368
-0.04479971 -0.053576346 -0.08377137 0.00032307327 0.026906168 -0.072434485 -0.033888977 -0.06637311
-0.067919016 0.0854486 0.006667301 0.033547863 0.02879217 -0.008295901 0.0067855106 -0.10278946

model.2.bias f4 [128]
00000000: 34b6 57bd b2a5 0fbd dcc5 0c3e cd0e 6a3c
00000010: 8382 593d 0da0 09bd b8b9 993c c03e 30bc
00000020: 645c ca3c dfae 21bd 9242 dbbd 498b f6bc
00000030: b404 973b 5836 903c ffbd 7abc 8fd4 043c
00000040: b37d b03d fffc 07be 339d 753c 96e6 35bb
00000050: 9d28 81bd bc45 0e3d 0b65 95bd 98d2 ff3d
00000060: fec6 c6bc 6a42 893c 4fbf 283e 90be 783c
00000070: 5f5a e2bc 1f64 18bc dd36 babd 8ae0 ac3d
00000080: 9e72 7b3c 8f15 2abd c170 c0bd b876 8b3c
00000090: 9571 0cbe ae90 f7bd 29d2 e63c 3338 02b9
000000a0: 262d f6bc c813 95bd af7f d1bd be75 e2bd
000000b0: 205b fbbb ae97 b1bc 8cea 333d a207 8dbd
000000c0: ccc3 65bd 7fa1 6e3c cb92 98bd 8a57 e93c
000000d0: 89b8 7e3d 85af 14bd ba85 9bbd a0ac aabd
000000e0: f396 ad3c 461f b5bd 9f94 efbd f61d 4a3d
000000f0: 7426 0f3e 691a eb3d 5421 713c 19da bebc
00000100: 741c e1bd 599a 8fbd 494a cfbd b0a8 4bbd
00000110: 4adb 3e3d 0187 f2bd 0ec8 eebd 2d15 e6bd
00000120: a18a a2bb 0395 f1bd 1f5e 0f3d 664e 64bd
00000130: 6dce 3f3d 1240 09be 88ce e3bd b76e debc
00000140: 3a89 a4bd f045 22bd 9d24 d43d b320 b1bd
00000150: 9fc5 57bd 9629 a0bd cde0 513c b599 81bd
00000160: 2dd6 cbbd 91eb 6cbd 0c77 abbd e9d8 95bd
00000170: 6d44 58bd 5266 873d e8b6 50bd 001b dbbd
00000180: 858a 1b39 c308 17be d1fb 063e 4cdc 14bd
00000190: 71d3 eeba c392 8b3d 225a e3bd a9c9 d0bd
000001a0: 358b 1dbc 5eb0 563c ea48 8bbd 2b89 bcbd
000001b0: 18df f5bd 25ad 523d ee85 11be c5c0 f139
000001c0: b20a 523b c4c3 9e3d df8e 813d d759 95bc
000001d0: 38bf 12be 3c0d 843d 8866 8fbd b5fa df3c
000001e0: 5beb 6ebc 97cf 053d c75a 573d 7ab6 f1bc
000001f0: f80f b2bd 0bdf 0bbe 4251 d03c 8ec0 6bbd
-0.052663997 -0.03507013 0.13747352 0.014285755 0.05310298 -0.033599902 0.018765315 -0.010757148
0.024702258 -0.03947341 -0.10706057 -0.030095713 0.004608715 0.017604038 -0.015304088 0.008107319
0.08617725 -0.13280104 0.0149910925 -0.0027755848 -0.063065745 0.034734473 -0.07294663 0.124913394
-0.024264809 0.016755302 0.16479228 0.015182152 -0.027630983 -0.0093012145 -0.090924956 0.08441265
0.015347151 -0.041524466 -0.09396506 0.017024383 -0.13715203 -0.12088142 0.028176384 -0.00012418702
-0.030050825 -0.072791636 -0.10229432 -0.11057614 -0.007670775 -0.021678772 0.043924853 -0.068862215
-0.05609493 0.014564871 -0.074498735 0.028484125 0.062187705 -0.0363002 -0.07593866 -0.08333707
0.021190142 -0.088438556 -0.11698269 0.04934498 0.13979512 0.11479647 0.014717419 -0.023297356
-0.10991755 -0.07011861 -0.10121591 -0.04972142 0.04659585 -0.11842156 -0.11659251 -0.11234508
-0.0049603735 -0.11796 0.03500187 -0.05573883 0.046827722 -0.13403347 -0.11123377 -0.027152402
-0.080339864 -0.03961748 0.10358546 -0.08648815 -0.0526787 -0.07820432 0.012809944 -0.063281454
-0.0995296 -0.05784184 -0.08372316 -0.07316763 -0.05279963 0.06611313 -0.050955683 -0.10698509
0.00014833554 -0.14749436 0.13181998 -0.036342904 -0.0018220973 0.06815102 -0.11101176 -0.101947136
-0.009615709 0.013103573 -0.06801017 -0.0920585 -0.120054424 0.051434655 -0.14211246 0.00046110727
0.0032049832 0.07752183 0.063260786 -0.018231316 -0.14330757 0.06447837 -0.07001978 0.027341226
-0.01458248 0.032668676 0.052576806 -0.029505957 -0.08694452 -0.13659303 0.025429372 -0.05755668

model.4.weight f4 [64, 128]
00000000: 96b9 aabd 98ac 863d ef0e 89bd cc50 84bd
00000010: f5ba a83d fbd1 9dbd 6e8f 97bd 433b 2b3c
00000020: 49f7 8d3d cd5d 873d 5650 2f3d 7c62 b23c
00000030: 21ce 873d 3eb9 1b3c 36d1 cbbd fa74 d7bc
00000040: 87c4 43bd b098 223c 8bec 88bd 93cf bbbc
00000050: 901c ee3b 20a6 36bb 4ab0 18bd 4059 78bb
00000060: 79ec a5bd 588c 06bd 8f6d 93bd 7d5d 563d
00000070: 9cd6 a83c 6307 a93d 3c9e a13c d8e0 e33c
00000080: 3824 2ebc 7f09 a4bd 13a7 19bd bb47 b8bc
00000090: c677 783d f00d 36bd 8009 cf3c 3a41 2b3d
000000a0: b4a1 fe3c 0220 413d 02ed 29bc 84bd 63bd
000000b0: a08e 793c c54f 2dbc 0290 553d e01f b0bc
000000c0: 0478 21bc bfc5 05be 02fc 493d de24 84bd
000000d0: 862a a1bc 2071 863b a87a acbd 0c61 153d
000000e0: 236e 993c 388d 5dbc 38b3 a83b b7f4 78bd
000000f0: 7c41 d0bd 80f8 89bc 7dcf 31bd 1d9e 90bd
00000100: 0066 423c d72f d4bc 589c d1bc 312d a13d
00000110: c075 fbbb 9db5 b43d a624 373d eb5c 94bd
00000120: 8175 903d affc 96bd 4321 0fba c2f5 853a
00000130: 2bb1 b1bd 1867 05bc a893 58bd 8882 89bd
00000140: 06c4 4d3c 3061 dabc 506d 8fbd 0c1c d43c
00000150: 808d 32ba 184a 3fbc 20f8 b1bd 3dc6 5abd
00000160: 65cb 60bc 380e 8fbd 6eb8 fbbc 312c 8e3d
00000170: 287c 48bc 58e3 f7bc c6a5 2abd 3462 e2bc
00000180: 89e5 033c ae30 9cbd 219b 60bc 9840 a23c
00000190: da27 3a3d 9a29 f3bc 6063 313c 4a59 9ebd
000001a0: 4afb 93bd 4b20 44bd 5e5c 703d c0a3 44bc
000001b0: 319a b73d 8aa5 8cbd 6cec d6bc 4037 263b
000001c0: f8df 543c 5058 803d f1fc 3cbd ff3e a9bd
000001d0: 708b f33b 15bd 14bd 9c80 9abd 1acd bc3b
000001e0: acd8 bb3c 118b 76bd e023 64bb 5424 20bd
000001f0: 3617 7fbd 208b cd3c 2253 303d 78ab 143d
00000200: 330c 833d 8845 14bc 2ead ac3d abdd a1bd
00000210: dfab 1b3d cf28 b4bd 4714 c03c 3380 85bd
00000220: bce6 b43c 2ed1 733d 78e9 ed3c eb5b 80bd
00000230: b0ce 08bd a69d 93bd 64ab fb3c 6598 053d
00000240: 2d60 383d f375 b23c 9280 99bd c673 8e3d
00000250: 071c b1bd 6eac bbbc 0ae8 06bd 5068 943d
00000260: 6b0e 8c3d 3cb3 873d 5ae3 633b 6fea d8bd
00000270: 5b0f dbbc 8d6a b43a fb82 a43d 2578 ccba
00000280: 3799 b53d d9de cebd bed8 d8bd f99d d7bc
00000290: 30e3 a6bc 9913 6d3d 3019 97bb c6fe 063d
000002a0: 6af6 aabc 820c 09bd d97b 9e3d 3bf8 85bd
000002b0: 34fd cd3d b733 a3bd 918c 4f3d 1384 4dbd
000002c0: 6e9d 9cbd 4dcc 91bc c0ac e53a 8d22 29bd
000002d0: e6a7 5cbd b04b 143d c8c2 353d 5630 2d3d
000002e0: 1d5c 48bd b4b8 013e 11d5 61bd 94dc 783c
000002f0: a0b5 d93c 0d8a 8cbd 3532 52bd 0ba0 a2bd
00000300: f7b8 28bd 56f8 533d 85f4 d53d 7b05 a53c
00000310: 130d 4a3a ccbf 12bd 1e73 123c d67e cbbc
00000320: b801 8f3c 4fd1 1b3d bb3a e2bd 90c4 cd3c
00000330: 859e cdbc 0e83 88bd cacb 03bd 2d81 97bc
00000340: 9cce d1bd b61d 293d 5ff1 0fbd 5ecc edbc
00000350: 8091 53bb c0b5 ca3b d69c 403d 92cc 5b3d
00000360: 37a1 c1bd a09c a6bc 302b 9d3b 7221 50bd
00000370: fac4 a43d 07f4 aebd e7ba 48bd fbcb 7c3d
00000380: f35d 27bb 3bfb afbd 46e3 6abd 6f21 7ebd
00000390: e839 563c fcc7 1c3d b9ed 5f3b 93f9 3a3d
000003a0: cf3f 843d 5812 9ebc ca44 623d 625a 2f3d
000003b0: 7492 8a3d c468 643d d0c4 fdbc 010f 7d3d
000003c0: 7aea 513d e70e 7b3d 1ba3 773d 7d39 ae3c
000003d0: 719a 013d a0ee 953c 40bd 863c c0c2 4fbd
000003e0: d3d4 fa39 db62 53bb d178 15bd bc89 6ebd
000003f0: d3ac a2bd 6871 6abc b166 383d 6010 c5bd
-0.08336179 0.065758884 -0.066923015 -0.06460723 0.08238784 -0.07706066 -0.07400404 0.010451141
0.069319315 0.06609688 0.042801224 0.021775477 0.06631113 0.009504614 -0.09952013 -0.026300896
-0.047794845 0.009924099 -0.06685742 -0.022926128 0.0072665885 -0.0027870014 -0.037277497 -0.0037894994
-0.08101744 -0.032848686 -0.07198631 0.05233525 0.020610146 0.08253362 0.019728772 0.027817175
-0.010628752 -0.08009624 -0.03751285 -0.022495141 0.0606611 -0.044446886 0.025273085 0.04181025
0.031082965 0.047149666 -0.0103714485 -0.055600658 0.015231758 -0.010578101 0.05213929 -0.021499574
-0.009855274 -0.13063715 0.0493126 -0.06452344 -0.019673597 0.004102841 -0.08421832 0.036469504
0.018729275 -0.013522439 0.0051483177 -0.060780253 -0.1016874 -0.016842127 -0.043410767 -0.07061408
0.011865139 -0.025901718 -0.025587246 0.07869948 -0.007673949 0.088237025 0.044712685 -0.07244285
0.07053662 -0.07372414 -0.00054599735 0.0010220336 -0.0867637 -0.008142255 -0.05287519 -0.0671435
0.012558943 -0.02665767 -0.070032716 0.02589228 -0.0006811246 -0.01167538 -0.08689904 -0.05341171
-0.013720368 -0.06985134 -0.030727591 0.069420226 -0.012236632 -0.030259773 -0.041662 -0.027634718
0.008050331 -0.076264724 -0.013708861 0.019806191 0.04544816 -0.029682923 0.0108269155 -0.07731874
-0.07225664 -0.04788236 0.05868184 -0.012001932 0.089649566 -0.068675116 -0.026235782 0.0025362521
0.012992851 0.06266844 -0.04613966 -0.08263969 0.0074323937 -0.036313135 -0.075440615 0.0057617547
0.022930466 -0.060191218 -0.0034811422 -0.039097145 -0.062277995 0.025090754 0.04304803 0.036296338
0.06398811 -0.009049781 0.08431469 -0.07903608 0.038005706 -0.08796846 0.023447169 -0.06518593
0.022082679 0.05952566 0.02904199 -0.06267532 -0.033400238 -0.072078034 0.030721374 0.032616038
0.045013595 0.021784758 -0.07495226 0.06955676 -0.08647924 -0.02290937 -0.032936133 0.072464585
0.068386875 0.06625983 0.0034772963 -0.1059159 -0.02674072 0.0013764665 0.08032795 -0.0015599771
0.08867114 -0.101010986 -0.10588215 -0.026320444 -0.020372003 0.057880018 -0.004611157 0.032957815
-0.020869453 -0.033459194 0.07738466 -0.06541487 0.1005806 -0.07968848 0.050671164 -0.050174784
-0.07647215 -0.017797614 0.0017522797 -0.041292716 -0.053871058 0.036204994 0.04437521 0.042282425
-0.04891597 0.12668115 -0.055134837 0.015189309 0.026575863 -0.068622686 -0.051317412 -0.07940682
-0.04119202 0.051750503 0.10447029 0.020144215 0.00077076367 -0.035827443 0.008938579 -0.024840754
0.017456874 0.03804141 -0.11046358 0.025118142 -0.025100002 -0.06665622 -0.03217677 -0.018494213
-0.10244486 0.0412881 -0.0351423 -0.029028114 -0.003228277 0.006186217 0.04702457 0.05366189
-0.094545774 -0.020338356 0.004796408 -0.050813146 0.08045383 -0.08542638 -0.04900637 0.06171797
-0.0025538176 -0.0859284 -0.05734565 -0.062043604 0.013075329 0.038276657 0.0034168793 0.04564817
0.06457483 -0.019295856 0.055241384 0.042810805 0.06766215 0.055763975 -0.030977637 0.061781887
0.051249005 0.06129351 0.060458284 0.021267647 0.031641427 0.018302262 0.016447663 -0.050722837
0.00047842282 -0.0032254967 -0.036492173 -0.058236822 -0.0794312 -0.014309265 0.04501981 -0.09622264

model.4.bias f4 [64]
00000000: b354 eebd 4ffd 4abc c8c9 3cbc 37e2 103c
00000010: 4515 a3bd 7346 4a3d d10e 503c 87b7 0d3e
00000020: c737 bbbd b7b5 06be 18ce 7f3d a201 f1bd
00000030: 213a f0bd 3629 a53d 0f9e 14be 083c d3bc
00000040: f67c 863d 7c88 d93c ad4d 37bd c536 c7bd
00000050: 18e7 d5bd c433 8dbd 8809 17be 4ad5 733c
00000060: 90c1 c2bc 1b58 b8bd 41f2 9a3c 08af fbbd
00000070: 9257 d5bb ec01 7c3d 3c57 11bd 30f2 d6bd
00000080: d319 70bd d456 623d b84c 103b dc66 6dbd
00000090: 954b 5ebd 58a8 85bc 03f9 34bd c9de 8fbd
000000a0: b1ae e7bc ca72 fabc 64c9 313d 727a d33b
000000b0: c059 a9bd e00f 62bc 72b7 df3d 84b4 7fbd
000000c0: 6beb ba3d beb5 90bd 5b9c 06bd d1ef 133d
000000d0: 1fd3 a33d caa7 b1bd 4841 a2bd 76ab ffbd
000000e0: 68ea 11bd 40dd 1abd f8f3 de3b 4f7e 54bd
000000f0: 709a cfbb b07e e23c 3e39 13be 3369 073e
-0.11637249 -0.012389495 -0.011522718 0.008842996 -0.07963041 0.04938359 0.012698845 0.13839541
-0.09141498 -0.13155256 0.062452406 -0.117678896 -0.11729837 0.08064501 -0.1451342 -0.025785461
0.06566803 0.026554339 -0.04475181 -0.09727243 -0.10444468 -0.06894639 -0.1474973 0.014882395
-0.023773938 -0.0900118 0.018914344 -0.12289244 -0.0065106833 0.06152527 -0.035483584 -0.10495412
-0.058618378 0.055258587 0.0022018384 -0.057959422 -0.0542713 -0.016315624 -0.04418279 -0.07024915
-0.028281542 -0.030572314 0.04340495 0.0064538056 -0.082690716 -0.01379773 0.10923661 -0.062428012
0.09126934 -0.070659146 -0.032863956 0.03611738 0.079992525 -0.08674581 -0.07922608 -0.124838755
-0.035623938 -0.037808657 0.0068039857 -0.05187827 -0.006335549 0.0276483 -0.14377305 0.13223724

model.6.weight f4 [32, 64]
00000000: b8b4 d7bd f171 e2bd 18db e13d d312 8bbd
00000010: 6051 e6bd f825 76bd 3463 533d 4dfa cd3d
00000020: 7262 4cbe e6b6 bfbd b99c adbb 60d4 64bc
00000030: 6a33 a33d 6389 4bbe 30b9 db3d d909 90bd
00000040: 3edc 923d 4b38 87bd 68c5 0fbe c2b4 513d
00000050: 48b3 663d 2210 a03d e5ad 8bbd 60f5 76bc
00000060: 6830 d23c 8590 443d 7424 30bd 7fc9 5fbd
00000070: fc59 08bd 8fee bfbc 696a f8bd 2629 b2bd
00000080: 60ac cd3b 68b5 6bbd 0dec fcbd 35ac 983d
00000090: 780d eebc c873 0cbd df13 6dbd aaca a4bd
000000a0: 77af a53c c0ae e93c d460 70bd 12e5 84bd
000000b0: 464f 8e3d bf08 7dbd 08fa 123d 5637 1c3d
000000c0: b505 e1bd 508a 8f3d 5acc d7bd f001 da3c
000000d0: 09de 0c3d 6a6a 0b3e 9a82 b1bd a219 a4bd
000000e0: 65c9 01bd 80c4 173b 92d3 8c3d e32b 523d
000000f0: a6ff 95bd 3cae 923d af5d f6bd ba50 acbd
00000100: 1899 e53d aaa2 fa3d 9950 59bd 3550 b43b
00000110: 810e bb3d 9583 873d 9d10 b43d 3d83 a2bd
00000120: 3ab5 143d f4b1 aebd eacd f83d 23b1 05bc
00000130: 7de5 30bd 50e8 54bd d40a 0ebd 24f9 0fbe
00000140: 7232 04be 8536 063d ce5e 3a3d 9961 fc3d
00000150: ccd3 41bd e251 9ebd bb78 bc3c 9a4d 1abc
00000160: 0ec3 803d fafd bdbd 28f0 733b bf44 98bd
00000170: 5069 803d e6f1 db3d 4720 fe3a 3c93 8cbc
00000180: 9976 cabd 713e 1bbe b22c 5a3d 4840 4b3d
00000190: 4ec9 9bbd 8aa4 1dbc 432e cdbd 0a3d 7d3d
000001a0: 3a21 a63d c178 db3c 74d0 ec3c d2ff f43d
000001b0: d0a0 d9bd c101 fbbd 8ef3 e5bd 9207 d8bd
000001c0: fd2a 61ba a068 a4bd e7c3 0bbe 4377 4d3c
000001d0: 7bfc d13d 6f27 a93d 0494 ad3d 81fa 5fbd
000001e0: c3c4 a6bd 3b93 e1bd 4d91 b33c 758c 433d
000001f0: 2028 dc3d b2b3 dc3d 0572 a9bd 5d15 01be
00000200: 30cf 9cbd c61a 9d3d d3af 6c3c 6db4 fabd
00000210: a023 47bd 7648 903d c4a0 973d a072 d33b
00000220: e9c4 15be 485c 653d 8433 a43d f010 703d
00000230: b882 30bd eeb6 14be f88c f63d 2fdd 843d
00000240: 4a95 cbbd 2d56 aabd aaac 0ebe c06b e8bd
00000250: 54f3 34bd 229d 86bd d345 71bc 486f 74bd
00000260: 40c9 2bbc b246 a1bd 0073 123a 402a a63c
00000270: 229d 943d 1591 433d 69e1 8abd f0e5 74bc
00000280: 28df b4bd 6a4e c9bd fd8e a2bd f4ab de3d
00000290: 8849 f43d 6651 fbbd 2602 dfbd 0802 9e3c
000002a0: 7313 7fbd 98fc d0bc 907b 0c3c 1ca5 9fbd
000002b0: e859 bdbd 3547 28bd f4f8 a53d 77dd ccbd
000002c0: 3a0f dbbc 7871 5fbd c03f f13c 208b fd3b
000002d0: 5b54 1fbe fe56 883d 7231 ac3d f0e6 403c
000002e0: 0055 363c 6474 0f3d 2458 393d a768 c7bd
000002f0: c8c8 c13d 1437 233d f498 42bd 0046 db39
00000300: f01f f23d 1f8d 013e a2b1 943d 5b78 05be
00000310: cc63 093d 1086 d03c 642f 43bd 1ad6 05be
00000320: 52f0 0fbe c8c9 f23c cc41 dabc c1e2 bc3d
00000330: bca3 80bd b5a7 5cbd d11a 00be a81d 13be
00000340: 8040 18be 1672 f4bd 37e8 493d 7e71 a93c
00000350: 5c2b 813d 288f ca3c 7aae d23c 8bfe ca3d
00000360: da98 bf3c 645f adbc 5ec6 8bbd e321 14bd
00000370: 24a7 ee3d 8853 923d a303 173c c4ea 98bb
00000380: 9ea6 abbd 63b7 b33d 8fbe 09be 3e22 86bd
00000390: 9ea9 ec3d a8db bf3d 0784 373d 8385 00bc
000003a0: a40f 843d 3df0 023e e78e e23c ef7d 963c
000003b0: 80bc d23d ca6a 20bd 6394 a4bd 0270 bbbc
000003c0: a81f a9bd a810 2d3d 1470 9ebd 413a 2ebb
000003d0: 0bde 32be c198 aebd d6dc 1fbe 56ab 403d
000003e0: 3307 afbd 4ec8 933d 600c 3e3c 390a b93d
000003f0: a884 24bd 79ee e13d 47ef 10bd 6a54 26bd
-0.10532516 -0.11056889 0.11028117 -0.067907 -0.1124599 -0.060094804 0.05160828 0.10057507
-0.19959429 -0.09361057 -0.005298224 -0.01396665 0.07968791 -0.19876628 0.10728681 -0.07033128
0.07170914 -0.06602534 -0.14040148 0.051197775 0.05632332 0.07815577 -0.06820277 -0.01507315
0.025657848 0.047989387 -0.043003514 -0.05463552 -0.03328894 -0.023429183 -0.12129671 -0.08699255
0.006276652 -0.05754605 -0.123497106 0.07454721 -0.029059157 -0.034290105 -0.05788028 -0.080464676
0.02022527 0.02852571 -0.058686092 -0.06489004 0.06948714 -0.06177592 0.03588298 0.03813871
-0.10987417 0.07008803 -0.10537024 0.026612252 0.034391437 0.13614812 -0.086674884 -0.080127016
-0.031686205 0.0023157895 0.06876291 0.051311385 -0.07324152 0.07162139 -0.120295875 -0.08413835
0.11210841 0.12238057 -0.05305538 0.0055027255 0.09133626 0.06616894 0.08792231 -0.07935188
0.036305644 -0.085300356 0.1214865 -0.0081599085 -0.043187607 -0.051979363 -0.034678295 -0.14059883
-0.12909868 0.032766838 0.04550057 0.12323303 -0.047321126 -0.07730462 0.023006788 -0.009417916
0.06287204 -0.09276958 0.0037222002 -0.07434987 0.06270087 0.10739498 0.0019388282 -0.01716005
-0.09885902 -0.15160538 0.05326528 0.04962185 -0.07606755 -0.009621749 -0.10018589 0.06182579
0.08111806 0.026790978 0.028907992 0.11962856 -0.10626376 -0.12256194 -0.11228095 -0.10548319
-0.00085894746 -0.08027768 -0.1364895 0.012540641 0.10253235 0.082594745 0.08475497 -0.05468226
-0.08142998 -0.1101441 0.02191987 0.047741372 0.10749841 0.10776462 -0.082737006 -0.12605806
-0.076567054 0.07671122 0.014446217 -0.12241445 -0.04861796 0.07045071 0.074037105 0.0064528733
-0.14625897 0.05599621 0.08017638 0.058609903 -0.043093413 -0.14522907 0.120386064 0.064875
-0.09940584 -0.08317218 -0.13933054 -0.11348677 -0.04417737 -0.065729395 -0.01472612 -0.05967644
-0.010484993 -0.07874812 0.00055865943 0.020283818 0.07256533 0.047745783 -0.06781275 -0.0149473995
-0.08831626 -0.098294094 -0.07937429 0.10872641 0.119280875 -0.12271385 -0.10889082 0.019288078
-0.062274408 -0.025511071 0.0085743815 -0.07795164 -0.09245664 -0.041083533 0.08104125 -0.100031786
-0.026740659 -0.05455157 0.029449344 0.0077375323 -0.15559523 0.066572174 0.084078684 0.01177381
0.011128664 0.035023108 0.045250073 -0.09736758 0.09462124 0.03984745 -0.04750915 0.0004182309
0.11822498 0.1265149 0.07260443 -0.13034193 0.03354244 0.025454551 -0.047652617 -0.13069955
-0.14056519 0.029637232 -0.026642703 0.092229374 -0.0628123 -0.053870875 -0.1251023 -0.14366782
-0.14868355 -0.11935823 0.049293723 0.020684 0.06307098 0.024726465 0.025717963 0.099118315
0.023388315 -0.02116365 -0.06824945 -0.03616513 0.11652973 0.071448386 0.009217176 -0.004666658
-0.08381389 0.087752126 -0.13451599 -0.065495 0.115557894 0.09368068 0.044803645 -0.007844332
0.06448296 0.12786956 0.027656032 0.018370597 0.1028986 -0.039164342 -0.08036115 -0.022880558
-0.08257991 0.042252213 -0.07736221 -0.0026585015 -0.17467515 -0.08525229 -0.15611586 0.0470384
-0.08546295 0.072159395 0.01159963 0.09035153 -0.040165573 0.11031813 -0.035384443 -0.040607847

model.6.bias f4 [32]
00000000: c0bc 84bc 7bdb 0ebe 0b5e ccbd 241b cb3c
00000010: 0137 b4bc 0920 43be 474a f6bc a114 1cbe
00000020: cfeb f6bd 86c5 2fbe ccc1 a0bd 2b6a 47be
00000030: c23e 1b3e 64aa 68be bd51 0d3e 2a61 15be
00000040: 8d7c 873d 929a 50be 3c26 ef3c 1735 a6bb
00000050: 82a5 d4bc 06d9 b23d e773 dbbc 5695 f63c
00000060: afd8 2cbe b655 a6bd 563f ffbd a79c 5ebd
00000070: 776c 8dbd c4dd 6f3d 2d06 78be d04e abbd
-0.016203284 -0.13950913 -0.09978875 0.024793215 -0.021998884 -0.19055189 -0.030064715 -0.15242244
-0.12056696 -0.17165193 -0.07849464 -0.19474094 0.15160659 -0.22721249 0.13800712 -0.14587846
0.06615553 -0.20371464 0.029193036 -0.005072247 -0.025957827 0.087328 -0.026788665 0.030100506
-0.16879533 -0.08121817 -0.12463252 -0.054348614 -0.06905454 0.0585611 -0.24221106 -0.08364642

model.8.weight f4 [1, 32]
00000000: cf2f 1bbd fc25 e9bc 918c b2bc ba9b ef3c
00000010: 21f1 1a3d 8933 abba e414 43bb 63fe b8bc
00000020: 8336 aebd 55d7 a2ba 7acd dabd a2ec 1b3e
00000030: 3acf ce3d 2231 443c 2d80 ddbd 7339 123e
00000040: d438 d23d 0eb2 50bb 3c5d d33d 884b 98bd
00000050: 5e86 c03d c1be 953d 4346 89bc 5a34 b93d
00000060: ddf9 b03c fc51 babd 93a5 543d 545f 3b3d
00000070: e2cb 9b3c 5710 973d fa83 8b3a 282f 5b3c
-0.03788739 -0.028460495 -0.021795543 0.02924906 0.037827615 -0.0013061623 -0.002976709 -0.022582239
-0.08506491 -0.0012423793 -0.10683723 0.15226987 0.10098119 0.011974605 -0.10815463 0.14279728
0.10264745 -0.003184441 0.103205174 -0.074362814 0.094006285 0.07311774 -0.016757136 0.090431884
0.02160352 -0.090976685 0.051915716 0.04574521 0.019018117 0.073761635 0.001064419 0.013377942
