classification/models/pose_classifier_deep_small.pth (torch, 130085 bytes, 9 tensors)

model.0.weight f4 [128, 34]
00000000: c6da a13d a701 1e3e 9530 3c3d 7ab2 223e
00000010: 300b b0bd fdae 043e 1859 10be d457 0dbd
00000020: 9305 50bc 9dba 03be 611f c03c 35f3 26be
00000030: 6cc6 663d 0a3e 1e3c 627a 24be fccc 8d3d
00000040: 1a1f 1bbe a8a4 de3d 7db0 03bd f226 ff3d
00000050: 3c0d 2a3c 6d9b 113e 2ff4 20be 8e78 e83d
00000060: e5e4 f43d a912 3b3d cd24 c83d 63ab 1ebc
00000070: 8f83 67bd 2fca de3d a2ec 27be 135b 85bd
00000080: 5815 b53c ed29 20be a42d fabd cfca 1dbe
00000090: 8a92 a23d ef35 a039 2804 7dbc 6073 09be
000000a0: ec6b 23be 2174 313d bd7b 1c3d 0700 b03d
000000b0: 187a fc3c 436c 583b 3541 e93d 0feb f1bd
000000c0: 6325 0dbe e450 833c 4952 dabc c176 063e
000000d0: 4fa4 3fbc a6f0 233e 890b 3dbe 5efc c6bc
000000e0: 29db e03d d77a 0ebe c7e6 cd3d ed16 1ebe
000000f0: b395 aabd 83ac 823d cdd8 40bd 4f6f 2c3e
00000100: c3d0 e63b 98f4 923d 4f6b dcbb 2989 32bc
00000110: 7990 02bd 2131 dc3d f4b0 a93c 1d33 43bb
00000120: a875 23bd 3900 1abe e67c 1bbd fcab a2bd
00000130: a881 d33d 86cf 103d ded0 1bbe ea72 743d
00000140: ac60 cfbc c56e 39be f09f 123d 48df 74bd
00000150: 39a0 24bc 9aea 0a3e bdb6 8abd 6d4b 023b
00000160: cf61 f3bd 99a2 93bd 30f5 35be 0a03 e63d
00000170: c798 7f3d 542c 0ebe c654 d03d e9a4 b13d
00000180: 2724 80bb 1a5a a63d b55c 1cbe caa4 7fbc
00000190: 7d10 59bc f567 153e 2936 e03d ff1f d33d
000001a0: ac77 27be 5aba 97bd 322d 373c 453f f7bd
000001b0: 42a7 98bc e29b fd39 0f97 45be 62e8 8d3d
000001c0: 5a33 06bc a49d d83d 8773 3fbd c99a 133e
000001d0: dc78 9e3c 620c 1dbe 5e09 a53d 19fa 9e3c
000001e0: be2f 5b3d 1386 bfbd 6ec4 22bd a073 813d
000001f0: 9a26 9cbd 48d0 133e c3dc c93c e2a8 d53d
00000200: 3350 cd3d cc38 2bbd f0d6 b03d 2d48 18be
00000210: 7dcf 0fbd f139 9dbc c828 813d 6372 f33b
00000220: 7243 083e 2654 9bbd ebec b13c 0b66 97bd
00000230: 998c 8fbd 8e92 d23d 1263 823d ce8e 263e
00000240: 076d b3bd 85a5 c03c 8084 86bb c5e5 68bd
00000250: 6a87 d73c 8559 383d 6bcc 55bd 4def 083c
00000260: c1bf 913b e0e8 1abe 3900 f53d 3bc7 ff3d
00000270: 9600 e9bd 72d6 973d 902d b2bd deaf f23d
00000280: b1ff 153e 065c f73d d68b 093d 747d 90bd
00000290: e0ba 653b ba74 a7bd 5162 ccbd 2baa 4dbd
000002a0: 1278 46be 2a01 9abd 5dc3 613d 34e2 5f3d
000002b0: d0b9 333d b25e 17be c2b0 2fbe d468 b3bc
000002c0: a369 bc3d ae18 88bd a45f 11be 0a7c 4ebe
000002d0: fd60 f03d 9fdc b5bd 393c 5c3d cdb1 1fbe
000002e0: a026 e83d 9319 26ba b606 bf3d 1dce 10bd
000002f0: 608d b2bd 3209 843d 1969 3abe 8d9b ed3d
00000300: 1825 2dbe 2a8f 9a3b 4b64 ca3d 5cc0 8dbd
00000310: e027 b63d 6d4a 023e e3ff a1bc 867e cb3d
00000320: 355f 573d e9c1 d43d 563e 67ba 420e 263e
00000330: 2ad0 e7bb 6c36 e4bd ba76 12bc 28f7 51bc
00000340: 8a9e 0c3e c1d7 9abd 4eda fa3d d051 0abe
00000350: f3e9 b13d 101c 263e 4acb 0b3e baa6 cb3d
00000360: 56e2 a73d 9962 6dbd b2b7 03bc 2bbb a53d
00000370: 9b4c 9e3d 1fcd a3bd c357 b73d 0e0a 2fbe
00000380: 3e15 d13b 1069 3abe 8c97 02be 1523 e2bc
00000390: bc4f 8bbd 0a15 ebbd d353 87bc d537 94bd
000003a0: 04ec f63d f3d4 39be fdde 4fbb 562e bebd
000003b0: 03ff ea3d ffdc b23d c849 903d 3aed 8a3d
000003c0: cdfc 0c3e 21fb 143e 43ca 283e 5813 ffbc
000003d0: 7e79 edbd 4818 e13c f9bf 253e 76be 58bd
000003e0: 80ad 68bb b539 1fbe 684f 303d 200c 7bbd
000003f0: b980 1d3e bc7c 5dbd dc64 e3bd dc08 0ebe
0.07903056 0.15430318 0.04594477 0.15888396 -0.08595884 0.12957378 -0.14096487 -0.034507588
-0.0126966415 -0.12864156 0.023452463 -0.16303714 0.056341574 0.009658346 -0.1606231 0.06923863
-0.15148583 0.108712494 -0.032150734 0.124586 0.010379132 0.14219446 -0.15718149 0.11351119
0.11957721 0.045672093 0.09772644 -0.009684416 -0.05652195 0.10878407 -0.16398862 -0.06511512
0.022104904 -0.15640993 -0.122157365 -0.15409397 0.07938106 0.00030557762 -0.015442885 -0.13422918
-0.15959138 0.04332364 0.038203944 0.08593755 0.030819938 0.0033023513 0.113893904 -0.11812412
-0.13783793 0.016029783 -0.026650565 0.13131239 -0.011696889 0.16009769 -0.18461432 -0.02429026
0.109793015 -0.13914047 0.10053783 -0.15438433 -0.08329334 0.0638056 -0.047081757 0.16839336
0.0070439293 0.07175559 -0.0067266594 -0.010896959 -0.03187606 0.10751558 0.02071426 -0.0029785105
-0.039907128 -0.15039147 -0.03796091 -0.0794296 0.10327464 0.03535416 -0.15216395 0.059679903
-0.025314651 -0.18108661 0.03579706 -0.05978325 -0.010047966 0.13566056 -0.06773136 0.0019881383
-0.1188389 -0.072087474 -0.17769313 0.112310484 0.06240156 -0.13884097 0.10172419 0.08674032
-0.0039105597 0.08122654 -0.1526974 -0.015603254 -0.01324856 0.14590438 0.1094783 0.10308837
-0.16354245 -0.074085906 0.011180209 -0.120726146 -0.018634442 0.00048372062 -0.19295906 0.06929089
-0.008190954 0.105769426 -0.046741035 0.14414515 0.01934474 -0.15336755 0.08058427 0.019406365
0.053512327 -0.093517445 -0.03973811 0.06320882 -0.0762455 0.14434922 0.0246414 0.104326025
0.100250624 -0.041802213 0.08634746 -0.14871283 -0.035109986 -0.019192668 0.063066065 0.0074294074
0.13306978 -0.075844094 0.021719417 -0.0739251 -0.07009239 0.10281859 0.063665524 0.16265413
-0.0876103 0.023516426 -0.0041051507 -0.05685975 0.026309688 0.045007247 -0.0521969 0.008357835
0.0044479077 -0.15127897 0.11962933 0.12489172 -0.11377065 0.07413949 -0.087000966 0.1184995
0.1464832 0.12078099 0.033580624 -0.07055178 0.0035054013 -0.08176561 -0.0997969 -0.050211113
-0.1938174 -0.07519753 0.055117954 0.054659083 0.043878376 -0.14782217 -0.17157272 -0.021900572
0.09199836 -0.06645332 -0.1419664 -0.20164505 0.11737249 -0.08879971 0.05376837 -0.1559517
0.11335492 -0.00063362083 0.09327452 -0.035352815 -0.087183714 0.06447066 -0.18204154 0.116019346
-0.16908681 0.0047167735 0.098824106 -0.06921455 0.08894324 0.12723704 -0.019775337 0.09936242
0.05258103 0.10388548 -0.00088212395 0.16216376 -0.0070743756 -0.11143193 -0.008939439 -0.012815274
0.13732353 -0.07560683 0.122486696 -0.13507771 0.086872004 0.16221642 0.13651767 0.0994391
0.08197467 -0.05795536 -0.008039402 0.0809234 0.07729455 -0.07998108 0.08952286 -0.1709368
0.006380706 -0.1820414 -0.12753123 -0.027604619 -0.068023175 -0.11478622 -0.016519463 -0.072372116
0.12056735 -0.1814764 -0.0031718605 -0.09286182 0.11474421 0.08733558 0.07045323 0.067835286
0.13768311 0.14548923 0.16483407 -0.031137154 -0.115954384 0.027477399 0.16186513 -0.052916013
-0.0035503805 -0.15549357 0.043044478 -0.06129086 0.15381135 -0.054074034 -0.11103222 -0.13870567

model.0.bias f4 [128]
00000000: b63d b6bd 8ffc f2bd 5ffc 3ebe 533d 2cbe
00000010: 129b 203d 056a 8ebe fe76 f13d cca0 0fbd
00000020: eb77 32be 2169 92bd 00c4 593b 9ba4 fdbd
00000030: e4b8 4cbe 9bf5 c0bd 6872 4d3d 394d 2e3e
00000040: 55b0 453d c1ec 2abe d669 b0bd 9a8a a63d
00000050: 846c c43d b45a d4bd 8a6b 753d 0e5c dc3d
00000060: 2a4b c73d cfc7 0d3e c4a0 5ebd 15d9 253e
00000070: 2fa8 c9bd 9906 e9bd fac3 8a3d a17f 133e
00000080: dd42 203e e013 dc3b 07f8 89bd d6a6 99bd
00000090: 9007 36be 0819 023d c325 063e decf 4a3e
000000a0: 956b b73d e08a 663c d5bc bd3c 91b8 0ebe
000000b0: c1b0 fdbd bd2a 9d3d 22e0 5a3e 6500 263d
000000c0: 2a85 8dbd b470 0b3d 60b8 e0bd a00d 0dbd
000000d0: 78a8 d63c 0b7e 0b3d 5906 fb3d 0aa6 bc3d
000000e0: e200 58bc 9607 d3bb 1283 3abd 3143 2cbe
000000f0: a2cb 16be a718 08be e702 523e aa7b 85bc
00000100: 0c7f a7bc 52a8 2e3d 7278 b5bd 9719 d7bd
00000110: 6e77 30bd 604d d1bd f869 d7bd 358e d2bc
00000120: 4a52 c63d 6f3c 183c 27a7 de3d bf35 9d3c
00000130: e2e7 ba3d ec42 2ebe d59e 32be d14c 98bd
00000140: b900 753e 25df b53d deb1 b93c d181 9ebc
00000150: 1145 2ebe cf57 0e3e 7917 683d b02a a5bc
00000160: aeaa 19be 05e1 1ebe 04d7 0f3e 2081 69bd
00000170: 64ba 5e3d a914 e9bd 9197 e63d fdff e2bd
00000180: 0080 c0bb f9d5 0f3e d88c 23be cf84 79bc
00000190: 6ebe 193e 8d4a 803d c215 78bd a035 2abe
000001a0: 0b64 683d 207c f1bd e881 143e 6664 8abd
000001b0: a127 303c 3944 b6bd 31d2 e9bd da4e 5bbd
000001c0: 9273 05be e04e 13be e900 d63d d88c d73d
000001d0: f26c a13d fb0f 88be b580 7ebd c01c db3b
000001e0: 46b1 7dbd 2eea ae3d a87b 58bd 4801 0b3e
000001f0: 9ebb 4abd a36f 12be c029 b5bd e387 62bd
-0.08898489 -0.11864578 -0.1865096 -0.16820268 0.039210387 -0.2781526 0.11790274 -0.035065457
-0.17428558 -0.07148958 0.0033228397 -0.123849116 -0.19992405 -0.094218455 0.050157934 0.17021646
0.048263866 -0.16691877 -0.086139366 0.08131905 0.0959101 -0.10368863 0.05991701 0.107597455
0.09731133 0.13845752 -0.054352537 0.16196091 -0.098465316 -0.113782115 0.06775661 0.14404155
0.15650506 0.0067162365 -0.067367606 -0.075025246 -0.17776322 0.031762153 0.13100342 0.19805858
0.089560665 0.014071196 0.023161331 -0.13937594 -0.12387229 0.07674167 0.21374562 0.04052772
-0.06910165 0.03404303 -0.10972667 -0.034436822 0.026203379 0.03405575 0.1225707 0.09211357
-0.013183804 -0.0064401133 -0.045535155 -0.16822506 -0.14726117 -0.13290654 0.2050892 -0.01629432
-0.020446323 0.04264099 -0.08860864 -0.10502928 -0.043082647 -0.10219836 -0.10518259 -0.025702575
0.09683664 0.009291752 0.108717255 0.019190667 0.091262594 -0.17017716 -0.17443402 -0.074365266
0.23926057 0.08880452 0.022667821 -0.01934901 -0.17018534 0.13900684 0.05666301 -0.020161957
-0.15006515 -0.15515526 0.14046866 -0.05700791 0.054376975 -0.11380894 0.11259378 -0.11083982
-0.005874634 0.14046468 -0.15971696 -0.015229418 0.1501405 0.062642194 -0.060567625 -0.16622019
0.056736033 -0.11791253 0.1450268 -0.06757431 0.010751636 -0.08899731 -0.11417044 -0.053541996
-0.13032368 -0.14385557 0.10449392 0.10524911 0.07882108 -0.26574692 -0.062134463 0.006686777
-0.06193664 0.0854076 -0.052852303 0.13574708 -0.049495332 -0.14300399 -0.08845854 -0.055305373

model.2.weight f4 [128, 128]
00000000: 77cb 91bc 60e9 2d3b 7ec3 1b3d 9530 e03c
00000010: a3da b43d 036f 4fbd 208d 41bd 6896 d4bc
00000020: e03d 7abc e7b5 bebd 8a03 483d 559f 22bd
00000030: 42ed c43c b4fb a93c febb b53c f8ad 4a3d
00000040: 74a9 96bc 33cf 06bd 2116 8abd ac25 42bd
00000050: 3a27 a1bd aa6f 7a3d b773 5abc 000b cb39
00000060: 9227 ebbd 95df 843d 3f76 c8bd ee28 703d
00000070: 8b68 4bbd 0f41 56bd baa2 2c3d 40dd b53c
00000080: 2ca4 69bd aa28 3c3d 1ebe 34bd 1e1a 81bd
00000090: 9005 58bd 0c9d 76bd c0e7 e1ba 01da 1e3d
000000a0: d03a acbd 0f5a 15bd a06a 943b e85c 603c
000000b0: 5c26 563d a48b aabd dd62 63bc 2c9e 9abd
000000c0: 1d5c 9ebd 9450 40bd a3b8 5cbd 13ef 54bd
000000d0: 86df 003d 90a5 b1bc 40b0 0fbb 0152 863d
000000e0: e87f 4f3c aaa2 613d 748a 19bd 8527 bcbc
000000f0: 7eeb 9bbc 6036 0ebd 4038 e8bd 338b a53d
00000100: 8442 60bd 6331 49bd 0900 20bd 0048 e0b8
00000110: 84f5 043d 80e6 a0bd 203a 44bb e0fd fabc
00000120: 18fc 02bc eeb8 e1bd b020 a8bc fd8e 72bd
00000130: b03b 9cbd acee 8cbc e0c5 733b 5dfa c8bc
00000140: 070e 9fbd 8708 c83c 92f3 8cbd 00aa ec39
00000150: 0098 50b9 28a1 f4bc 6022 88bb d6ac 7e3d
00000160: cf7c 62bd af12 15bd 4065 30bc 0f37 98bd
00000170: 0458 85bd 3639 3dbd fa80 77bd db1e e7bd
00000180: e5f4 41bd 048b 94bc 20d4 e13c f094 53bc
00000190: fce5 b6bc 2398 7fbd ccef 07bd 2f86 803d
000001a0: de89 f8bc ab5b 4bbd 64d5 9abd 2258 543d
000001b0: 803a d53a 26fb dcbc 279e 97bd 3c43 8abd
000001c0: 4ee3 7f3d 8e2f 213d f07f 6b3c b49a 923c
000001d0: 981c b03c efbc dbbd 1dab 73bd 7a40 423d
000001e0: 002d 923b 9f60 0fbd 64e1 813c a69c 63bd
000001f0: 829c 1a3d 4c34 ff3c 6da3 853d 4e72 523d
00000200: 9c7e a3bd fae9 0dbd c02a bfba d09c dbbd
00000210: c4c5 97bd 7bc2 833c 8a16 a53c 988f 92bc
00000220: 0330 0b3c c3ba 9cbd a16e a93d 0aba 12bd
00000230: 3e38 99bd 07bf a43d 7c97 873b cc6b e2b9
00000240: 84df 25bd 0ff8 d5bc 4554 7ebd 5edc d8bc
00000250: 9624 403c c21f e93b 388e 083d c6d4 6bbd
00000260: d1ff 8a3d b8e2 8bbd 252e ab3c 6b89 a23d
00000270: ac42 0abd 200b e33b 4aad bcbd db14 2b3d
00000280: d544 293d f0fc 08bd aa72 793d c020 60bd
00000290: 62f5 173d c0c5 f2ba f76e 6fbd f03d 4abd
000002a0: 22c2 05bc ba5c 193d c46a 30bd a239 77bd
000002b0: 4660 6d3d 3e14 b4bd 4fd8 003d 02aa ddbd
000002c0: f523 abbd 43a2 35bd 02fe 483d 28f6 74bd
000002d0: 7042 16bc ffef 85bc 7810 8abd 6074 17bc
000002e0: 349a a0bd 98f0 96bd fb6b e3b7 fa20 2bbd
000002f0: f7d1 893c 69be 2fbd 313f 6fbd d364 a9bd
00000300: 27a9 0e3d e895 2fbb 1324 5cbd e3dc 5abd
00000310: ed8b 35bd 804a 63ba fc85 e1bc f1b3 cebd
00000320: 486e c2bb 8ddd b5bd e42b 49bd 1f3f a6bc
00000330: a0bb 8bbc 221b c0bc ae90 59bd 23cb f4bc
00000340: c233 a3bd a6ef 6c3d 1f4e 72bd 888c 5abd
00000350: 937b 733c ffe4 87bd 66bb 18bd 3813 94bc
00000360: 40c7 5a3b 8455 e73c f5be 213d 00ad 28bd
00000370: e3cc b23d 7083 ccbc 7bb8 a4bd bafe 253d
00000380: 7cf3 913c 567c 453d 78fb 603c ae1a a8bd
00000390: 8cf9 b4bd 9c7b aebd 747e a93c 1cbc 83bc
000003a0: cdac abbd 9f72 d9bd 412d 99bd 680c 2d3c
000003b0: 2913 9f3d 5337 37bd 7340 b43d c264 653d
000003c0: 2cfe 873d d7dd 8c3d 2a14 363d 424e fabc
000003d0: e785 fcbc deef a7bd c244 683d 604b 6dbb
000003e0: d81f 733c 2d0c b3bd a05f 1a3c b515 bf3c
000003f0: c9cc 7bbd aabf 783d dee7 253d 57ae 0e3d
-0.017797215 0.0026536807 0.038028233 0.027366916 0.08830764 -0.05064298 -0.047253728 -0.025950626
-0.015273541 -0.09312039 0.0488315 -0.039702732 0.024038915 0.020749904 0.022184368 0.049482316
-0.018391348 -0.032912444 -0.06742502 -0.047399208 -0.0786881 0.061141647 -0.013333253 0.00038727373
-0.11482157 0.064879574 -0.09788179 0.058632784 -0.049660247 -0.05230814 0.042147376 0.022200227
-0.057041332 0.045937218 -0.044126622 -0.063038096 -0.05273968 -0.060208365 -0.0017235205 0.038782123
-0.08409655 -0.03646284 0.0045293123 0.013694026 0.052282676 -0.083274156 -0.013878551 -0.075497
-0.07732413 -0.046951845 -0.05388702 -0.05198581 0.03146317 -0.021685392 -0.0021925122 0.0655861
0.012664773 0.05508677 -0.037485555 -0.022968063 -0.01903319 -0.034719825 -0.11338854 0.08083191
-0.054750934 -0.049119364 -0.039062534 -0.000106945634 0.032460704 -0.078564644 -0.0029941872 -0.030638635
-0.007994674 -0.11021601 -0.0205234 -0.059218396 -0.07628572 -0.017203651 0.00371968 -0.024533445
-0.077663474 0.024418129 -0.06882395 0.00045140088 -0.0001989305 -0.029862002 -0.0041544884 0.062176548
-0.055294808 -0.03639477 -0.010766327 -0.074323766 -0.06510928 -0.04619714 -0.060425736 -0.11285182
-0.04735269 -0.018132694 0.02756697 -0.012913927 -0.022326462 -0.06240095 -0.033187672 0.062755935
-0.030339178 -0.04964797 -0.07560232 0.051841862 0.0016268045 -0.026975226 -0.07403212 -0.06751105
0.062472634 0.039351992 0.014373764 0.017896034 0.02149801 -0.107293956 -0.05948936 0.04742477
0.004460931 -0.035004254 0.015854545 -0.055569313 0.037746914 0.031152867 0.065253116 0.05137854
-0.07983133 -0.034646966 -0.0014584884 -0.10723269 -0.07410768 0.016083946 0.020152349 -0.017890736
0.008495334 -0.076528095 0.08273054 -0.035821952 -0.074814305 0.08044248 0.0041379314 -0.00043186394
-0.040496364 -0.02611926 -0.062092084 -0.026472267 0.011727473 0.0071143815 0.033338755 -0.057575963
0.06787074 -0.068303525 0.020896027 0.07936367 -0.03375499 0.0069288164 -0.0921274 0.041767936
0.04132541 -0.033444345 0.060900368 -0.054718733 0.03709925 -0.0018522069 -0.058455434 -0.049375474
-0.008163961 0.037441947 -0.04307057 -0.060357697 0.05795314 -0.087929234 0.031456288 -0.10823442
-0.08356468 -0.044344198 0.049070366 -0.059805065 -0.009171113 -0.01634979 -0.067414224 -0.009244055
-0.07841912 -0.07370108 -2.7110791e-05 -0.041779496 0.016823752 -0.0429062 -0.058409873 -0.08271184
0.034829285 -0.0026792232 -0.05374534 -0.05343331 -0.044322897 -0.0008670464 -0.027529709 -0.10092915
-0.0059335567 -0.08880148 -0.049114123 -0.02029377 -0.01705724 -0.023450438 -0.053116493 -0.02988202
-0.079688564 0.057845734 -0.059156533 -0.053356677 0.014861005 -0.066354744 -0.037288092 -0.01807557
0.0033382922 0.02823902 0.03948875 -0.04118061 0.08730485 -0.024965018 -0.08042999 0.04052613
0.017816298 0.04821428 0.01373183 -0.08208214 -0.0883666 -0.0851967 0.02069018 -0.016080908
-0.083825685 -0.10617565 -0.074793346 0.01056204 0.077673264 -0.044730496 0.08801355 0.056004293
0.06640276 0.0687825 0.044452824 -0.030554894 -0.030825568 -0.08200048 0.056706198 -0.0036208257
0.014839135 -0.08742557 0.009422213 0.02332578 -0.061474595 0.06072966 0.04050433 0.034834232

model.2.bias f4 [128]
00000000: 2c6d 603d a6f1 04bd 962b 243d b9e2 50bd
00000010: 5cab 323c 79fb 80bd 6287 e03c eddb 49bd
00000020: b5e0 42bc 17bb b3bd 43e7 dabc ad58 8b3d
00000030: 47b4 ffbc 186f e73c d642 3fbc e819 063d
00000040: af8b f23b 3e9b 8abc 671a ecbd ea3e c9bd
00000050: b583 abbd 28b2 a23d e261 1d3d f3c2 bcbd
00000060: a7bb 763a 7c23 c23b 5edf b33d f743 be3d
00000070: 92ae aa3c 2058 4fbd a84a 2abd b144 713c
00000080: 1932 21bb 70a5 983d 9590 74bd 10dc 47bd
00000090: 25d7 15bd 3105 05bd 1c22 7ebd 34bb 50bd
000000a0: a6d1 61bd 8026 85bc bc02 013d 44ac 993d
000000b0: be28 b1bd cc7a 303d 72e6 ca3c cef9 aabc
000000c0: 039a e0bd a7c6 90bd ba34 003d fce7 003c
000000d0: 3745 46bd 9ac5 5fbd b072 193d 6f62 e8bd
000000e0: 314f cfbc 6314 f9bc f757 c1bd 2469 a3bc
000000f0: 8ef9 ca3c 4a2f 2f3d fc20 2fbd 4fd8 173d
00000100: 4bbc cebd 4d05 573d 093f 723c 9552 65bd
00000110: 61be 9abd d6c1 7bbd 4b5f 2a3d fe74 1fbd
00000120: 2a3b 403d 9033 393d 22fc 88bc 781b 8f3d
00000130: 5404 393d 74da 323c 1330 00be 7583 883d
00000140: e4a4 7ebd 7cfb 9cbd 45f1 9ebd 509f 443d
00000150: d3f6 debc fc76 963d ee44 1abc 1e1d 93bd
00000160: 4f77 a0bc 57f3 673d 2400 41bc aa1e 06bc
00000170: 4e37 4d3d b51c f9bc 8c48 033d e862 8ebd
00000180: f204 dfbd f543 c93c 94b8 c4bd b99c 04bd
00000190: 3909 53bd 4854 993c ba2c be3d 4401 7bbd
000001a0: b08f 9c3c 89c2 4b3d c3f2 15bd 3fc7 103e
000001b0: db46 303d 8068 a93d dd25 1cbc 61a4 b0bd
000001c0: 2c64 59bc 8194 933d f3de ef3d 307f c2bd
000001d0: 6cc6 5a3d 9684 853d 069b 3bbd 0fff 42bd
000001e0: d943 bfbd 7b3d 5a3d 4aa1 903c 7c08 893c
000001f0: dbe7 4abd efb4 adbb aed3 80bd b5d0 853b
0.054791614 -0.032457016 0.04008063 -0.05099747 0.010905113 -0.062979646 0.027408306 -0.049282003
-0.011894395 -0.08775919 -0.026721602 0.06804023 -0.031213893 0.028251216 -0.01167365 0.03273955
0.0074019055 -0.016919728 -0.11528473 -0.09826453 -0.083747305 0.07944137 0.038423426 -0.09216871
0.00094121177 0.00592464 0.08782838 0.09290307 0.020835195 -0.050621152 -0.041575104 0.01472585
-0.002459651 0.0745343 -0.059708197 -0.048793852 -0.03658213 -0.032475654 -0.062044248 -0.05095978
-0.055131577 -0.01625371 0.03149675 0.0750356 -0.08650349 0.04308586 0.024768088 -0.02087107
-0.109668754 -0.0706914 0.031300284 0.007867809 -0.048405852 -0.054631807 0.03746289 -0.113469
-0.025306316 -0.030405229 -0.09440606 -0.019947596 0.0247772 0.042769708 -0.042756066 0.037071522
-0.10094508 0.05249529 0.014785537 -0.05598696 -0.07555843 -0.061464153 0.041594785 -0.03892993
0.046931423 0.04521519 -0.016721789 0.06987661 0.045170143 0.010916341 -0.12518339 0.066656984
-0.06216897 -0.07665154 -0.07760862 0.048003495 -0.027217304 0.07346913 -0.009415848 -0.07183288
-0.01958814 0.05662855 -0.011779819 -0.008186022 0.05010157 -0.030409196 0.032051608 -0.069524586
-0.10889615 0.024568537 -0.09605518 -0.032376025 -0.051522467 0.018716946 0.09285875 -0.061280504
0.019111484 0.04974607 -0.03660847 0.14138506 0.043036323 0.08271885 -0.009530512 -0.08625103
-0.013268512 0.07206059 0.11712446 -0.09496915 0.053411886 0.065194294 -0.04580214 -0.047606524
-0.09339113 0.05328129 0.017655034 0.016727678 -0.04953752 -0.00530111 -0.06290375 0.0040837177

model.4.weight f4 [64, 128]
00000000: 4fee 46bc fade 303d 9956 973d de91 143d
00000010: d4f2 c1bc 986d 833d e665 423d afd0 ec3c
00000020: 80bd 343a a86b 733d 2542 6b3d 58ba ed3c
00000030: 7319 4ebd 67ef 28bc 5481 9c3d a775 4fbc
00000040: e86b 853d 4a9f 46bc 1c44 05bc dd2f 12bc
00000050: 33d8 4cbb 58b1 4bbd 77e8 153c 0305 943d
00000060: 01bc a83b de70 77bb cd1b 8dbc d711 413d
00000070: 7346 8e3c 0c67 cf3b 5749 b63d c0ee 2ebd
00000080: 0c8c 8ebd b415 83bd cd03 82bc a559 6fbd
00000090: 7249 11bd 0933 94bd d473 bebc 0924 a63d
000000a0: 9bec 0c3c 9ade 813d 1622 8cbd 9e33 86bd
000000b0: 93af fc3a 4c08 1bbd 0edd e63d da72 80bc
000000c0: 5b59 6dbd 760e 5dbc f7ad 703d 3bc4 aabd
000000d0: bb7f 063d 01cd 99bd 951f 3e3d 52fb 473d
000000e0: 8265 20bd a3c1 de3c de0b 103d b865 49bc
000000f0: 2e0b 2abb 8ece 0fbd 311b a53b 63c8 7b3c
00000100: cf11 d8bc 6a7f e9bd 9b8b b1bd d2db 383d
00000110: 7c13 f43b 6141 96bd 70ce 92bd 65ac 8f3d
00000120: 124b 58bc 2e52 753c 922e 1ebd 719d 543d
00000130: bc4c a33d 9221 593d ce15 19bd b7a8 9cbd
00000140: bb54 8dbd 4d1b 1f3d db0a b8bc 642c 523d
00000150: 2628 5f3d 105b c4bd 0d44 90bd b12c a73d
00000160: 14b4 2c3d c59c 6cbc 813d 363b 76c3 143d
00000170: 8f15 353d 013f 813d a376 363d b03b 3c3c
00000180: 9041 73bd 685b ee3d b1e4 9c3d ed40 503d
00000190: f0cf 79bd caca 5cbd a55d f73c 799f 4f3d
000001a0: ccda 983c 7d74 de3d 96fa 61bb dc05 14be
000001b0: 992b de3c 2697 84bc d613 e73c e708 d63d
000001c0: 1578 2abd d650 aabc 8d9b 3c3d f684 61bd
000001d0: c0dd d9bd 679b cfbc d09d b73c c7ae 183c
000001e0: db42 92bc 47e5 d93d 586b 663c 5595 7bbd
000001f0: 7550 b8bc 84ca 523b 4bda b9bd 0c65 5c3d
00000200: 1ba1 a93d 705c c53c 28e5 32bd 67c5 933d
00000210: 80af 76bb 6fc6 80bc b986 c73c d89c 663d
00000220: e295 6bbd f3a2 babc 7ae2 81bd e4bf f63c
00000230: a506 5c3d 1b95 363c 41c3 94bd 8075 6d3a
00000240: fd81 613d 2fab 903d 93b3 b73b 4a51 c1bc
00000250: df9f 2cbc 2bc6 fabd bb9d 84bb 0b7d ebbb
00000260: d569 413b 2437 18bd 65ac 3c3a dba2 d9bb
00000270: 45a6 17bc c9dc 83bb 7d20 503d 80d6 e33c
00000280: ac19 863d c02e b2bc 3809 1bbe 8870 80bc
00000290: 1556 cbbc 20c1 273b ff74 9dbd 33be 183d
000002a0: 00fe 4f3d eb1b 603d dfa8 bf3c 78ea a3bd
000002b0: 78c6 c33a 2b8d 87bd 9f60 3dbd f1ed 9c3d
000002c0: 8272 b0bd 110c bcbd 5c3a 183c 32d8 efbc
000002d0: 0d23 243b 72eb 51bd 3b36 963b b97b 103d
000002e0: 9d91 b1bd 5d53 053c 95e0 0bbd 6efb 80bd
000002f0: d796 1ebd 37f0 31ba d33b c1bd 8e39 273c
00000300: a9aa c4bd 832d c4bd 99a4 f3bc 808d 74bc
00000310: c9fe 94bd 525b c7bd 4954 90bd c5f7 c7bd
00000320: 030e 853d 63c7 643d c056 89bd cd3e f13c
00000330: 4861 753c 8239 883d 874d 1e3d cc9b 943d
00000340: 80e5 9fbb f37b b63d a09c 3c3d 1fc0 d4bd
00000350: 3263 6fbd 377e 093d 44b0 5d3d 1018 74bd
00000360: 8e02 c53c 1f55 d8bd 94c3 113d 8ec1 cdbd
00000370: 048a c3bc 7e7b 89bd b494 803c d84f 2ebc
00000380: 7568 693c c067 a4bd d72c 2c3d eea0 93bd
00000390: e5d9 7c3d 1d6c 73bd 7209 b9bd fafb 6e3d
000003a0: 7237 f8bc b8d5 55bc d6f8 3fbd bce0 c13c
000003b0: 8a7c 0f3d 4e60 fabc ad17 113d 751c 4f3c
000003c0: 49b5 4abd 5548 ccbb 43df d2bd 8604 f73c
000003d0: ac96 0ebc 748b bbbd a02a 8cbd e3fb 05bd
000003e0: e49d 5dbd 99ba 853b 6521 1c3d f090 0abc
000003f0: 1d89 1bbc fb3f a33d 3d89 9bbd 40c8 043b
-0.012141778 0.043181397 0.07389564 0.036271922 -0.02367536 0.06417388 0.04746046 0.028908102
0.0006894693 0.05942884 0.057436127 0.02901952 -0.05031724 -0.010310984 0.07641855 -0.012662328
0.06514722 -0.012122938 -0.008133914 -0.008922544 -0.0031256794 -0.049729675 0.009149662 0.072275184
0.005149365 -0.0037756483 -0.01722517 0.047136154 0.017367577 0.006329423 0.08900707 -0.04270816
-0.069603056 -0.06400624 -0.015870953 -0.0584351 -0.035470434 -0.07236297 -0.02324859 0.08112342
0.008601333 0.06341286 -0.06842439 -0.06552814 0.0019278399 -0.03784971 0.112726316 -0.015679765
-0.057946544 -0.013492217 0.058759656 -0.08338209 0.032836657 -0.075098045 0.046416838 0.048823662
-0.039159305 0.027191943 0.035167567 -0.012292318 -0.0025946605 -0.035109095 0.005038642 0.0153676
-0.02637568 -0.114012554 -0.08669206 0.045131512 0.007448612 -0.07336689 -0.07168281 0.070153035
-0.013201492 0.014973206 -0.03861863 0.05190796 0.0797362 0.05301053 -0.03737431 -0.07649367
-0.06900927 0.038844395 -0.022466114 0.051311865 0.054481648 -0.09587681 -0.0704423 0.08162821
0.042163923 -0.014441674 0.0027807655 0.03631922 0.044210013 0.06310845 0.044546735 0.01148884
-0.059388697 0.11638528 0.07660807 0.050843168 -0.06098932 -0.053904332 0.03019602 0.050689194
0.018659018 0.10862062 -0.0034481636 -0.1445536 0.027120398 -0.016185354 0.0282077 0.10450917
-0.041618425 -0.020790499 0.046046782 -0.055058442 -0.106379986 -0.025342656 0.022414118 0.009319014
-0.017854145 0.10639434 0.014063679 -0.06142171 -0.022499302 0.0032164166 -0.09074839 0.053807303
0.082826816 0.02409193 -0.04367557 0.07215386 -0.0037641227 -0.01571962 0.024356233 0.05630192
-0.057515986 -0.022782778 -0.06342025 0.030120797 0.053717274 0.011143948 -0.07263804 0.00090583414
0.055055607 0.07063901 0.0056061237 -0.023598332 -0.010536163 -0.12244829 -0.0040471232 -0.007186537
0.0029512544 -0.03716196 0.00071973196 -0.0066417283 -0.00925595 -0.0040241224 0.050812233 0.027812243
0.06547865 -0.021750808 -0.15140235 -0.01567866 -0.02482132 0.002559729 -0.07688331 0.037290763
0.050779343 0.054714125 0.023395954 -0.08003706 0.0014936468 -0.066187225 -0.046234723 0.07662571
-0.08615591 -0.09181989 0.009291258 -0.029277895 0.0025045306 -0.05124993 0.0045841015 0.03527424
-0.08670352 0.008137551 -0.034149725 -0.062979564 -0.03871807 -0.0006787809 -0.09435239 0.010206593
-0.09602863 -0.09578993 -0.029741572 -0.014926314 -0.07275159 -0.09734215 -0.07047326 -0.09764055
0.06496813 0.055854212 -0.067059994 0.029448891 0.014976807 0.06651594 0.038648155 0.072562784
-0.0048796535 0.0891036 0.046047807 -0.10388207 -0.05844421 0.033567633 0.054123178 -0.05959326
0.02404907 -0.105631106 0.03558691 -0.10046683 -0.023869522 -0.067130074 0.015695907 -0.010639153
0.014246096 -0.08027601 0.04203495 -0.07208429 0.061731238 -0.059429277 -0.09035005 0.058345772
-0.030299876 -0.013051443 -0.046868168 0.023666732 0.03503088 -0.0305635 0.03542297 0.012641062
-0.049489293 -0.0062342086 -0.1029649 0.030153524 -0.008702915 -0.09157458 -0.068440676 -0.03271092
-0.054105654 0.004081082 0.038117785 -0.008457407 -0.00949314 0.07971188 -0.075945355 0.002026096

model.4.bias f4 [64]
00000000: f67a 0eb8 12dd 03bc 1f9d 553d 70e2 3ebd
00000010: d3d3 2f3d 3a16 c5bd c0f3 853d 8db7 8abd
00000020: 9868 51bd e8c3 a1bd 425d 093d 5da3 2bbd
00000030: cda2 78bc 952c 293c af09 36bd 6d50 ac3c
00000040: ca54 7dbd 6540 9dbd 9b08 37bd 8d8d 3bbd
00000050: 2c61 9f3d 3130 3cbd 7d29 0bbc be63 743d
00000060: cdce a33d 1022 813d 2ad3 adbc bc5c 9dbd
00000070: dd23 edbc 7b56 bcbd 179f 5c3d 5186 e03c
00000080: 57ee 6fbc 5b2e 62bd 2954 69b9 78dc aa3c
00000090: 2d05 10bd b994 f23c 3454 7cba 1ba5 99bd
000000a0: b1ff c4bd d125 253d 693f 1b3d 1d7c 1fbc
000000b0: f339 5d3d 0ad4 c43c c7fb 2bbd b8be c33d
000000c0: 6dd1 9b3d f7c0 5a3d 6fb1 babd 422d 353d
000000d0: 74d8 adbd ecfe bdbd 9a99 b4bd 7e85 dabd
000000e0: 0418 acbc 221f 6e3c d439 7d3c 99ed 833d
000000f0: 8f7b 7d3c 3274 16bd 0408 803d 1a6a a0bd
-3.3969955e-05 -0.008048313 0.052151795 -0.046602666 0.04292662 -0.0962338 0.06540632 -0.06773291
-0.05112514 -0.07898694 0.033536203 -0.041903842 -0.0151755335 0.010325571 -0.04444283 0.021034444
-0.06184844 -0.07678298 -0.04468594 -0.04578929 0.07782206 -0.045944396 -0.008493778 0.059665434
0.079984285 0.06305325 -0.021218855 -0.07683703 -0.028947765 -0.09196182 0.053862657 0.027407797
-0.014644227 -0.05521999 -0.00022251964 0.02085708 -0.035161186 0.029611932 -0.00096255844 -0.075021945
-0.09619082 0.040319268 0.03790227 -0.009734181 0.054010343 0.02402689 -0.04198816 0.09557861
0.07608304 0.053406682 -0.09115874 0.044232614 -0.08488551 -0.09277138 -0.0881836 -0.10669993
-0.021007545 0.01453379 0.015455682 0.064418025 0.015471353 -0.036731906 0.06251529 -0.07832737

model.6.weight f4 [32, 64]
00000000: 1df3 60bb 3048 873d e624 e5bd 8aad 593c
00000010: c121 8fbd 0a5a 96bd 6a50 8abd 005c 133c
00000020: 6b08 bd3d ff0e 01be 37a0 e33d fc58 d2bd
00000030: 2aaa 07bd e58b 893d 3066 6c3d 707b a2bc
00000040: 4a18 e73d 1ef2 67bd 0081 51bd 8cbc 3c3d
00000050: 65e3 a5bc 3482 f23d b037 af3d 2543 e4bd
00000060: 70c9 4d3d 94c1 473d 3606 56bd c19f b83d
00000070: e0dc 003d b07f ecbd 4475 eb3d 41a5 a6bd
00000080: 4acc 2cbd c0d1 653c 402b b6bc f0d5 573c
00000090: eec9 ec3c a037 d5bd 481b 4a3d 7732 16bc
000000a0: 4971 e1bd c88a fcbc 497e 943a 13bd b43d
000000b0: da78 a2bc 26e7 a2bd c8d9 f6bc 8572 8f3b
000000c0: ac18 863d 2f99 77bb 2aee cb3d 88dd 593d
000000d0: 952a 8ebd 4329 b03c 78a6 dcbc 2cb1 3b3d
000000e0: 16ff c13d 4cc8 b6bd 3c11 55bd 346c 8cbd
000000f0: a017 f1bd 93fa 53bd 952d 1dbd 78c7 893d
00000100: e4ad 4b3d 290c 433d a450 cfbd d96a 8f3d
00000110: 4e1a ad3c 0393 09be 80ac 94bd 4c2a d53d
00000120: d4be b93d f8e5 a0bc 9ffa be3d 6283 aa3b
00000130: 76e2 b03d 0c8d bfbb ac4d 64bd c846 c53d
00000140: a0ff e8bd fd4c 463d 26b4 bc3d 7088 81bc
00000150: 5000 9e3a 901d 243c b821 d63d 9455 eabc
00000160: 08d4 283d 4a59 b3bd 84ca d93d a54a 4dbd
00000170: d258 9abb d829 acbd 20b3 393d 68f9 c43c
00000180: 3ed5 b93d 5e6d 8e3d fc28 e93d 9173 de3d
00000190: 0450 c83d 1271 853d 05b0 603d f054 02be
000001a0: 20f3 5dbc eff8 9dbd 232b cc3c 1b1b 1c3d
000001b0: c2f1 3f3b 11d5 c5bd 60c2 c13b 24f2 c93d
000001c0: 0c8c 7d3d 3e2d b03d e431 d63d 4018 28bb
000001d0: 4a41 923d 1093 7abc 0d35 903c 0f0d 81bd
000001e0: d075 febc 7040 f0bc 68b7 8dbd ba07 9d3d
000001f0: 59d1 713d ccd6 343d 30d5 94bd c528 e93d
00000200: aef7 f33c 8480 9abd dfcc 7dbd 7302 babc
00000210: 52ec 483d 5f13 61bd c4db 01be 5417 c1bd
00000220: f678 913c 7680 f63d fecd af3d d4f5 04be
00000230: d037 d13d 03e8 103e 3079 5d3c 94ad 233d
00000240: b266 14bb c6fb 9abd b032 3f3e 0242 7c3d
00000250: 952a 7f3d 1866 8a3d a7d4 9cbd 343f f6bc
00000260: 645d 1bbd c4a3 9cbc 2878 dcbc aaaa c9bc
00000270: e077 963c f671 2c3c a8b8 9c3d a0e0 efbc
00000280: a845 89bd dd39 923c a236 a23d da12 b13d
00000290: 466f e1bd 6e79 a2bd 5fda b73c 7ce5 bebd
000002a0: 7e7a dc3d 3a8c ad3d 9ac0 eabd 948d 9bbd
000002b0: bedb ccbd b6c2 93bd de17 e2bc 1033 4a3d
000002c0: c4d7 a63d 66a6 bd3c 9cac b6bd 50f5 e73d
000002d0: a0f7 b03c f8cd adbc 42bd b7bc c1e6 da3d
000002e0: 1e48 d8bd 3861 f83d 936e 8e3c 482c a03d
000002f0: 9529 db3d 5614 82bd 51fa 30be c4e6 a6bd
00000300: 73d0 273c 1375 f0bd 2f80 ae3d c596 e53c
00000310: b618 c5bd 4c17 a63d acf1 94bd 949a a43d
00000320: 20f1 973b 3c0a a23d 26f6 f53d 8347 c43c
00000330: d872 12bc 21e0 5abd a024 02bd bc87 b63c
00000340: 8ab1 20bd 840a b93c 705e 31bc 3825 1fbd
00000350: fd81 65bd 2892 6f3d a2fe 8fbd 822b 6b3c
00000360: 84eb e6bd 56e0 cebd 88a9 9f3d 9baa de3d
00000370: ac80 35bd cfb3 2dbd 4048 71bb 5a22 ebbd
00000380: 619a 183e e4d5 493d 8477 673d 20e3 f73b
00000390: 46d2 adbd aa8d 903d 9287 013e 413c c6bd
000003a0: 1cc9 37bd b4bc 2a3c 6536 f6bc 72e3 aabd
000003b0: b5a6 f43d 9311 d0bc 105d cbbd dbf0 d33d
000003c0: 989d 6fbd 364f 16be 9558 8ebd c008 f8bd
000003d0: f22a 9c3d 8e62 dabd 727d 8c3d c456 d3bd
000003e0: 4885 b73c 0ecf f0bd 86e9 f7bd 2c53 753d
000003f0: d8d1 9a3c 3cb6 733d e934 27bd fca0 1abd
-0.0034324594 0.066055655 -0.111886784 0.013286004 -0.0698886 -0.07341392 -0.06753619 0.0089941025
0.09230121 -0.12603377 0.11114543 -0.10270879 -0.033121265 0.06716136 0.05771464 -0.01983425
0.1128393 -0.056627385 -0.051148415 0.04607825 -0.020250032 0.118412405 0.085555434 -0.11145619
0.050240934 0.048768595 -0.052252017 0.09014846 0.031460643 -0.11547792 0.11496976 -0.081369884
-0.042187013 0.014027059 -0.02223742 0.013173565 0.028904881 -0.10411 0.049342424 -0.009167305
-0.110079356 -0.030827895 0.001132914 0.088251255 -0.019833017 -0.07954244 -0.030133143 0.0043776655
0.065476745 -0.0037780514 0.099575356 0.053189784 -0.06941716 0.02150405 -0.026934847 0.04582326
0.09472482 -0.08924922 -0.05201839 -0.068565756 -0.11772084 -0.051752638 -0.03837355 0.06727499
0.049726382 0.04761902 -0.10122803 0.070028014 0.021130707 -0.13434987 -0.07259464 0.10408458
0.09069601 -0.019640908 0.09325146 0.0052036503 0.08636944 -0.0058456715 -0.055738136 0.09632641
-0.113768816 0.048413265 0.09214048 -0.015812129 0.0012054536 0.010016814 0.1045565 -0.02860526
0.041217834 -0.08757265 0.1063433 -0.050120015 -0.0047102952 -0.084064186 0.045336843 0.024044707
0.09073876 0.06954454 0.1138477 0.10861886 0.09780887 0.06515707 0.054855365 -0.12727714
-0.013546735 -0.07713496 0.024922913 0.038111787 0.0029288386 -0.0965978 0.005913064 0.09860638
0.061901137 0.08602379 0.10458735 -0.002564922 0.07141359 -0.0152938515 0.017603422 -0.06301319
-0.031062037 -0.029327601 -0.069197476 0.07667489 0.05903754 0.04415016 -0.07267225 0.11384729
0.029781189 -0.07544044 -0.06196296 -0.022706246 0.049053498 -0.054950114 -0.1268149 -0.094282776
0.017757874 0.12036221 0.08584212 -0.12984401 0.102157235 0.14151005 0.013517663 0.03996046
-0.002264422 -0.07567553 0.1867168 0.061586387 0.06229647 0.06757754 -0.07657748 -0.030059434
-0.03793086 -0.019121058 -0.026912764 -0.024617512 0.018367708 0.010525217 0.07652408 -0.029281914
-0.06702739 0.017849857 0.07920577 0.08646174 -0.11007552 -0.07933317 0.022442995 -0.093211144
0.10765551 0.08474012 -0.11462517 -0.07595363 -0.1000285 -0.072148725 -0.027599271 0.049365103
0.08146623 0.023150634 -0.089196414 0.113260865 0.021602452 -0.021216378 -0.022429112 0.10688544
-0.1056063 0.12127918 0.01738671 0.07820946 0.107012905 -0.06351535 -0.17282988 -0.08149484
0.010242569 -0.1174108 0.08520543 0.028025994 -0.09623854 0.08109912 -0.07272658 0.08037296
0.0046368986 0.07912108 0.1200984 0.02395988 -0.008938514 -0.053436402 -0.03177321 0.02228152
-0.039231814 0.022588022 -0.010825738 -0.038853854 -0.05603217 0.058488995 -0.07030989 0.014353635
-0.1127539 -0.101013824 0.077960074 0.10872384 -0.044312164 -0.042407807 -0.0036816746 -0.114811614
0.14902641 0.049276248 0.056510463 0.007564917 -0.08487372 0.0705827 0.12649372 -0.09679461
-0.044869527 0.010420967 -0.030055234 -0.08344163 0.11945859 -0.025399005 -0.0992986 0.10348674
-0.058499902 -0.14678654 -0.069504894 -0.12111044 0.07625379 -0.10663329 0.06859864 -0.103192836
0.02240242 -0.117582425 -0.12105088 0.059893772 0.01889889 0.059499964 -0.040821943 -0.037751183

model.6.bias f4 [32]
00000000: 2053 583d 0307 03be bd46 4d3d b044 733c
00000010: 56d6 e4bd 21e5 4b3d 8dc7 343d 90e8 87bd
00000020: ae29 46be 0fa7 23bc 00f7 d33c 40ba dc3d
00000030: 1a7f 683a bf51 393d f676 713c 37d9 6a3d
00000040: efe2 05be e4c0 1b3b aea6 993d f188 4d3d
00000050: a1e9 2dbe eeff 6c3d da1c 0cbd 615e 453d
00000060: 561d 1cbc 391c 27be f498 d53d 0b11 dc3b
00000070: 3705 413e a813 d03b 852c f6bd bcf8 a83c
0.05281365 -0.12795644 0.05011629 0.014847919 -0.11173694 0.04977906 0.04413562 -0.06636155
-0.19351837 -0.00998856 0.025874615 0.10777712 0.0008869037 0.045243975 0.014737835 0.05733606
-0.1307485 0.0023766095 0.07502495 0.050179426 -0.16983654 0.05786126 -0.034207202 0.04818571
-0.009528479 -0.1631936 0.10429564 0.006715899 0.18849646 0.0063499995 -0.1202021 0.020626418

model.8.weight f4 [1, 32]
00000000: b938 2bbe 174f 273d 787e a5bd 23fd 0dbd
00000010: eacb 67bd 0c31 bd3d 8bbf 27be 70fe 423d
00000020: 9e27 193d ee34 de3d 4e66 23be a325 13be
00000030: 2c90 aebc 4e88 82bc 2bea 7fbd cb98 7f3d
00000040: 84ca ac3b 0b05 80bd 366a 6abd 0e5c 233e
00000050: 962f f83d 22a5 6fbd 43ef c3bd 9879 ff3d
00000060: 7f14 343d 592f 433d d3ae 03be 6004 2e3d
00000070: 5e2b fdbd 8d09 d93d 43b3 64bb beb4 e03c
-0.16720857 0.04084691 -0.080807626 -0.034665238 -0.056590952 0.092378706 -0.16381662 0.04760593
0.037391298 0.10849939 -0.15956995 -0.14369826 -0.02130898 -0.015934136 -0.06247918 0.062401574
0.005273165 -0.06250962 -0.057230197 0.15953085 0.12118451 -0.058507092 -0.0956712 0.12474364
0.04396486 0.047652576 -0.12859659 0.04248464 -0.12361787 0.10597525 -0.0034896887 0.027429935
