classification/models/pose_classifier_64_small_drop.pth (torch, 29281 bytes, 5 tensors)

model.0.weight f4 [64, 34]
000000 cb fb 50 bc d0 1d 8a bd 14 e4 9e 3d 3e 68 f6 3d
       -0.012755345 -0.067439675 0.07758346 0.12031601
000010 d7 5a a3 3d 28 a1 a9 3c 63 3e 10 be a2 98 01 3d
       0.07976311 0.020706728 -0.14086299 0.031639703
000020 0c 12 1f 3d cc 76 b4 bc c1 1b 8b bd d6 87 dd 3d
       0.03883557 -0.022029303 -0.06792403 0.10816924
000030 29 b9 10 3e 9d 16 01 3e d8 b8 a9 3d 19 df 88 bc
       0.14133133 0.12606283 0.08287209 -0.016707944
000040 12 d2 a3 3d de 8f 27 be fe a4 76 bd 5e f6 a6 bd
       0.07999052 -0.16363475 -0.060215943 -0.081524596
000050 3a 5c d9 bd 99 89 fd bc 3f 54 98 bd 9f 2b cc 3d
       -0.10613294 -0.0309494 -0.07437944 0.099692576
000060 10 d3 10 be 41 37 31 be a0 89 3f 3d 14 7c 1a be
       -0.14143014 -0.17306234 0.04676211 -0.15086395
000070 80 21 0b 3e 1c 81 17 3d dd f1 b6 bc 53 9a fb 3d
       0.13586998 0.036988363 -0.022332126 0.122852944
000080 61 2a ae bd 39 37 09 be 31 30 a8 bd 51 92 a6 3d
       -0.08504177 -0.13399972 -0.08212317 0.081333764
000090 c8 9f 89 3c a3 56 03 3d 8f e4 1a be 7e 99 78 3d
       0.016799822 0.032065045 -0.1512625 0.060693257
0000a0 48 dc 30 be 88 d8 15 bd c5 98 62 bd b6 f5 ad 3d
       -0.1727153 -0.036583453 -0.055321474 0.08494131
0000b0 eb 5f 75 bc 3c 89 46 3d 4f 0a c6 bd 7d 62 0c 3e
       -0.014976482 0.04847072 -0.09669935 0.13709445
0000c0 23 7c 98 3c 87 da ce bc 79 88 a2 bc 0d 63 30 3d
       0.01861388 -0.025250686 -0.019840466 0.043063212
0000d0 29 e8 be bd f1 be 0b be 78 e5 b9 3d 5d a8 f7 3d
       -0.09321625 -0.13647057 0.09076971 0.120926596
0000e0 81 ae 83 bc 0f 37 39 bc 09 a8 11 bc b3 0c b9 bd
       -0.01607442 -0.011304631 -0.00889016 -0.09035625
0000f0 d8 3c d2 bd 52 74 18 bd bc a8 cd bd 9b 28 f5 bc
       -0.10265511 -0.037220307 -0.10041949 -0.029926589
000100 80 86 0a 3e 1a 00 86 3c bd a0 01 be 2c 82 41 be
       0.1352787 0.01635747 -0.12658973 -0.18897313
000110 71 57 2a be f0 9a 31 bd 77 5e 2a be bf 1d 0f be
       -0.16634919 -0.04336065 -0.16637598 -0.13976191
000120 b0 15 74 3d 66 8b c0 3d 8a fe f9 3d a2 dd b3 bd
       0.059590995 0.09401588 0.122067526 -0.087825075
000130 b0 84 db bd 90 07 23 bc 82 63 b7 3d 7a ab a6 3d
       -0.107186675 -0.0099505335 0.089545265 0.08138175
000140 e7 26 b3 bd 78 c8 b5 3c 6a d7 c8 3d a1 bd ac bd
       -0.087476544 0.022190318 0.09806712 -0.08434606
000150 60 21 17 bc c8 dd 7e 3d 11 ed 0d 3e f8 37 5e 3d
       -0.009224266 0.062223226 0.13859965 0.054252595
000160 db ed 03 3e 2c 4a 77 3d 5a 44 df bd 4a 35 85 3d
       0.12883703 0.06037347 -0.10901709 0.06504305
000170 04 2a 13 bd 2e 9a 84 3d a5 e9 27 3e 24 9a 27 3d
       -0.03592874 0.0647472 0.16397722 0.040918484
000180 2e 55 d2 3d f6 2f 9c bd fc 11 13 be 30 57 22 be
       0.10270153 -0.07626335 -0.14362329 -0.15853572
000190 52 71 86 bd 54 7c bc bd d8 28 1f be 75 b8 84 3d
       -0.06564583 -0.09203401 -0.15542924 0.06480495
0001a0 06 39 d9 3d ea 97 6f 3d 5a 80 c7 bd df c3 ad 3d
       0.106065795 0.058494486 -0.09741278 0.08484625
0001b0 0c 71 29 bd 0b 75 90 3d 1c ff e5 3d 64 09 c2 bd
       -0.041367576 0.07053574 0.11230299 -0.09474447
0001c0 c3 ea 2e be 81 d6 ba ba f3 8f 7d 3d 92 24 07 be
       -0.17081742 -0.0014254601 0.06190486 -0.13197544
0001d0 ac 1a 3d 3d 65 89 11 3e 7e 2e e7 bd 92 5b 21 bd
       0.046168014 0.14212568 -0.112881646 -0.03939397
0001e0 2e 86 85 3d ef cd 17 bd 73 29 aa bd fc 45 59 3c
       0.06519733 -0.037061628 -0.08308687 0.0132613145
0001f0 9f 4d 0c be 0f 4c f8 3d 8a a7 f0 3d bc 49 23 bd
       -0.13701485 0.12123882 0.117507055 -0.03986524
000200 ff e5 e7 3d 44 19 2b be 6a 44 7d 3d a8 09 3f be
       0.11323165 -0.16708857 0.061832823 -0.18656027
000210 d9 1d 92 3d ec 88 84 bd a7 bd ae 3d ff 38 a9 3d
       0.07134599 -0.06471428 0.08532267 0.08262824
000220 40 62 31 bd 78 eb c1 bc 3c 54 7d bd 4e c3 e7 3d
       -0.04330659 -0.02367185 -0.06184791 0.11316548
000230 60 a3 d4 bb e2 7f 88 3d 6f 8a 0e 3e d3 79 10 be
       -0.0064892024 0.06665017 0.13919996 -0.14108972
000240 d0 33 c1 3c df d8 d1 bd dd 51 22 3e 6c 13 06 3d
       0.023584276 -0.10246443 0.15851541 0.032733366
000250 ac e1 09 bd b6 a9 fb 3d b6 ff fd bd ea 56 8e bd
       -0.033662483 0.12288229 -0.124022886 -0.06950171
000260 00 39 e2 bd bc 7e 22 3d b2 22 14 be d0 aa 49 bc
       -0.11046028 0.039671645 -0.1446636 -0.012308791
000270 04 a2 f5 bd b0 9e 3c bc 36 8b 8e bd e4 de 87 3d
       -0.11993793 -0.011512443 -0.06960146 0.0663431
000280 7a 85 4e bd e2 a4 d1 bd f2 1c e8 bd 18 1e a8 bd
       -0.050420262 -0.10236527 -0.11333646 -0.08208865
000290 35 fb 2c 3e 40 0f e1 bc 9d 63 ac bd a0 e1 0a be
       0.16892703 -0.027473092 -0.08417437 -0.13562632
0002a0 f5 9c 1c 3e c0 91 80 3c 36 33 48 bd 9e 09 fb bd
       0.1529425 0.015694499 -0.048876964 -0.12257694
0002b0 96 92 c5 bd 83 51 92 bd 3b 0b 54 3b 01 77 07 39
       -0.096471 -0.071444534 0.0032355327 0.00012918936
0002c0 05 65 df bd 91 73 df bb 76 42 2f bb c4 06 31 be
       -0.1090794 -0.0068191965 -0.0026742495 -0.17287737
0002d0 e9 8a 9d 3d 77 c7 9c bd 8f 75 8e bd 19 f1 e8 bd
       0.07692511 -0.076552324 -0.06956016 -0.11374111
0002e0 e5 54 2b bd 67 33 f7 bc af 51 52 3d 67 f2 c6 bc
       -0.04182901 -0.030175878 0.05134743 -0.024285508
0002f0 3c 98 f5 3d 75 67 fc bd 27 1c e9 3d 2c 90 9f bd
       0.11991927 -0.1232442 0.11382323 -0.077911705
000300 ff 4c 37 bd d5 59 7a bd c3 20 b6 bc f9 11 5a bc
       -0.044751164 -0.061120827 -0.022232419 -0.013309949
000310 f0 09 26 3e d5 09 28 be f2 89 c8 3d 47 1e 1f be
       0.16214728 -0.1641 0.09791936 -0.15538894
000320 93 25 31 3e 68 e9 17 3e ff 75 07 3e dd 96 cb 3c
       0.1729949 0.14835131 0.13228606 0.02485221
000330 e8 18 f3 3c 89 db 1d be 32 70 e5 bd a2 d6 a4 3d
       0.029674962 -0.15415777 -0.1120304 0.080487505
000340 d4 ce 51 3d c7 9c 27 3e 32 d8 8a bd 70 59 1c be
       0.051222637 0.163684 -0.06779517 -0.15268493
000350 98 71 59 3d 38 19 c1 3c 9e 4a f0 3d 36 20 00 be
       0.053086847 0.023571596 0.11732982 -0.12512287
000360 ae a7 ae 3d 17 6a 82 bd c0 5b d3 3b e8 f4 a8 bd
       0.08528076 -0.06367891 0.0064501464 -0.08249837
000370 04 32 2d bd c0 73 70 3c 28 0b 6b 3d f9 88 2e 3e
       -0.042284027 0.014676034 0.057383686 0.17044438
000380 00 cc a5 ba 99 89 2b 3e 3c ea 2c be 5c ca 5f 3d
       -0.0012649298 0.16751708 -0.16886228 0.054636344
000390 d9 c0 22 be 18 7e dc bc b0 4e d5 bc c8 33 02 bd
       -0.15893878 -0.026915595 -0.026038498 -0.031787664
0003a0 08 e7 72 bd 6c 13 1c bd ea 3c 4e bd cc a5 23 be
       -0.05930236 -0.03810446 -0.05035106 -0.15981215
0003b0 aa 14 69 bd 40 af e9 bc 7d 0b f5 3d 9a 7e 90 bc
       -0.056904472 -0.028525949 0.11965082 -0.017638493
0003c0 de 63 d2 3d af b7 95 3c ed 46 e4 3c b9 76 fd bd
       0.102729544 0.018276064 0.027865851 -0.1237616
0003d0 26 6c cb bc b2 ab b2 bc c6 b2 20 be e0 5b db 3c
       -0.024831843 -0.021810386 -0.15693197 0.026777208
0003e0 af c1 55 bd da 3d 01 be 98 be 0f 3e b5 7d 42 be
       -0.052186664 -0.12621251 0.1403755 -0.18993266
0003f0 d1 7c 24 3d 9d 93 ca bd 1d 7a a5 3d 5a 27 13 3e
       0.040158097 -0.09891436 0.08079932 0.1437048

model.0.bias f4 [64]
000000 72 96 1f be 05 51 bc bd 64 84 13 3d 94 99 82 3d
       -0.15584734 -0.09195141 0.03601493 0.06376949
000010 06 a3 b3 3d 6e 74 6c bd f2 b6 8c 3d 76 13 e5 3d
       0.08771329 -0.057728224 0.068708315 0.111853525
000020 e0 fc c9 bc 9e 5a 81 3d 68 10 ce 3c 8e 1c c0 3d
       -0.024656713 0.06316112 0.025154307 0.093804464
000030 b0 b8 e4 bc 95 02 df bc a2 2e 14 3e fb 9b 0b be
       -0.027920097 -0.02722291 0.14470914 -0.1363372
000040 24 0b ff 3d e8 92 04 be b8 de a4 3d c1 93 22 bd
       0.12453297 -0.12946665 0.08050293 -0.03969169
000050 34 8a 28 bd 98 af ff bd 70 7c 29 3c a8 66 e9 bb
       -0.041147426 -0.12484664 0.01034461 -0.0071228333
000060 a5 45 ac bd 50 55 a0 bd 68 f4 d6 bd 84 b6 57 3d
       -0.08411721 -0.07828772 -0.104958355 0.052664295
000070 c0 ea 91 3b 74 c1 9e bb df d4 2a bd 10 fb 9b bc
       0.004453033 -0.0048448388 -0.041706916 -0.019040614
000080 59 c6 12 3e de ad 0b 3e 50 ee 18 3e 01 a6 db 3d
       0.14333476 0.13640544 0.14934659 0.10725022
000090 03 fb 06 3e 3f 87 07 3e c5 8e 9c bd c4 c2 19 bd
       0.13181691 0.13235186 -0.076444186 -0.03753926
0000a0 10 ee fb 3d 85 aa 2c 3e 4e 00 24 bd e4 a9 45 3d
       0.12301266 0.16861923 -0.040039353 0.048257723
0000b0 e7 8e 13 3e fe 21 fc 3d e8 ac 75 3d 90 3a ca bd
       0.14409982 0.12311171 0.05997935 -0.09874451
0000c0 c0 c2 f7 bb df bf 51 bd 72 fb 05 3d 27 a3 0c bd
       -0.007561058 -0.051208373 0.0327105 -0.03433528
0000d0 ab 4d 99 bd 74 01 35 3c 34 91 31 be 4e ea ac bd
       -0.07485517 0.01104771 -0.17340547 -0.084431276
0000e0 94 b5 dd 3d 71 fc 0c 3e 07 8c a1 bd 8e a5 40 3c
       0.10825649 0.13768174 -0.07888036 0.011758221
0000f0 d4 c3 fb bd 55 20 e5 3d 37 9a 0d bd d4 7c 8e 3d
       -0.122932106 0.111878075 -0.0345709 0.06957403

model.3.weight f4 [64, 64]
000000 bd da 18 3d 2a 97 7c 3d c8 20 04 bd 5e eb d0 3d
       0.03731798 0.0616676 -0.032257825 0.10201143
000010 ec 7f f5 bd 43 f8 32 3d ba 38 ee 3d 51 8e b0 bd
       -0.1198729 0.043693792 0.116319135 -0.08620895
000020 0c 5d c0 bd 74 d0 8e 3d c0 a4 c4 bc 98 53 9f 3a
       -0.09392747 0.06973353 -0.02400434 0.001215565
000030 54 01 51 bd c8 03 6f bc a8 f1 f9 bd 6e ba 61 bc
       -0.051026657 -0.014588304 -0.122042954 -0.013777358
000040 78 59 91 3d 7a 16 af bd 50 5b a6 bd 17 c7 ff 3d
       0.07097143 -0.08549209 -0.08122885 0.12489145
000050 78 70 c3 3d 76 23 c8 3d a0 6b 55 bd f3 16 dc bd
       0.09542936 0.09772389 -0.052104592 -0.10746565
000060 54 8c ee bd a0 1e 2d 3c f8 cc cf 3c 8e 60 a4 3d
       -0.11647859 0.010566384 0.025366291 0.08026229
000070 a0 7a f5 3c 49 69 f8 bc a3 68 aa 3d c1 bc a8 bd
       0.029965699 -0.030323641 0.08320739 -0.08239127
000080 f4 08 d8 bb 97 60 a3 3d 13 ba fa bc 49 3d 73 bd
       -0.006592864 0.079774074 -0.030606305 -0.059384618
000090 fa a4 e8 3d 18 2b d5 3d ad 10 c3 bc 40 d8 7d bd
       0.11359592 0.1040861 -0.023811663 -0.06197381
0000a0 96 d6 cf 3c 76 fc c8 bd 6a b7 cf 3d 5c 4c db 3d
       0.025370877 -0.09813778 0.10142405 0.10707924
0000b0 64 96 cc 3d 9c 8c aa bd b5 5c e4 bd dd ed fa 3c
       0.09989622 -0.083276 -0.11150495 0.030631
0000c0 80 8f bb 3c 32 1b 8e 3d 53 19 f9 3d b9 08 7b bd
       0.022895575 0.06938781 0.12163033 -0.061287615
0000d0 80 a9 1c 3d c7 f9 f1 bd 31 e5 e4 3c 7b ce 42 3d
       0.038247585 -0.11815219 0.027941318 0.047560196
0000e0 0b 60 65 bd bc b2 c1 bd 10 98 96 ba 84 2d 7b 3c
       -0.055999797 -0.09457919 -0.001148941 0.015330676
0000f0 08 d8 4e 3d 13 99 3d bd 0f 38 0b 3e 35 6d 41 3d
       0.050498992 -0.04628856 0.13595603 0.04722329
000100 3a 12 66 bc 33 d9 f6 bc 50 ba 03 bc 12 47 e1 3d
       -0.0140424315 -0.030132866 -0.008040026 0.10999884
000110 80 7c 12 3d e9 ba 67 3d 6e 64 ac bd 8a 14 af bd
       0.035763264 0.056574736 -0.08417593 -0.085488394
000120 d8 87 df bc 0e f0 9d 3d d4 ab bf bd 72 2a 85 3d
       -0.027286455 0.077118024 -0.093589455 0.065022364
000130 24 d8 8b 3d a0 ac 60 3d 9c 41 38 3d f6 28 d7 3d
       0.06828335 0.054852128 0.044984445 0.105058596
000140 ea db 0f 3d 6c a5 02 bd 9c 6e fa 3c 71 3a bf bd
       0.035121836 -0.03189604 0.03057032 -0.09337319
000150 52 00 99 bc b2 78 e6 3d 9c 6a 1d bd 10 ee 2e bd
       -0.01867691 0.112534896 -0.03843175 -0.042707503
000160 62 26 8f 3d 00 41 c7 bc 18 5a d9 bd 48 e0 af 3d
       0.06989743 -0.024322987 -0.10612887 0.085877
000170 96 bc ab bd 12 2f 79 3d c1 93 8d 3d d0 53 64 3d
       -0.08385579 0.060835905 0.069129474 0.055743992
000180 bf 29 bc 3d c8 a0 a9 bd ef 6e 7d 3d 12 37 59 bc
       0.0918765 -0.0828262 0.061873373 -0.013257759
000190 e4 31 85 3d 88 0d 7b bd 2e f0 c2 3d 08 89 c5 bc
       0.065036565 -0.0612922 0.09518467 -0.024113193
0001a0 50 90 c7 bc 9a cc d7 bd d0 de 2e 37 9b 00 61 3d
       -0.024360806 -0.105370715 1.0423086e-05 0.054932218
0001b0 ec b9 e8 3d 48 32 f1 3c ba fd df bd f3 d0 80 bd
       0.11363587 0.029442921 -0.109370664 -0.06289854
0001c0 5c 4e 4c 3d 84 c4 a0 3c 03 c3 a2 3b 6e d2 92 bd
       0.049879417 0.019624956 0.004967095 -0.071690425
0001d0 12 ff 2f bd 76 2c c2 bd 77 3a ee 3d 0d 6e d5 3c
       -0.042967863 -0.094811365 0.11632245 0.026053453
0001e0 d0 28 80 bd 60 54 49 3d f2 17 79 bd d4 ce a8 3d
       -0.06257784 0.049152732 -0.06081385 0.08242574
0001f0 e8 fc 9c 3c 74 28 12 bd 9e b6 e5 bc 04 a3 8a 3d
       0.019163564 -0.03568311 -0.02804118 0.06769374
000200 47 e7 cf 3d 01 b5 e5 bd e0 2f 49 bd 5b 08 90 bb
       0.101515345 -0.112161644 -0.049117923 -0.0043955273
000210 c4 cd 77 3d 0b 98 9d bc 50 33 2b bc c0 8a e8 bd
       0.060498968 -0.019237539 -0.010449246 -0.113545895
000220 84 3d 94 bd f0 e1 f1 bc 92 9c c9 bd 8e b5 61 3c
       -0.07238296 -0.02952668 -0.098443165 0.013776196
000230 b8 b3 94 bc 89 a1 03 bc 87 eb b2 bd 56 dc 0d be
       -0.018152103 -0.008034118 -0.087363295 -0.13853583
000240 ae 35 79 3d 60 ba ab bb 52 59 ac 3d 4e ed ae 3d
       0.06084221 -0.0052407235 0.08415474 0.08541356
000250 8a 7a 95 3d ec a7 69 3d 94 45 cf bd 23 02 0c 3d
       0.07298763 0.05704491 -0.10120693 0.034181725
000260 66 a7 f4 3d f0 bd 05 3c 88 ef 2d bd 80 07 bb 3a
       0.11945991 0.00816296 -0.042464763 0.0014269203
000270 0a b6 91 3d 64 d8 f5 bd 21 b2 be 3d c3 2d 81 bd
       0.07114799 -0.12004164 0.09311319 -0.063075565
000280 61 ed 0e bd 50 5e 95 3c dc b2 17 bd 06 f3 8a 3d
       -0.03489435 0.018233448 -0.037035808 0.06784634
000290 20 31 eb 3b 66 a4 eb 3d 94 08 53 3b d0 a0 c2 3d
       0.007177487 0.11505966 0.0032201158 0.09503329
0002a0 0e e5 11 bc 16 a3 d9 bd a4 78 98 bd 78 be 2e 3d
       -0.008904709 -0.10626809 -0.074448854 0.042662114
0002b0 54 2a 3e bd 20 fc 73 bc ed 1e 89 3d 66 91 23 3d
       -0.046427086 -0.014891654 0.06695352 0.039933585
0002c0 00 01 76 bd 41 d6 4f 3e 8c 54 3d bd 6b c8 d5 bd
       -0.060059547 0.20296575 -0.04622321 -0.10438617
0002d0 e7 4c 5d bd c4 d6 7d 3d 5d 7a 2d 3d e5 c9 4e bc
       -0.054028418 0.061972395 0.042353023 -0.012621378
0002e0 03 05 b1 bc 14 5c a6 bd c4 7a 5b bd e3 df 13 3c
       -0.021608835 -0.08123031 -0.053583875 0.009025547
0002f0 3a 0c b0 3d 3a 8b b1 3d ce ac 2c 3d 00 3b bb bd
       0.08596082 0.086691335 0.042156987 -0.09142113
000300 34 30 35 3d 71 42 dc bc 00 f4 8d 3a 32 f1 16 3d
       0.044235423 -0.02688715 0.0010830164 0.036851116
000310 38 1f 3b 3d 9a 83 7b bc 34 e5 e8 bd 2d fe 61 bd
       0.04568407 -0.0153512005 -0.11371842 -0.05517404
000320 60 0d a2 bd 48 51 c0 3c 02 d5 e9 bd c6 54 cb bd
       -0.07912707 0.023476258 -0.11417581 -0.099282786
000330 64 d0 4e 3d 68 83 80 3d 7e 47 23 3d 16 7b 74 3d
       0.050491706 0.06275064 0.039863102 0.059687696
000340 1a b0 ee 3b 70 77 d5 3c 20 af 90 3d 3a 06 ba bd
       0.0072841765 0.026057929 0.070646524 -0.09083219
000350 9e 2c 92 3c b6 bb 9d 3d 1e a5 c4 bd 5e 02 82 ba
       0.01784354 0.07701819 -0.09601806 -0.0009918918
000360 a0 22 cd 3c a6 4b ec bd 78 a4 cc 3c f0 ad d8 3c
       0.025040925 -0.11537866 0.024980769 0.026450127
000370 30 35 f0 bc 0d 66 16 3d fb 19 d0 3c 15 bd aa bd
       -0.029322237 0.036718417 0.025403013 -0.08336846
000380 e8 4c 40 3d 11 d5 6f 3d d0 28 aa bd 7c 59 e2 3d
       0.046948344 0.058552805 -0.083085656 0.11052224
000390 a0 3a fc 3b 36 ee 96 3d 54 c6 1a 3d 80 e7 77 3c
       0.0076974183 0.07369654 0.037786797 0.0151308775
0003a0 ac 3c 24 bd c4 50 4d 3d 2d 75 5e bd e0 0a dc 3d
       -0.040096924 0.050125852 -0.054310966 0.10744262
0003b0 68 75 6c bd 54 cf 2f bd ae b4 11 bd b6 67 36 bd
       -0.057729155 -0.042922333 -0.0355727 -0.0445325
0003c0 d4 0c 40 bd 45 ae 81 bc ef e5 35 3d da 4e 75 3d
       -0.046887234 -0.015830169 0.044408735 0.05988965
0003d0 df 96 9b bd 35 6e 6b 3d 24 0b 86 3d d7 06 10 bc
       -0.07597136 0.05747815 0.06545094 -0.008790693
0003e0 32 10 b9 bd 40 79 01 3c 6e b5 0b 3d 9f 9e a6 3d
       -0.09036292 0.007902443 0.03410857 0.08135723
0003f0 c0 cb d7 3c b0 b9 39 bd e8 32 50 bd dc d5 df 3d
       0.026342273 -0.0453431 -0.050829798 0.10929462

model.3.bias f4 [64]
000000 9c 43 02 be c3 42 02 3f 27 a4 f1 3e 23 d6 b1 bd
       -0.12721103 0.5088312 0.4719555 -0.086834215
000010 d4 d4 e7 3e 70 af 03 3f 61 db 4c be 84 48 21 be
       0.45279562 0.5143957 -0.20005561 -0.15750319
000020 de 3d b8 be c5 c8 b1 bc 57 c3 70 bc 3b ca d0 bd
       -0.359847 -0.02170218 -0.01469501 -0.101948224
000030 ec a5 00 be 80 cb ac 3e 22 5d 07 bc 46 3b 30 be
       -0.12563294 0.33749008 -0.008261951 -0.17210111
000040 6e 17 b7 bd 2a d3 24 be 83 f2 7a 3c 63 2d 53 3e
       -0.08940016 -0.16096178 0.015316608 0.20622782
000050 51 ba b5 3e 60 35 c6 bb c5 ba 4b be 2b d8 e7 bb
       0.3549371 -0.0060488433 -0.19895466 -0.00707533
000060 a9 0b 3d 3f 75 20 a2 bd aa eb 7d bb e2 f5 49 bd
       0.73845917 -0.07916347 -0.0038745203 -0.049306758
000070 28 38 47 be 9d 6c 6d 3c a0 66 9c 3e 23 74 9d 3c
       -0.19455016 0.014491227 0.30547047 0.019220417
000080 ff 4d 26 3f c6 21 a6 bc ca 35 bb bc af ea a5 3e
       0.6496276 -0.020279776 -0.022852797 0.32405612
000090 69 ef 1a 3f 55 2e 02 3f f6 81 a7 3e 3a 5c 62 bd
       0.6052156 0.5085195 0.3271634 -0.055263735
0000a0 08 cd fd 3e 2e 25 b5 3e 02 ff fe 3e 1f 64 c5 bd
       0.4957049 0.35379928 0.4980393 -0.09638237
0000b0 e0 f0 11 3f 89 12 2f be 43 bb 48 bd 2c 4f 8d 3e
       0.5700817 -0.17096914 -0.04900671 0.27599466
0000c0 5f 00 aa 3c 8a d4 e6 b9 e6 b0 2d be a1 5a 4c bb
       0.02075213 -0.00044027372 -0.16962013 -0.0031181949
0000d0 69 24 55 3c 33 f7 b0 3e 83 98 ad bc 1b 87 ba bd
       0.013009169 0.34563598 -0.021190887 -0.091078006
0000e0 ab e3 37 bd 3f d7 bc 3c 0a a9 68 3f 9d 40 31 be
       -0.044894855 0.023051856 0.90882933 -0.17309804
0000f0 5a a1 89 bd 72 a3 56 3e af e2 ab be 0d b7 dc bc
       -0.067202285 0.20960787 -0.33571383 -0.026942754

model.5.weight f4 [1, 64]
000000 1e df 5b bd ea 34 53 3d c4 0d 2f 3d 96 5a 36 bd
       -0.053679578 0.051564135 0.042737737 -0.044519983
000010 6b 2a c2 3d e6 bf 5b 3c f4 db 8e bd e3 78 53 3b
       0.09480747 0.013412451 -0.069755465 0.00322681
000020 2f 3d e1 bc 2d 07 84 3d 2b e4 63 bd ad d2 92 3d
       -0.027494995 0.06446681 -0.05563752 0.071690895
000030 24 b0 51 3c b7 38 39 3d 96 ca d2 bc 01 0b aa bc
       0.012798343 0.045220103 -0.025731366 -0.0207572
000040 14 a7 2d 3d 32 aa 8a 3c 30 e5 43 bd d7 93 8e 3d
       0.042395666 0.016926859 -0.047825992 0.06961792
000050 64 25 1c 3d ac d1 61 bd ae a3 19 bd d5 ae 59 bc
       0.038121596 -0.0551316 -0.037509613 -0.013286312
000060 9a 7c de 3d 34 d5 13 bd b1 b2 9a bb 12 0e 2a 3b
       0.108636096 -0.036092 -0.0047210087 0.0025948328
000070 ce a3 a1 3c 7e 8e b5 bd 6d 24 d2 3b a3 4b 21 bc
       0.019731428 -0.08865069 0.0064130337 -0.009844693
000080 43 5a 98 3d 0e 07 0a bd 83 8b bc bd f3 4a ba 3b
       0.07439091 -0.033698134 -0.09206297 0.005685204
000090 65 90 04 3d b3 6c 2d 3d 13 c3 3c 3d 1d bd 91 bc
       0.032364268 0.04233999 0.046084475 -0.017790372
0000a0 e5 e5 d4 3c 84 2b d1 3d 35 ab dd 3c e0 15 79 bd
       0.025988529 0.10213378 0.027059177 -0.060811877
0000b0 f4 b5 cf 3d 23 28 48 bc bd 0c 57 3b 4b 22 9c 3d
       0.10142127 -0.012216601 0.003281399 0.07623728
0000c0 a8 4a 00 bc de 01 83 bc 6e 48 c1 3c 47 90 e8 bd
       -0.007830299 -0.015992101 0.023594107 -0.11355644
0000d0 e8 7c 00 bd dd 69 87 3d 1c 50 de bc 65 d0 1c bc
       -0.03136912 0.06611989 -0.027137809 -0.0095711695
0000e0 d1 8e 44 3a f2 56 99 bd a9 37 41 3e f4 1b b0 bc
       0.0007498088 -0.074872866 0.18868889 -0.021497704
0000f0 1b f5 a5 bc 8f eb 49 3d 42 68 9f bd cf 6b 72 bd
       -0.020258477 0.04929691 -0.077835575 -0.059184846
