prediction/models/cnn/best_cnn_5k.pth (torch, 451333 bytes, 7 tensors)

net.0.weight f4 [128, 34, 3]
000000 11 63 83 ba 95 01 98 ba ed 20 52 ba b4 d6 53 b9
       -0.0010024031 -0.0011597151 -0.00080157706 -0.00020202511
000010 f6 6e 8d b9 25 b7 39 b9 31 79 7f ba ef cd 93 ba
       -0.00026976288 -0.00017711202 -0.0009745537 -0.0011276583
000020 4e 9a 4b ba eb 5f 4e b9 39 79 8a b9 5d 92 34 b9
       -0.00077668286 -0.00019681423 -0.0002641173 -0.00017220662
000030 a4 bb 84 ba 18 8f 99 ba 77 8f 54 ba 05 7c 4f b9
       -0.0010126722 -0.0011715619 -0.0008108536 -0.00019787259
000040 39 7c 8a b9 21 d0 34 b9 4f 2e 69 ba d4 2d 87 ba
       -0.00026413964 -0.00017243672 -0.0008895145 -0.001031334
000050 08 fa 37 ba 79 f5 4b b9 15 a3 88 b9 e3 b6 32 b9
       -0.00070181536 -0.00019451034 -0.00026061447 -0.00017043533
000060 b8 ff 83 ba 7a fb 98 ba ce 64 53 ba 06 dc 4e b9
       -0.0010070717 -0.0011671626 -0.00080640323 -0.00019727656
000070 5c a8 8a b9 84 05 35 b9 7f fb 54 ba e0 a1 77 ba
       -0.0002644685 -0.0001726356 -0.0008124634 -0.00094464235
000080 24 f2 25 ba 03 10 67 b9 39 b5 98 b9 df a4 4c b9
       -0.0006330332 -0.00022035842 -0.0002912672 -0.00019516375
000090 ec 9d 89 ba dd c5 9f ba f3 db 5d ba d2 4b 69 b9
       -0.0010499335 -0.0012189705 -0.0008463256 -0.00022248857
0000a0 96 71 9a b9 3d 7d 4f b9 c7 86 44 ba e5 be 64 ba
       -0.00029457797 -0.00019787713 -0.000749689 -0.0008725955
0000b0 0b ed 17 ba 3b 17 8a b9 fd 80 b3 b9 8c 71 78 b9
       -0.0005795515 -0.0002633872 -0.00034237644 -0.00023693423
0000c0 e1 fe 92 ba f4 bc aa ba 0c 3c 6e ba ee 1a 8b b9
       -0.0011214876 -0.0013026283 -0.0009087927 -0.0002653221
0000d0 07 3e b4 b9 e5 0d 79 b9 69 0f 4f ba a3 87 72 ba
       -0.0003437849 -0.00023751667 -0.00078987196 -0.0009251779
0000e0 63 d9 23 ba de 33 93 b9 79 d9 bd b9 55 91 85 b9
       -0.00062503497 -0.0002807667 -0.0003621092 -0.00025476018
0000f0 0d 32 9a ba ac bb b1 ba 0c b7 78 ba eb 4f 96 b9
       -0.0011764184 -0.0013559959 -0.00094877253 -0.00028669773
000100 b8 29 c1 b9 83 49 87 b9 f5 0a 5c ba 5f f0 7f ba
       -0.00036842912 -0.00025803977 -0.0008393967 -0.0009763296
000110 ac 11 2c ba 6f 66 9c b9 be 3c ca b9 71 f3 8e b9
       -0.00065639126 -0.00029830958 -0.000385737 -0.0002726573
000120 3c 09 84 ba 03 8d 99 ba 0f 20 54 ba c9 0a 9e b9
       -0.0010073553 -0.0011714998 -0.00080919353 -0.00030144144
000130 ed 64 cb b9 85 f3 8f b9 29 b4 62 ba 36 37 83 ba
       -0.00038794373 -0.00027456522 -0.0008648062 -0.0010010961
000140 b6 c0 30 ba 66 f6 ba b9 12 e8 ed b9 3a 3e ae b9
       -0.00067425834 -0.00035660266 -0.00045377068 -0.0003323423
000150 6a ba 85 ba 1d 85 9b ba 55 6d 57 ba 2d 0b bd b9
       -0.001020265 -0.0011865232 -0.0008217891 -0.00036057216
000160 c1 50 f0 b9 4b c5 af b9 4e 2e 59 ba 77 78 7b ba
       -0.00045836534 -0.00033525596 -0.0008284793 -0.0009592841
000170 38 64 27 ba 8f 17 dc b9 84 18 0b ba 5e 77 d1 b9
       -0.0006385478 -0.00041979222 -0.00053060823 -0.00039952522
000180 12 5b 81 ba 72 dd 96 ba a1 cd 50 ba 05 84 e1 b9
       -0.000986906 -0.0011510088 -0.00079652114 -0.00043013706
000190 64 75 0e ba 73 2d d6 b9 9a 36 61 98 39 37 65 98
       -0.00054343627 -0.00040851123 -2.9108135e-24 -2.9625437e-24
0001a0 85 85 0e 98 63 fd b7 17 14 5e c2 17 a3 fd bf 17
       -1.842048e-24 1.1890062e-24 1.2560705e-24 1.2407113e-24
0001b0 de 0b 50 98 5e 2e 70 98 f3 cf 14 98 34 83 a9 17
       -2.6889361e-24 -3.1042682e-24 -1.923354e-24 1.0954489e-24
0001c0 f6 4d b0 17 50 bd c0 17 0b ee 54 98 55 ca 5e 98
       1.1393414e-24 1.2455498e-24 -2.7520539e-24 -2.879498e-24
0001d0 38 96 21 98 d4 bd b4 17 9c be ba 17 0b 35 bf 17
       -2.0884603e-24 1.1680147e-24 1.2068085e-24 1.2356476e-24
0001e0 31 1e 50 98 d0 a0 5a 98 b7 b3 11 98 66 98 a6 17
       -2.6898613e-24 -2.825703e-24 -1.8831544e-24 1.0765969e-24
0001f0 8f 4d c0 17 76 c8 bd 17 fb 2b 53 98 62 d7 5e 98
       1.2427288e-24 1.2264442e-24 -2.7293315e-24 -2.8801568e-24
000200 63 8b 0c 98 ed f3 ab 17 51 fa c0 17 59 de c0 17
       -1.8164948e-24 1.1112192e-24 1.2470898e-24 1.2463838e-24
000210 65 e0 49 98 9c d9 57 98 a7 96 05 98 e6 1d a6 17
       -2.6091931e-24 -2.7897963e-24 -1.7265907e-24 1.0735046e-24
000220 e2 d0 b1 17 69 6e c3 17 a8 65 53 98 71 3f 62 98
       1.1491086e-24 1.2629451e-24 -2.7322434e-24 -2.9241845e-24
000230 7f 4d 0f 98 d7 9a a1 17 42 ea bb 17 f4 2c b8 17
       -1.8521442e-24 1.0443468e-24 1.2143727e-24 1.1902069e-24
000240 0f dd 4c 98 d1 24 55 98 85 aa 0b 98 a5 4e a6 17
       -2.6477988e-24 -2.7548192e-24 -1.805142e-24 1.0747351e-24
000250 8f 73 a1 17 55 40 b6 17 4e 27 62 98 8f a4 67 98
       1.0433552e-24 1.1777714e-24 -2.922966e-24 -2.9939131e-24
000260 8f c6 21 98 4c eb a1 17 f8 28 9d 17 b0 3c c1 17
       -2.0909009e-24 1.0463778e-24 1.0156229e-24 1.2487652e-24
000270 8c 34 53 98 eb c5 5a 98 b4 48 05 98 b7 33 9a 17
       -2.729764e-24 -2.8275763e-24 -1.7226553e-24 9.965071e-25
000280 cd 7c a4 17 b0 ef bb 17 81 78 5c 98 e7 db 63 98
       1.0629756e-24 1.2145097e-24 -2.8495172e-24 -2.9450085e-24
000290 fb 8f 0f 98 4c 74 95 17 cf 9e 92 17 48 5a a9 17
       -1.8555008e-24 9.658257e-25 9.475118e-25 1.0944159e-24
0002a0 f2 53 55 98 c4 09 5f 98 f3 dd 0b 98 0b cf 98 17
       -2.7571986e-24 -2.8827005e-24 -1.8077385e-24 9.875035e-25
0002b0 3a df a5 17 05 f6 ac 17 07 d6 51 98 9e fc 6a 98
       1.0719225e-24 1.1177344e-24 -2.7120673e-24 -3.037133e-24
0002c0 b0 6a 0d 98 aa 15 87 17 db f1 8a 17 93 b2 be 17
       -1.8277686e-24 8.729639e-25 8.979094e-25 1.2323541e-24
0002d0 1d aa 54 98 3d 19 67 98 19 3c 0a 98 86 78 85 17
       -2.7486243e-24 -2.9868792e-24 -1.7866424e-24 8.625348e-25
0002e0 0c 9f 86 17 d0 ab ad 17 69 5b 54 98 88 48 69 98
       8.699696e-25 1.1223235e-24 -2.7446508e-24 -3.0151163e-24
0002f0 6f d5 0e 98 c9 5e 82 17 01 5e 8f 17 33 7d a0 17
       -1.8460826e-24 8.42498e-25 9.264888e-25 1.0371362e-24
000300 1f 95 4e 98 5e 90 60 98 54 76 11 98 90 87 43 17
       -2.6700163e-24 -2.9024208e-24 -1.8800551e-24 6.3179e-25
000310 f6 20 5f 17 40 3d 8f 17 87 dc 64 98 7f da 62 98
       7.209679e-25 9.25662e-25 -2.9579647e-24 -2.9320128e-24
000320 aa 03 16 98 d9 a5 39 17 d8 fe 35 17 5f bb a1 17
       -1.9388895e-24 5.9986053e-25 5.880591e-25 1.045168e-24
000330 5f cd 6e a6 c3 37 48 a8 87 0f 8e a6 05 90 92 0b
       -8.2851167e-16 -1.1114322e-14 -9.857438e-16 5.645385e-32
000340 4e b4 24 0e 86 6d 19 88 ff bc 5e a6 3f 44 3a a8
       2.0301374e-30 -4.6170507e-34 -7.727786e-16 -1.0339873e-14
000350 c6 ff 84 a6 0f 5c 85 8a 9c 68 02 0e 80 d0 3e 08
       -9.228667e-16 -1.2842063e-32 1.6074105e-30 5.7421136e-34
000360 c7 7a 71 a6 75 a4 48 a8 95 05 95 a6 20 47 a7 89
       -8.3780066e-16 -1.1137891e-14 -1.0340465e-15 -4.0270673e-33
000370 29 36 11 0e ee ef af 06 df 6c 19 a6 37 b4 03 a8
       1.7898707e-30 6.618023e-35 -5.3230086e-16 -7.311039e-15
000380 f4 39 34 a6 b1 61 af 8a 7c 7d f3 0d 3b a1 7f 08
       -6.2528586e-16 -1.6888634e-32 1.50062405e-30 7.6925797e-34
000390 31 d6 4c a6 51 92 2e a8 1d 6e 79 a6 c0 8b 24 09
       -7.1067e-16 -9.690668e-15 -8.653846e-16 1.9806492e-33
0003a0 24 4b 0d 0e 77 4a 08 08 bd 18 dd a5 bf 4e c7 a7
       1.741577e-30 4.1013544e-34 -3.8354152e-16 -5.5318972e-15
0003b0 3e 64 fa a5 70 47 56 0d 80 7e 24 0e 63 81 a3 8a
       -4.3436014e-16 6.602983e-31 2.0275468e-30 -1.5744999e-32
0003c0 bd e0 47 a6 d8 e7 2e a8 9f 97 73 a6 b9 bb 66 0d
       -6.934657e-16 -9.709213e-15 -8.4513046e-16 7.1100185e-31
0003d0 bf 44 e8 0d 7c 09 a5 8a ed 4c ac a5 92 63 9e a7
       1.4314654e-30 -1.589249e-32 -2.988937e-16 -4.3961764e-15
0003e0 c3 dc bd a5 8e 86 54 0e f0 8f 84 90 9a f6 45 8b
       -3.2935868e-16 2.6195803e-30 -5.228659e-29 -3.8126342e-32
0003f0 93 4e 6d a6 3d 38 46 a8 49 a9 8a a6 4f be 4c 0e
       -8.233238e-16 -1.1003403e-14 -9.621558e-16 2.5236572e-30

net.0.bias f4 [128]
000000 44 f6 b0 35 e2 2b 22 97 61 01 00 00 60 01 00 00
       1.3184695e-06 -5.240041e-25 4.95e-43 4.93e-43
000010 a7 29 08 ae 9b 48 71 b3 6a 01 00 80 65 01 00 00
       -3.0959815e-11 -5.617822e-08 -5.07e-43 5e-43
000020 5f 01 00 80 60 01 00 80 f6 97 82 1b fb a6 db b6
       -4.92e-43 -4.93e-43 2.1604898e-22 -6.5461477e-06
000030 a6 fe ff b5 b9 2e f8 bb 64 01 00 80 c4 58 d2 b2
       -1.9073093e-06 -0.007573929 -4.99e-43 -2.4487584e-08
000040 5a 04 34 2b 9c 56 25 90 a5 a5 b1 b1 c3 f6 8b 9a
       6.3954885e-13 -3.2607234e-29 -5.1702096e-09 -5.788772e-23
000050 cf fb f2 2d ec b7 fb bb 01 19 8b 3c fa 29 9a b6
       2.762404e-11 -0.0076818373 0.016979696 -4.5944444e-06
000060 de a1 12 1b f8 0d 8f 31 ed b1 6a 95 98 42 9d 87
       1.2129139e-22 4.163436e-09 -4.7396282e-26 -2.3661875e-34
000070 d7 8f 0e b4 9a e7 9a ac 30 3b 87 bc 1a b7 a4 0f
       -1.3277109e-07 -4.402656e-12 -0.016507715 1.6242177e-29
000080 22 54 9e ac 7e f0 01 b3 91 50 9a 84 61 01 00 00
       -4.4999707e-12 -3.025388e-08 -3.6279215e-36 4.95e-43
000090 20 f2 ce 13 84 01 00 00 db ed bd 38 6d 84 9b 2d
       5.2240465e-27 5.44e-43 9.056526e-05 1.7680269e-11
0000a0 6f 01 00 80 ea a5 0b ae 3d 15 f7 9d e8 59 70 11
       -5.14e-43 -3.1752302e-11 -6.5402315e-21 1.8960366e-28
0000b0 42 01 00 80 bc 42 b2 bb e6 b1 cb bb 74 63 6c 26
       -4.51e-43 -0.0054400843 -0.0062162755 8.201373e-16
0000c0 60 01 00 00 76 9e 94 16 56 ea bc bb 8e 25 4a 3d
       4.93e-43 2.4010692e-25 -0.0057652397 0.04935222
0000d0 07 6d b5 3a e2 bc 21 ba d5 66 23 84 66 01 00 00
       0.0013841697 -0.00061698083 -1.9207776e-36 5.02e-43
0000e0 a3 26 01 9a d4 3f 8b 94 fa d1 61 a9 22 a2 81 27
       -2.6707785e-23 -1.4060589e-26 -5.0142162e-14 3.5980477e-15
0000f0 4a 0a 09 a8 78 aa 2c b8 e7 e4 05 b9 74 fc bf b2
       -7.607259e-15 -4.1166757e-05 -0.00012769141 -2.2350129e-08
000100 8f 6a 43 b9 35 5b 90 14 61 01 00 00 6b 91 74 0d
       -0.00018636345 1.4576259e-26 4.95e-43 7.5363346e-31
000110 74 e4 d3 aa 65 01 00 80 05 13 e4 1a eb 96 29 3b
       -3.763965e-13 -5e-43 9.432932e-23 0.0025877308
000120 af 75 55 24 69 db e5 16 c5 85 30 92 da 96 09 bd
       4.6286694e-17 3.7135413e-25 -5.570069e-28 -0.03359113
000130 e7 22 03 36 ce cc 34 82 06 d0 7f 18 97 25 11 92
       1.9540837e-06 -1.3283088e-37 3.3063003e-24 -4.5800266e-28
000140 f9 08 09 b1 9b e8 a3 b4 df 66 4b 0c f4 fc d4 92
       -1.9941224e-09 -3.053036e-07 1.5669508e-31 -1.3441439e-27
000150 42 9c db ae 5f 01 00 80 49 26 18 31 64 01 00 00
       -9.986724e-11 -4.92e-43 2.2140674e-09 4.99e-43
000160 c5 75 41 37 83 00 0b 3b 34 e6 71 3b 76 c0 94 89
       1.1531117e-05 0.0021210022 0.0036910893 -3.5810693e-33
000170 e9 c9 49 a4 ec b0 7d ad ea 36 75 32 1c d2 7c 2a
       -4.3755952e-17 -1.44206695e-11 1.4273363e-08 2.2454993e-13
000180 1b 8a 02 99 f9 1b 11 ba ed 6c 25 24 3b 21 de b9
       -6.748733e-24 -0.0005535479 3.5870935e-17 -0.00042367898
000190 e1 8f 4b 99 05 b8 cd 31 5c 93 42 24 94 cb 13 2d
       -1.052391e-23 5.987206e-09 4.2191863e-17 8.401186e-12
0001a0 91 87 38 06 36 f9 29 17 65 47 35 3b 02 04 70 28
       3.4706152e-35 5.4921394e-25 0.0027660963 1.3323545e-14
0001b0 06 a9 00 80 32 f0 0f b4 6a 90 1a 32 af 57 b2 36
       -6.0634e-41 -1.3405295e-07 8.996816e-09 5.315021e-06
0001c0 0a ff f5 ac 27 36 5a 36 24 b2 1c 07 a0 7c 0d 80
       -6.991634e-12 3.2516052e-06 1.1788486e-34 -1.238568e-39
0001d0 dc 6f 56 0c 58 4a d6 bb 0a 52 7e bb 7f 60 0b bd
       1.6519622e-31 -0.006539624 -0.0038806223 -0.034027573
0001e0 12 a3 21 b3 fb de 96 0c 1c 62 1a 34 58 2f 6b 1e
       -3.7634045e-08 2.324536e-31 1.437806e-07 1.2450587e-20
0001f0 61 01 00 80 dd 5b 02 1a 30 27 2c b8 67 7f f0 93
       -4.95e-43 2.6957576e-23 -4.104449e-05 -6.0710146e-27

net.2.weight f4 [128, 128, 3]
000000 6c a3 4a bb b9 56 2e bb a4 69 ee ba 21 63 01 18
       -0.003092016 -0.0026601984 -0.0018189442 1.6722907e-24
000010 4a 9c 13 18 01 8c e4 17 ed a5 b7 0a 79 70 a4 0a
       1.907821e-24 1.4769497e-24 1.7684673e-32 1.5834933e-32
000020 40 80 1a 05 24 ad 66 1d 18 02 57 21 66 98 47 22
       7.264601e-36 3.0529758e-21 7.2847605e-19 2.7050208e-18
000030 0d 0b 2b 2c 65 bf 13 2c ed 5e 07 2c e6 c4 98 b4
       2.4306696e-12 2.0996202e-12 1.9237348e-12 -2.845547e-07
000040 f2 9b 4a b4 47 64 1b b1 68 01 00 80 6c 01 00 00
       -1.8869449e-07 -2.261247e-09 -5.04e-43 5.1e-43
000050 70 01 00 00 63 01 00 80 63 01 00 80 60 01 00 80
       5.16e-43 -4.97e-43 -4.97e-43 -4.93e-43
000060 5f 01 00 00 61 01 00 80 60 01 00 00 30 d6 c4 b3
       4.92e-43 -4.95e-43 4.93e-43 -9.165922e-08
000070 c9 8c ab b3 46 1e 77 b2 12 a6 e1 ae 9c 6e 39 ad
       -7.988417e-08 -1.4384176e-08 -1.02613154e-10 -1.0540593e-11
000080 99 26 e2 a6 e7 4d 9d 3b 32 84 6b 3b 8e 56 a3 3a
       -1.5692362e-15 0.0048005464 0.003593695 0.0012461708
000090 38 3e 0e b6 2e b6 03 b6 80 9f df b5 3e 1c 41 3b
       -2.1195865e-06 -1.9626564e-06 -1.6661215e-06 0.0029466297
0000a0 54 bb b0 bc 4a 84 11 bd 5f 01 00 00 5d 01 00 00
       -0.0215737 -0.03552655 4.92e-43 4.89e-43
0000b0 61 01 00 00 64 1a 0b af 82 34 b0 2f fe fd 4d 32
       4.95e-43 -1.2651352e-10 3.2051523e-10 1.1990322e-08
0000c0 e1 04 f4 2d 9a 64 07 2e 17 cd b6 2d 98 f9 7d 11
       2.7741755e-11 3.07848e-11 2.0782083e-11 2.0035093e-28
0000d0 9d 3a 5a 8f ab b9 98 90 cb 42 e5 30 2b 86 be af
       -1.0759518e-29 -6.0239496e-29 1.6680927e-09 -3.465613e-10
0000e0 f1 92 ca 30 a0 0e 2e 39 52 ed e5 38 02 cd ba 37
       1.4739198e-09 0.00016599381 0.00010963775 2.2268392e-05
0000f0 47 8d 73 2c 14 ed 44 2c 2f ff 17 2c 80 09 50 3b
       3.4610802e-12 2.798488e-12 2.1600046e-12 0.0031743944
000100 b8 75 b0 bc 0d bb 0c bd 28 55 db bb 80 ab 96 bc
       -0.021540508 -0.034358073 -0.006693501 -0.018392324
000110 37 8e ce bc d6 46 c8 36 53 05 9a 36 51 9b 43 36
       -0.025214298 5.968711e-06 4.5901775e-06 2.914767e-06
000120 50 4c 3d 9c 00 b0 3a 9c 79 28 4a 9c 45 70 f5 ba
       -6.2633486e-22 -6.176971e-22 -6.6888503e-22 -0.0018725476
000130 f5 4c e6 ba 42 1e 98 ba 91 a5 90 25 c9 e4 0f 26
       -0.0017570542 -0.0011605697 2.509221e-16 4.9923153e-16
000140 f7 94 79 23 9e ca 09 87 5d 67 67 87 af 3b ed 06
       1.35298616e-17 -1.0366278e-34 -1.7408884e-34 8.923719e-35
000150 5a e8 e8 ba 28 d8 1c bb 7e c0 5d bb 8c a6 ee 29
       -0.0017769441 -0.002393255 -0.0033836658 1.05982145e-13
000160 f6 ec 5f aa 96 26 79 aa 5f a7 bd bc 67 b2 b9 bc
       -1.9888591e-13 -2.212903e-13 -0.023151098 -0.022668077
000170 66 a3 b7 bc 45 d0 af 89 f7 21 69 8a 93 ee 7f 8a
       -0.022416782 -4.2325573e-33 -1.122493e-32 -1.2322674e-32
000180 06 de 09 3a fb 61 e9 39 86 67 7e 39 39 93 d7 34
       0.00052592193 0.00044514224 0.00024261893 4.015399e-07
000190 72 7f d0 34 78 d9 af b4 b8 c5 7e 24 9b a3 70 25
       3.8835748e-07 -3.275452e-07 5.5244945e-17 2.0872113e-16
0001a0 dc e0 d5 22 a7 fa 41 9f 46 70 17 a5 93 05 e3 26
       5.7971845e-18 -4.1076674e-20 -1.3135202e-16 1.57528e-15
0001b0 f7 b8 b2 2c 90 6a 9c 2b cc 20 b9 25 d2 0b 00 80
       5.0795995e-12 1.1114044e-12 3.2114608e-16 -4.24e-42
0001c0 89 ac 01 80 f7 02 00 80 45 8b 4b ba f0 d5 56 ba
       -1.5373e-40 -1.064e-42 -0.0007764588 -0.00081953313
0001d0 78 42 82 ba 85 38 03 ba 73 e5 c2 b9 96 63 dc b8
       -0.0009938022 -0.00050056755 -0.00037173516 -0.00010508967
0001e0 c5 ec 1b ad f3 23 2f ad 22 03 44 ab 78 cb 8d ab
       -8.863303e-12 -9.955581e-12 -6.9637536e-13 -1.0075126e-12
0001f0 9c 3b 94 ab 5d fb 5d ab fd d1 d2 39 89 58 b7 39
       -1.0532577e-12 -7.886381e-13 0.00040210775 0.00034970444
000200 32 55 34 39 92 a2 17 11 14 3c 22 90 43 bf 9c 11
       0.00017197875 1.1961896e-28 -3.199515e-29 2.4730334e-28
000210 d2 b0 c7 b3 9e a6 bb b3 c9 ed ac b2 91 c8 24 3c
       -9.298823e-08 -8.7381736e-08 -2.0131568e-08 0.010057584
000220 ae 00 1e bc e6 23 8e bc 63 e9 c1 ba 74 22 ab bc
       -0.009643717 -0.017351102 -0.0014794286 -0.020890452
000230 25 d0 07 bd e0 88 c7 36 93 d3 20 36 79 7b ab 32
       -0.033157486 5.9465965e-06 2.396501e-06 1.9963169e-08
000240 60 01 00 80 97 00 00 80 61 01 00 00 96 69 91 b7
       -4.93e-43 -2.12e-43 4.95e-43 -1.7334514e-05
000250 e6 d8 8f b7 00 8a 0c b7 2d f9 b4 3b f7 ee 45 bc
       -1.714793e-05 -8.376781e-06 0.005522868 -0.012080899
000260 d2 f7 a3 bc 91 6b 31 bd 02 a3 8a bd ed 56 a9 bd
       -0.02001563 -0.043315474 -0.067693725 -0.08268533
000270 93 9c 3a ba 5a c6 c6 ba 1e 9f cf ba 5f 69 94 bb
       -0.0007118668 -0.0015165315 -0.0015840267 -0.004529163
000280 61 26 7e bb a0 31 13 bb 01 e4 71 03 f3 d1 82 03
       -0.00387802 -0.0022459999 7.108527e-37 7.688915e-37
000290 d9 94 58 02 9c 9c 3f 18 92 d3 ae 17 26 45 b5 93
       1.5911891e-37 2.4765239e-24 1.1297894e-24 -4.575901e-27
0002a0 c5 02 31 37 e2 1c ba 36 37 b9 5a b5 fb d8 ad 92
       1.0550667e-05 5.5465944e-06 -8.148085e-07 -1.0971325e-27
0002b0 bf 23 64 12 26 8e 4d 93 6a e6 02 27 9d 75 bc 27
       7.1988175e-28 -2.5944722e-27 1.8166032e-15 5.2308e-15
0002c0 f5 37 1c 08 c5 2a b2 2a b0 1b b4 2d 18 7d 89 2e
       4.701032e-34 3.164883e-13 2.0475927e-11 6.25226e-11
0002d0 0e a8 80 38 28 0d 11 38 73 ba 5c 36 b9 77 bc b6
       6.134818e-05 3.4582947e-05 3.2891082e-06 -5.616774e-06
0002e0 4a 44 d7 b6 f7 f6 5f b6 98 91 f9 3a 61 3a e9 3a
       -6.415449e-06 -3.3373342e-06 0.0019040583 0.0017793888
0002f0 44 d3 ac 3a 4c 63 2b b1 5b 75 41 b1 cb 00 51 31
       0.0013185521 -2.4940219e-09 -2.8151905e-09 3.0413954e-09
000300 f4 de 52 3a f6 d9 c1 ba e6 8d 24 3a 5f 01 00 80
       0.0008044087 -0.0014789689 0.0006277248 -4.92e-43
000310 5f 01 00 80 5f 01 00 80 1a c9 55 ac ff 57 94 ac
       -4.92e-43 -4.92e-43 -3.0380754e-12 -4.2161825e-12
000320 95 01 1b aa 14 8e 90 87 29 ff 91 8c cb 82 eb 0c
       -1.3767314e-13 -2.1750218e-34 -2.2494356e-31 3.62862e-31
000330 62 f8 9f b6 41 55 88 b6 a0 33 54 b5 e9 66 30 24
       -4.767485e-06 -4.0630407e-06 -7.905128e-07 3.8251085e-17
000340 d6 06 18 22 5e c4 b8 17 28 54 9e a4 aa fc 60 22
       2.060346e-18 1.1940291e-24 -6.8664144e-17 3.049142e-18
000350 b8 20 d3 9d 31 09 80 39 cd 28 4d 39 2c f7 67 39
       -5.5885065e-21 0.0002442091 0.00019565523 0.00022121955
000360 17 bc 43 b4 d0 2b ce b7 7e 32 48 b8 27 03 bf 2b
       -1.8229217e-07 -2.4577515e-05 -4.773074e-05 1.3572241e-12
000370 3d 0b e6 2e 5a b9 80 2d 7d 6f e2 2f aa 1c f2 30
       1.04611854e-10 1.4634228e-11 4.1188378e-10 1.7615964e-09
000380 45 49 8e 30 23 04 87 3d 14 1a eb 3c 1b c7 33 3b
       1.0352684e-09 0.06592586 0.028698958 0.0027431909
000390 af 79 f3 33 05 78 01 34 07 58 cb 33 21 e5 92 81
       1.13377034e-07 1.2057724e-07 9.468936e-08 -5.3960714e-38
0003a0 1c 7d b4 81 29 ca d0 81 33 a4 f9 ac 75 49 5e ad
       -6.630108e-38 -7.669722e-38 -7.0952354e-12 -1.263555e-11
0003b0 52 2b aa aa 5a aa d4 30 9a a5 92 30 61 4b ee 2e
       -3.0228126e-13 1.5473447e-09 1.0669965e-09 1.0836377e-10
0003c0 53 0c 94 b1 af 11 9a b1 45 30 61 b1 53 80 10 bc
       -4.308768e-09 -4.4840003e-09 -3.2769247e-09 -0.008819657
0003d0 85 00 14 bc 46 16 fd bb a1 d3 0c 31 8f f0 69 30
       -0.009033327 -0.0077236025 2.0492978e-09 8.510676e-10
0003e0 12 35 dd ad 23 f5 f0 92 e5 31 3c 92 5e 1e bf 92
       -2.5148359e-11 -1.520656e-27 -5.938384e-28 -1.2061281e-27
0003f0 7c 5c c0 2c f4 0a 93 2b f2 71 06 a9 2d 58 72 80
       5.467236e-12 1.0448018e-12 -2.985281e-14 -1.0500878e-38

net.2.bias f4 [128]
000000 09 9f d7 bb a1 cb 75 a9 25 5e b6 ae f8 42 fd 9b
       -0.0065802378 -5.4577548e-14 -8.293125e-11 -4.1898617e-22
000010 2e 71 15 30 9b 3d b1 ba 4e 5a 82 bc 63 7e 85 8d
       5.436672e-10 -0.0013522388 -0.015912201 -8.227184e-31
000020 24 f6 a7 b2 6a ae 22 b6 1d c0 34 28 78 e3 cf bb
       -1.955329e-08 -2.4241403e-06 1.0033665e-14 -0.006344255
000030 3a 34 3b a6 7a bb 6f 39 5b c9 02 13 22 01 00 00
       -6.494944e-16 0.00022862657 1.6507583e-27 4.06e-43
000040 99 53 6d b9 90 56 17 3d 9c c4 bc a9 8f 1c 52 38
       -0.00022633224 0.036947787 -8.3829834e-14 5.00945e-05
000050 37 a5 78 a9 b6 05 20 a2 5b bc d4 2f a9 31 74 b8
       -5.5210363e-14 -2.1687067e-18 3.869641e-10 -5.8220383e-05
000060 f5 7c c6 b5 5f 01 00 00 5b 5e f4 bc ab c1 3b 3a
       -1.4788517e-06 4.92e-43 -0.029830148 0.00071623427
000070 5c f9 01 28 55 75 12 2f 76 d1 03 34 70 43 e7 03
       7.21501e-15 1.3320307e-10 1.2276527e-07 1.3592443e-36
000080 61 c0 63 0a 37 96 b0 bb 61 23 07 2b 55 93 02 bc
       1.0965835e-32 -0.0053890008 4.8010733e-13 -0.007969697
000090 ae de ef a2 e7 84 82 ba 1b 50 b6 0a bc bd 81 aa
       -6.501685e-18 -0.0009957821 1.7556095e-32 -2.3046658e-13
0000a0 6e e3 a9 2e 0e 42 50 b4 56 fd 85 b6 63 ee d1 b6
       7.72563e-11 -1.939554e-07 -3.993201e-06 -6.2564372e-06
0000b0 63 fb 19 06 42 c1 a6 9c 63 01 00 80 f2 3e 81 06
       2.8960792e-35 -1.1034915e-21 -4.97e-43 4.8616897e-35
0000c0 47 17 1c b9 69 7a cb a0 27 df da b2 26 5b c7 35
       -0.00014885991 -3.4470542e-19 -2.5480018e-08 1.4853183e-06
0000d0 df ad 1d ae ea f2 8b 33 5c 77 70 b6 10 a8 90 a5
       -3.5852096e-11 6.516878e-08 -3.5832263e-06 -2.5093902e-16
0000e0 2c c9 f9 87 66 36 cf 15 10 1e a5 ae 0d 29 d7 ba
       -3.7583594e-34 8.369246e-26 -7.5086715e-11 -0.0016415432
0000f0 a3 72 b0 86 bc ed de 9a fa 77 b5 ad ce d0 b8 05
       -6.6372285e-35 -9.220113e-23 -2.0630598e-11 1.737998e-35
000100 5f 01 00 80 3a ce d9 b9 0b 95 55 3b 00 5d 10 ab
       -4.92e-43 -0.00041543116 0.0032590057 -5.128814e-13
000110 d0 b9 93 3c b5 17 86 b7 37 88 55 b3 8e f6 31 aa
       0.018032938 -1.5985084e-05 -4.9716814e-08 -1.5806299e-13
000120 9c 00 00 80 42 72 f3 9b 2a 2a ac bb a3 f7 3f ba
       -2.19e-43 -4.0274815e-22 -0.00525405 -0.00073229725
000130 83 c3 2a b2 8b e9 e0 b1 d3 54 ee bc b1 d5 17 a0
       -9.939757e-09 -6.545809e-09 -0.029093182 -1.2860902e-19
000140 73 76 7a af 11 58 0e b7 0f 71 1f 88 7e 26 05 b3
       -2.2779449e-10 -8.484364e-06 -4.798022e-34 -3.1001484e-08
000150 1a 2d 59 31 83 da 9a 2a 1d 4e ec b3 89 b9 9b ab
       3.1603293e-09 2.7507518e-13 -1.1003815e-07 -1.1064909e-12
000160 3d 2b 23 a6 3d 30 82 34 b1 da bf 20 23 fa f4 27
       -5.6610584e-16 2.4249485e-07 3.2501376e-19 6.7994803e-15
000170 62 01 00 80 35 ca 1c 02 d4 26 15 00 ec 9b a4 aa
       -4.96e-43 1.15191e-37 1.942474e-39 -2.9240445e-13
000180 e0 ac bf 3a 1c 24 0b 17 63 15 50 b3 c8 44 17 35
       0.0014623664 4.49589e-25 -4.8448225e-08 5.6351973e-07
000190 c6 49 c1 ae e5 ce 00 b6 f9 f8 b4 bb 1d 8c 5a 21
       -8.789729e-11 -1.9193915e-06 -0.005522844 7.404671e-19
0001a0 e2 44 c9 b6 bb d8 87 35 6c 74 ea b8 76 5e 2c b6
       -5.998286e-06 1.0121361e-06 -0.00011179675 -2.568498e-06
0001b0 4a 8e b4 10 19 61 ca ac 27 24 31 34 fb 58 64 ba
       7.121671e-29 -5.7519653e-12 1.6497562e-07 -0.0008710769
0001c0 64 c4 0c 9f 49 3d 46 9a 0f 2f 84 2e 9d 6f 9a 16
       -2.9808604e-20 -4.0994946e-23 6.011024e-11 2.495048e-25
0001d0 cc aa cb bc 62 8a 25 3d 08 f8 24 a1 23 ae 3e b8
       -0.024861716 0.040415175 -5.589363e-19 -4.5461707e-05
0001e0 39 61 a9 ba 7e 8b d4 2f 79 e2 6d 85 07 f1 fb bc
       -0.0012922651 3.866169e-10 -1.1185283e-35 -0.03075458
0001f0 0d f0 f2 38 ee 8e 15 8f 0c e6 88 aa a5 8a 0f 00
       0.00011584172 -7.3737944e-30 -2.431808e-13 1.427269e-39

net.4.weight f4 [128, 128, 3]
000000 15 ca 06 3c 62 44 30 3c 5e 05 53 3c bf a8 10 29
       0.008226891 0.010758491 0.012879698 3.2120787e-14
000010 54 73 80 a9 2a b5 8a a9 9e c7 3c 2e 4d 4f 04 2e
       -5.704348e-14 -6.159858e-14 4.2923547e-11 3.008376e-11
000020 e4 7b 33 2d 5f 01 00 00 62 01 00 80 02 22 1b 88
       1.0202481e-11 4.92e-43 -4.96e-43 -4.668359e-34
000030 47 96 c2 2f aa ad a6 2f cc 8e 19 ae df 26 1d 3a
       3.5395173e-10 3.031862e-10 -3.4915e-11 0.0005994867
000040 01 89 a3 3a 25 51 c5 3a 03 68 d0 3a 07 ca 04 3b
       0.0012476743 0.001505409 0.0015900139 0.002026202
000050 8a 7d cf 3a ae bf 52 0d 03 40 45 0d 79 72 00 8d
       0.001583026 6.494197e-31 6.0782363e-31 -3.9580837e-31
000060 7f 6a 49 af 38 4c f2 ae e8 f7 a5 2e 5a 91 b6 2b
       -1.8318679e-10 -1.1018425e-10 7.547368e-11 1.2972221e-12
000070 e3 60 0a ac 46 7e 26 2c a1 76 05 27 5f ab 43 a6
       -1.9664762e-12 2.3660115e-12 1.8521767e-15 -6.7886467e-16
000080 e4 40 5f 27 de d8 b3 3b d4 4e 0a 3c a6 aa 24 3c
       3.0982644e-15 0.005488499 0.008441646 0.010050451
000090 60 c3 19 a6 1c 93 10 28 ce 44 ac 29 71 e4 ad b9
       -5.334732e-16 8.025505e-15 7.65027e-14 -0.00033167333
0000a0 9d b4 4e b9 d9 1f 7f b9 51 b7 3e 0d b4 58 8e 8b
       -0.00019712975 -0.00024330559 5.876893e-31 -5.4829876e-32
0000b0 87 95 bd 06 62 01 00 00 6f 01 00 80 8e 01 00 80
       7.131361e-35 4.96e-43 -5.14e-43 -5.58e-43
0000c0 47 5d 03 38 8e 6a 06 39 cd de b0 39 04 cc 27 bc
       3.1319705e-05 0.0001281893 0.00033735335 -0.010241512
0000d0 ca bf 3b bc 24 49 55 bc 98 25 8f 1d 6d 23 3d 2a
       -0.0114593 -0.013017926 3.7890656e-21 1.6798863e-13
0000e0 5e 89 11 2a 56 80 6b 37 c6 2a 18 37 1e 33 d9 36
       1.2926246e-13 1.4036972e-05 9.069865e-06 6.473055e-06
0000f0 eb 88 ba 2b 38 90 8f 2c 37 f3 3b ac f3 52 62 20
       1.3254097e-12 4.080316e-12 -2.670931e-12 1.917039e-19
000100 b6 86 07 23 0b e4 11 9f 74 49 e0 2e 01 bb a9 af
       7.346891e-18 -3.0893577e-20 1.01993886e-10 -3.0873795e-10
000110 4e f7 fd ae f7 89 71 2e 1f 34 b9 ad cc c6 b2 ac
       -1.1549038e-10 5.4919593e-11 -2.1055211e-11 -5.081135e-12
000120 1b 16 8b 35 eb c9 60 36 c2 a9 c8 35 67 01 00 00
       1.036274e-06 3.3496133e-06 1.4950567e-06 5.03e-43
000130 67 01 00 00 65 01 00 80 f0 d8 11 3d 2a 3b 0f 3d
       5.03e-43 -5e-43 0.03560728 0.034968533
000140 0f f6 0b 3d 6a 16 36 37 36 5a a1 b9 b4 3b 62 38
       0.034170207 1.0853264e-05 -0.00030775525 5.39382e-05
000150 7f fb 05 27 f3 69 e8 28 8f 43 ba 28 3e 91 82 ae
       1.8593794e-15 2.5803122e-14 2.0679447e-14 -5.937516e-11
000160 ea 57 8a ae fc 6c 87 ae 4d 8f 06 34 66 60 e8 33
       -6.29113e-11 -6.158449e-11 1.2531855e-07 1.08208766e-07
000170 7d 93 01 34 60 01 00 80 64 01 00 80 5f 01 00 80
       1.2067717e-07 -4.93e-43 -4.99e-43 -4.92e-43
000180 ce ac 8f 08 1f c3 3e 88 08 c9 23 07 2b 5d a2 3b
       8.647126e-34 -5.740541e-34 1.2321835e-34 0.004954954
000190 a0 c5 05 3c 0c 0f 1e 3c 42 28 19 2f 05 0f 5b 2c
       0.008164793 0.009647142 1.3929571e-10 3.113011e-12
0001a0 20 4c 03 2e 4f d8 7a 3c 18 db 8e 3c f1 4b a0 3c
       2.9853564e-11 0.015310361 0.017438456 0.019567462
0001b0 fd 7e 48 0c 03 89 50 0a b1 b3 07 85 9d 67 1f b9
       1.5445654e-31 1.0040605e-32 -6.3806736e-36 -0.0001520202
0001c0 bc ca 0f b8 01 2d 65 b6 ff 47 8a 8b 59 ed f4 0a
       -3.4282668e-05 -3.4149855e-06 -5.3263994e-32 2.3585626e-32
0001d0 94 b8 85 0b d9 c0 04 00 9c 6b 0c 00 9a 03 00 80
       5.150746e-32 4.36523e-40 1.140629e-39 -1.292e-42
0001e0 0b 77 48 2e 3f 13 8e 2e 1b 05 a7 2e e2 89 2f 36
       4.5580466e-11 6.460831e-11 7.595188e-11 2.615729e-06
0001f0 bb 7e e8 35 1e 9d 65 35 43 ad 00 35 b7 2d ae 36
       1.732223e-06 8.5537783e-07 4.7935845e-07 5.190926e-06
000200 7f 5b 5a 36 be 40 4c 36 c9 83 1e 37 5b 34 84 36
       3.253779e-06 3.0436054e-06 9.4482175e-06 3.9400015e-06
000210 83 2c 5b 01 af 9e 04 81 1d b5 26 01 27 90 80 9d
       4.0255883e-38 -2.435842e-38 3.0619327e-38 -3.4030368e-21
000220 5e 22 b7 1f 8d 06 91 1f 61 01 00 00 5f 01 00 00
       7.756037e-20 6.1420726e-20 4.95e-43 4.92e-43
000230 60 01 00 00 12 1d 99 04 8b 6b 9a 85 62 5e 13 83
       4.93e-43 3.5996824e-36 -1.4521595e-35 -4.3307764e-37
000240 6f 69 5d b5 ed af 79 b5 e4 30 ea 34 87 e2 58 90
       -8.248234e-07 -9.3015734e-07 4.362147e-07 -4.2773e-29
000250 0a d0 4c 90 6b f5 ce 88 03 a0 dd 32 57 7e 89 32
       -4.0392174e-29 -1.24558715e-33 2.5800551e-08 1.6006352e-08
000260 3a e7 cc 32 2b bd 45 34 f9 19 97 34 29 dc c0 34
       2.3853875e-08 1.8415874e-07 2.814484e-07 3.5922974e-07
000270 fe e3 9d 2c ea ce 88 2e 92 89 8a 2e 18 86 a0 85
       4.4875206e-12 6.221319e-11 6.299951e-11 -1.5095586e-35
000280 2c 9d 5f 35 4a f1 46 36 47 c8 9e b3 c4 81 4c b5
       8.330269e-07 2.9644748e-06 -7.3938786e-08 -7.6184756e-07
000290 c3 b0 14 35 92 5c 0b 23 7e 23 02 25 ea f3 07 25
       5.539152e-07 7.554808e-18 1.1287728e-16 1.1792025e-16
0002a0 0c 28 c3 85 d5 ca 3e 85 e1 c6 8f 05 88 c3 97 12
       -1.8352423e-35 -8.9710114e-36 1.3520712e-35 9.577642e-28
0002b0 c9 3b ce 92 bc 81 cc 92 2b f9 76 98 be c7 35 98
       -1.3015166e-27 -1.2906192e-27 -3.1920552e-24 -2.3494546e-24
0002c0 c3 ab 39 19 17 d8 aa 33 b0 4e c1 31 8a 20 a1 af
       9.598963e-24 7.9555484e-08 5.625985e-09 -2.930885e-10
0002d0 9a 88 87 89 6c 01 00 80 74 01 00 00 c6 e0 c8 16
       -3.2628527e-33 -5.1e-43 5.21e-43 3.2453595e-25
0002e0 1c 2c 8c 16 27 f4 f8 18 9b 5f 4c ac 20 6a ac aa
       2.2646057e-25 6.435303e-24 -2.9043215e-12 -3.0626977e-13
0002f0 74 01 00 80 a1 4d ae 82 da d0 35 82 ee 80 72 02
       -5.21e-43 -2.561156e-37 -1.3357717e-37 1.7816353e-37
000300 64 01 00 80 68 01 00 00 bc 01 00 00 66 ae 99 b0
       -4.99e-43 5.04e-43 6.22e-43 -1.1181782e-09
000310 76 0d 1f b0 ff 6a e5 2f d3 ac 69 3b 35 0b 6f 3b
       -5.786299e-10 4.1730883e-10 0.003565599 0.0036475186
000320 d2 be 63 3b 52 ee 0f 83 ef db e2 02 03 ff e4 01
       0.003475119 -4.22975e-37 3.333395e-37 8.4119896e-38
000330 93 3e c5 bc 62 c4 ca bc 5b 20 f9 bc ac 45 54 b6
       -0.02407769 -0.024751846 -0.030410936 -3.1631016e-06
000340 70 3f 18 b6 30 f2 85 b5 c2 f3 81 33 ce 41 3a 33
       -2.268669e-06 -9.979758e-07 6.05137e-08 4.336635e-08
000350 7f 73 8e 32 5d 3a 49 aa 2f 60 4b aa b4 ff 79 a8
       1.6583497e-08 -1.7872635e-13 -1.8063392e-13 -1.38777234e-14
000360 65 01 00 80 aa 01 00 00 6d 01 00 00 12 a5 05 80
       -5e-43 5.97e-43 5.11e-43 -5.18394e-40
000370 cc ee 00 00 4b 01 00 00 b3 c3 bf b7 dd 12 c2 37
       8.5664e-41 4.64e-43 -2.2860104e-05 2.3135386e-05
000380 ac 18 5e 37 19 20 b7 39 9a 28 62 3a ad 0e 84 3a
       1.32379755e-05 0.00034928395 0.0008627266 0.0010075175
000390 57 ca bc 0e e5 b8 3d 10 39 bc 17 10 f0 50 af 31
       4.6540424e-30 3.7416115e-29 2.99245e-29 5.102372e-09
0003a0 f2 6c 65 31 d4 d1 45 30 f1 2c ff 3c f8 ab 00 3d
       3.3385814e-09 7.1966366e-10 0.03114936 0.031414002
0003b0 f1 d9 fd 3c 20 36 0a 02 4e 11 66 00 f7 1d 82 81
       0.030987712 1.0154172e-37 9.373428e-39 -4.7797455e-38
0003c0 62 e7 0a 20 57 0e 16 20 94 45 f2 1f a4 40 43 35
       1.1765613e-19 1.2710239e-19 1.02606094e-19 7.2737225e-07
0003d0 4c 89 d1 32 0e ca c3 aa 66 01 00 00 6b 01 00 80
       2.4393238e-08 -3.4779162e-13 5.02e-43 -5.09e-43
0003e0 62 01 00 80 29 f1 1e b1 86 b5 67 b2 9d 9c 7e 32
       -4.96e-43 -2.312911e-09 -1.3487243e-08 1.4820356e-08
0003f0 c0 ee ae 2d d1 c7 f5 2f f2 bc 8d 30 fb 74 f5 29
       1.9887536e-11 4.4707218e-10 1.0312802e-09 1.09004785e-13

net.4.bias f4 [128]
000000 b4 c7 cb bb db bb 8f bb 97 9f 33 b1 5b cb 8c b6
       -0.006218875 -0.004386408 -2.6138645e-09 -4.195999e-06
000010 23 35 34 b5 1b e7 2a bb f2 22 28 b3 a8 94 d8 3c
       -6.713255e-07 -0.002607769 -3.914733e-08 0.026438072
000020 d9 15 70 bc 7f 29 b3 bc f0 8c 8e bc 1f af a7 34
       -0.014653646 -0.021870373 -0.017401189 3.123359e-07
000030 ca f5 da 3c fc 68 57 3a 54 78 28 bc 9a 33 c9 3b
       0.02672853 0.0008217243 -0.010282595 0.0061401846
000040 b3 c3 39 b8 d4 10 9b bc cd 28 e0 3c 9e e9 13 35
       -4.4289696e-05 -0.018928923 0.027363205 5.5101725e-07
000050 b7 60 97 36 1c 3b c6 bb b4 6c 36 b3 dc a4 40 b7
       4.5114098e-06 -0.006049527 -4.2474042e-08 -1.1482476e-05
000060 3c 02 80 bc c3 3f 23 b2 79 8d 8e bc a1 3f 4b b2
       -0.015626065 -9.5023465e-09 -0.017401444 -1.1830623e-08
000070 75 c7 2f b7 98 a7 aa 3c 1d ab 7c b8 15 52 e8 bb
       -1.04772525e-05 0.020831868 -6.0240844e-05 -0.007089863
000080 a2 dd 9b bc 85 36 89 3c 6f 64 f5 32 a3 54 e3 b6
       -0.019026581 0.01674963 2.8567426e-08 -6.77498e-06
000090 f7 b6 3e bb 1f 5c a6 39 5c e6 1d b3 11 09 61 b3
       -0.0029100755 0.00031730623 -3.676392e-08 -5.239514e-08
0000a0 65 17 06 bc 9e 8f af b0 94 fc 90 bc 62 54 7b 3b
       -0.008184289 -1.2773744e-09 -0.017698564 0.0038349857
0000b0 0f 3e 0d 3d db f8 02 3c e5 58 81 bb 79 c0 47 b6
       0.03448301 0.007993902 -0.0039473646 -2.9765345e-06
0000c0 31 64 0c 3d 5f 60 a9 af bc d7 1b 3d 15 c7 21 bc
       0.034275237 -3.0809397e-10 0.038047537 -0.009874125
0000d0 b7 41 99 3c 8d c6 aa bb e6 d2 ed 3c a4 08 cf 2e
       0.018708093 -0.0052116574 0.029031228 9.414805e-11
0000e0 45 cf 24 b9 8c 9b f7 3c 88 e0 d8 b4 1b d7 ff 3c
       -0.00015717473 0.030225538 -4.0396503e-07 0.0312305
0000f0 86 dd 6c b2 34 05 94 b1 20 12 4c bc 7e 14 e7 bb
       -1.3787377e-08 -4.3079584e-09 -0.012455493 -0.0070520034
000100 26 3d 20 b7 bc 70 39 ba af 6c 05 bc 73 4f 0b 3b
       -9.55098e-06 -0.00070739887 -0.008143588 0.0021257072
000110 28 75 c6 b6 41 23 81 3c de e0 d3 b9 c9 c0 53 b2
       -5.9144986e-06 0.01576388 -0.00040412595 -1.2325651e-08
000120 57 ce b9 36 90 30 c8 3a dd c1 db 2f d7 bb a8 bc
       5.5374508e-06 0.0015273262 3.9973616e-10 -0.020597382
000130 bc f0 a1 30 bb ff f0 3c f1 6f 44 bc e9 50 da 3c
       1.1782713e-09 0.029418817 -0.01198958 0.02664991
000140 20 03 0a 3d 93 0c e7 b0 d2 c4 f5 b3 8b 8f 89 30
       0.033694386 -1.6811036e-09 -1.1444503e-07 1.0008859e-09
000150 88 a2 fb a4 a9 79 c9 b4 95 4d 82 3c 34 ca ad 30
       -1.0912924e-16 -3.7527687e-07 0.015906135 1.2644876e-09
000160 72 13 1a bc d4 e5 80 bc 57 87 1e bc 67 07 a1 3c
       -0.00940405 -0.01573459 -0.009675822 0.01965685
000170 a7 ba 70 3d 3a da 25 b9 dd 28 db 3c b6 b6 f1 29
       0.058771756 -0.00015816922 0.026752884 1.0734245e-13
000180 fa 46 60 b2 23 16 9b bb ab 9e 68 3c 02 16 82 b3
       -1.3054654e-08 -0.0047328635 0.014197986 -6.0576e-08
000190 fe 3d c1 b6 bb 47 bd ad b5 87 4a b4 bf e4 83 ba
       -5.759065e-06 -2.1518667e-11 -1.8862086e-07 -0.0010062678
0001a0 0b 16 eb 38 a8 e7 20 3c 93 1e 91 bb ff 7f b3 b7
       0.00011209779 0.009820856 -0.0044286936 -2.1398066e-05
0001b0 36 55 17 3d 74 d5 19 af 8b 3f 14 bc 97 c3 72 b6
       0.036946498 -1.3991103e-10 -0.009048353 -3.6174658e-06
0001c0 81 66 93 3a 9e 70 1f 3c e9 5a f9 bb e8 6f be bb
       0.0011245759 0.00973144 -0.0076097143 -0.00581168
0001d0 04 84 9f bc 85 66 84 bc 4a cb 4a ba c5 74 4d 39
       -0.01947213 -0.016162166 -0.0007735981 0.00019593824
0001e0 e5 33 b1 bb 55 a4 df b5 da 6e 33 b7 b5 fa 81 bc
       -0.0054077976 -1.6662622e-06 -1.0695041e-05 -0.015866617
0001f0 36 70 d7 ac 33 a7 88 b5 52 13 0c 3c c7 00 0e a6
       -6.1231254e-12 -1.0181451e-06 0.008549528 -4.92672e-16

net.9.weight f4 [1, 128]
000000 9f 8a d6 3d 4f 21 e8 3d 6d 35 2a bb 97 57 5b bb
       0.104756586 0.11334478 -0.0025971786 -0.0033468956
000010 f1 10 34 36 b2 aa 82 3b 05 84 dc b3 0a 91 3f bd
       2.6831951e-06 0.0039876336 -1.02685625e-07 -0.04676918
000020 f3 e4 0b 3e a2 99 06 3e 93 2b fa 3d d7 2d 34 34
       0.13661556 0.13144544 0.122153424 1.6780483e-07
000030 57 7d 65 bd ef a9 08 3e 0d 6f d4 3d 02 d7 df 3d
       -0.056027737 0.13346075 0.10372744 0.10929681
000040 e1 4f cc b8 fd 4a 37 3e 8d 0a 86 bd cb 24 62 37
       -9.7423566e-05 0.178997 -0.06544981 1.3479216e-05
000050 b0 04 89 37 ed e1 10 bd 33 92 2f b6 e9 6c 23 3e
       1.6333855e-05 -0.03537171 -2.6162131e-06 0.15959515
000060 20 3b 19 3e 0b 2d 94 33 32 d1 0c 3e e5 9a a5 b4
       0.1496396 6.89998e-08 0.13751677 -3.0846346e-07
000070 d8 31 06 38 9b c0 7a bd eb 5a b0 38 3e c9 1d 3e
       3.199451e-05 -0.06121884 8.409269e-05 0.15408799
000080 38 52 fd 3d 1d f9 46 bd 99 7f 64 33 ed e8 9a ba
       0.123691976 -0.048577417 5.3201436e-08 -0.0011818685
000090 85 ce 08 3e 76 0f 24 3b 89 e4 22 b2 32 0f e4 b3
       0.13360031 0.002503363 -9.481604e-09 -1.06198414e-07
0000a0 89 e2 b1 3d 68 38 4e b2 f0 d5 17 3e 47 38 98 3b
       0.08685786 -1.20036034e-08 0.14827704 0.0046453807
0000b0 74 ae a0 bd 4f 0e be bc 8c c0 ac 3c 82 ea 98 b9
       -0.07845774 -0.023200182 0.021087907 -0.0002916642
0000c0 c1 cc 57 bd ca 9c 8b b2 49 06 78 bd cd 61 16 3e
       -0.052685503 -1.625303e-08 -0.06055287 0.14685746
0000d0 0f 1d 53 bd f5 43 06 3e 9f 96 56 bd 94 d0 7a b1
       -0.051541384 0.13111861 -0.052389737 -3.649835e-09
0000e0 99 a6 fa 39 a6 b5 8a bd 2d b9 16 35 e5 e7 39 bd
       0.0004780784 -0.06772928 5.614882e-07 -0.045387167
0000f0 bc e6 08 b2 3b f9 0a b4 7b 13 e9 3d d8 1b 07 3e
       -7.968705e-09 -1.2942921e-07 0.11380669 0.13194215
000100 43 d2 c6 36 49 98 22 bb 70 cd d5 3d 7a 68 e5 3d
       5.9253375e-06 -0.0024810007 0.10439575 0.11201568
000110 b0 dc 9c 38 d5 ef 63 bd be e6 8b ba 20 ce ab b2
       7.479766e-05 -0.055648644 -0.0010673625 -2.0000755e-08
000120 12 42 c5 b4 f4 8d a4 bb 01 f6 b5 b2 8a 3a 1a 3e
       -3.6742182e-07 -0.005021805 -2.1183043e-08 0.15061393
000130 df c2 d8 b2 fe 82 a1 bd 83 67 27 3e 1a 50 80 bd
       -2.5234327e-08 -0.07886313 0.1634808 -0.06265278
000140 5e 4e 88 bd c1 9e 47 af fc d8 51 b5 8f 11 c8 30
       -0.06655572 -1.8155345e-10 -7.817432e-07 1.4556906e-09
000150 4d cb 1e a8 cb 86 be b3 d2 2d 12 bd 7d 93 92 30
       -8.814846e-15 -8.872083e-08 -0.03568823 1.0664817e-09
000160 af ab 59 3d 70 35 f8 3d b9 1f 13 3e c7 cf 4e bd
       0.053142246 0.121195674 0.1436757 -0.05049112
000170 ba a3 b3 bd bd e4 ed 3a 9a 41 64 bd 4a a1 b1 2a
       -0.08771463 0.0018149834 -0.055726625 3.1553433e-13
000180 69 22 79 32 90 11 88 3d e2 68 7b bd 25 4d e2 b4
       1.45015315e-08 0.06643975 -0.06137932 -4.215191e-07
000190 cc 77 7c 36 13 ce ce af 2f 46 d7 b3 6a c3 9d 3b
       3.7620657e-06 -3.7617606e-10 -1.0024484e-07 0.004814555
0001a0 f0 c6 bd 39 5f 89 ed bc c8 bb 0e 3d a9 c7 6e b7
       0.0003619711 -0.028996168 0.03484705 -1.42323925e-05
0001b0 5f c6 6f bd d6 e4 1a 2e 49 09 04 3e 43 6f 69 37
       -0.05853879 3.5218793e-11 0.12894167 1.3913787e-05
0001c0 8d 9c 20 3c 0e 40 ca bc 36 21 1d 3e 35 ce 02 3e
       0.00980295 -0.024688747 0.153447 0.12773974
0001d0 92 4b 19 3e fe 81 15 3e 4f b6 4d 3a 3e 79 a8 39
       0.14970234 0.1460037 0.00078472955 0.0003213379
0001e0 43 4c 09 bc 93 fe 6a b6 36 4e 7c 39 49 1b 17 3e
       -0.008379999 -3.50169e-06 0.00024061729 0.14756502
0001f0 17 f5 49 ab 77 fe cd 35 88 fd 5a bd 00 e1 2c b9
       -7.1749675e-13 1.5347749e-06 -0.053464442 -0.00016487017
